src/facexpr/cGen+cDis/Version 1.7Final/weight/disc_ep140.pth (torch, 247605 bytes, 17 tensors)

conv.0.weight f4 [16, 1, 4, 4]
00000000: c7c8 713e 012b 8a3e 72f9 683e 059f e6bd
00000010: 1d7c 92bd 4ce6 30be dbb0 06bd a38f 333c
00000020: 95d4 8dbd f848 9b3c 319d 35bd 0145 25bd
00000030: b2cf 7ebe 2e07 72bd 8de8 713d 9629 cfbd
00000040: 8e05 223e f2c4 55be e3eb 57be 1fff 7cbe
00000050: 6848 80be 709a 943e 2ab7 1f3e a293 6b3e
00000060: 38d1 223e bbae ca3d ebd7 6abd 4e6a 4c3e
00000070: be78 d83c 9637 debd 7c4a 1ebe 62b5 afbd
00000080: 4bc8 56be 17ea dc3d 3fb3 0f3d dbd3 b23d
00000090: 5875 19be 15bf 07be 05cd 1abd e172 143e
000000a0: 35ba 0d3d 2626 463d 6d0b 813d 1d24 113e
000000b0: 28dd 34bb 3c3a ec3d 3cee ed3b f7e3 123d
000000c0: 37e4 673d 8a0b 2d3e f2f2 6d3d 8918 92bb
000000d0: 1927 b63e 8b33 48be 7526 82be 8d38 533c
000000e0: 18ad 40be c53c d5be 5304 073e 0c18 b9bd
000000f0: a4b0 f8bc 30c1 0b3e 4a40 4f3e 7caf 873d
00000100: dd63 a63d bacc d13c 1f06 06be 6297 003d
00000110: 694d 803c f043 f53d ea71 b439 7576 d9bb
00000120: 6f2d 693e 75cc c23d e0d5 81be d1cc ecbd
00000130: a4b8 3d3e fbf3 6fbe 0d8e 49be ebb7 2c3e
00000140: 2a5e 0dbd 12e4 febd aa0d 863d cbac 223e
00000150: 0de8 203e e341 223d 25b6 d7bc d400 903e
00000160: 69eb 81be a995 4ebe d4ab a6bd a6dd d83d
00000170: b0c5 5f3e c5c5 68be bef5 c3bd ac62 1ebd
00000180: 5d8d b33d f856 b63d a835 12be 2d40 083e
00000190: f651 4ebd 4730 fbbc db12 3fbe f098 273e
000001a0: 5d49 46bd 33c8 c43d 333b be3c e591 283d
000001b0: 3db9 e5bd 55dd 383e 66f2 3abe d0ec 23be
000001c0: 4f6b 8d3c 0d27 423c 52b9 33be a821 96bc
000001d0: db2e 8b3e 8719 20be adc7 8bbe e745 9dba
000001e0: ffab 6f3e b014 343e f774 85bc 375f 8fbe
000001f0: acf4 d03d 7b9a 313e 65b5 84bd bdd7 a83c
00000200: 1f0d e53c 16a2 183d 014a 7a3e 118e 1fbe
00000210: d739 c63d 5c05 98bd 841c da3d d635 69be
00000220: af3b 41be a723 1b3e ec8c 573e 01f3 b53d
00000230: 58e3 2cbc 7374 003e 4cb6 3d3e bcd8 953c
00000240: 70c9 6b3c 581a 9a3d 7c38 bdbd 72ec c1bd
00000250: 3447 f4bb 6038 3cbe 940f 51be 2504 9dbe
00000260: 0560 adbd ba64 cb3d e147 193e b129 b33d
00000270: 0263 913d 2603 903d 41c0 743e 0cb7 2b3e
00000280: d359 3a3e bef0 413e 6143 39be 1db6 93be
00000290: f4af 5fbe e208 80bc 947a 90be 0ac3 7bbd
000002a0: 908f 403e 926c 9d3d 1b4e 3c3e 509e 86be
000002b0: dfa8 aa3c d00c 123e 73ee d33d 7f59 513e
000002c0: 4878 843c 32c6 2a3d d099 f03d e9b3 31be
000002d0: c9e4 ac3d 7904 383e d4b0 c03c c0a9 703b
000002e0: 96fa eb3d 105f 883e e416 a2bd 9d93 4bbe
000002f0: 763a f0bc f2c9 d93d f52e 68be c99c 7bbe
00000300: c60b c0bd b6c9 86be a39a 9cbe 4dd5 a93c
00000310: 88e4 54be c66a 483b 9a6f 763e 9171 06bd
00000320: a286 1a3e 3b66 5a3e ad80 483e e86a b23d
00000330: cefa d4bd 925c ba3d 859b d1bc ef5b 153d
00000340: 35d0 fabd 2764 0bbd 8d51 e3bd 485d 04bd
00000350: 666b 8d3d 99a7 37be 7763 0d3d 0662 07be
00000360: 1eec 9d3c 3c0d b5bb 924f e53a 99f4 0abd
00000370: 0b25 833d 68a3 503d bb1d 8b3d 5e93 cdbd
00000380: caf0 02bd d6be 30bd 326f 31bd 943c 353c
00000390: b242 29bd a074 e83d e515 c6bd cb31 91bd
000003a0: 8f7f be3d 31ca 26be 1db7 74bc 38b9 d1bd
000003b0: 5199 e2bd 1b56 173d f152 95bd 3d5e 4e3e
000003c0: 50d3 813d 61fc 903d 3de4 2c3d f627 39bd
000003d0: 1708 033e 52f9 d73d 492a 1b3e f201 1b3e
000003e0: 0cf0 153c 9d45 9cbb 90c9 40bd 9438 03be
000003f0: e49d 0dbe 7483 06be e72d 36bd a667 d13c
0.23611747 0.26985934 0.22751406 -0.11260799 -0.07152579 -0.17275351 -0.032883506 0.010959539
-0.069253124 0.018955693 -0.044339363 -0.04034901 -0.24883917 -0.05908888 0.05905967 -0.10115354
0.15822431 -0.2087591 -0.21086077 -0.24706696 -0.25055242 0.29024076 0.15597215 0.23005536
0.15900123 0.098966084 -0.05733482 0.19962427 0.026424762 -0.10850446 -0.15458101 -0.08579518
-0.20974843 0.107868366 0.03508305 0.087318145 -0.1498617 -0.13256486 -0.037793178 0.14496948
0.03460141 0.048376225 0.063010074 0.14173932 -0.002759764 0.11534545 0.0072610658 0.035861935
0.056614127 0.16898933 0.05809302 -0.004458491 0.35576704 -0.19550912 -0.25419965 0.012891901
-0.1881603 -0.41647926 0.13185243 -0.0903779 -0.030357666 0.13647914 0.20239368 0.06625268
0.08124516 0.025610317 -0.13088273 0.03139437 0.015661912 0.11975849 0.00034417148 -0.0066364356
0.22771238 0.09511653 -0.25358486 -0.11562503 0.18527466 -0.23432915 -0.19683094 0.16867034
-0.03451363 -0.12445845 0.06545575 0.15886228 0.1571352 0.039613616 -0.02633197 0.28125632
-0.25374916 -0.20174278 -0.08138242 0.10589151 0.21852756 -0.22731693 -0.09568356 -0.03866832
0.08767197 0.08903307 -0.1427828 0.13305731 -0.050371133 -0.030662669 -0.18659537 0.16366935
-0.04840981 0.096084975 0.023221588 0.04115476 -0.11216972 0.18053181 -0.1825653 -0.16008306
0.017263083 0.011850131 -0.17551163 -0.018326595 0.27184185 -0.15634738 -0.27300778 -0.0011998982
0.23405455 0.17586017 -0.016291125 -0.2800233 0.102029175 0.17344086 -0.06479911 0.020610685
0.027960358 0.037263952 0.24442293 -0.15581538 0.09679001 -0.07422897 0.1064997 -0.22774443
-0.18870424 0.15150319 0.21049851 0.0888424 -0.01055225 0.12544422 0.18526572 0.018291824
0.014391288 0.07524556 -0.09239289 -0.094689265 -0.007454777 -0.1838088 -0.20416099 -0.30667225
-0.0846558 0.099313214 0.14968826 0.087481864 0.07098962 0.070318505 0.23901464 0.16769046
0.18198328 0.18939492 -0.1809211 -0.2884988 -0.21844465 -0.015629236 -0.2821852 -0.0614653
0.18804765 0.07686724 0.1838917 -0.26292658 0.020832477 0.142627 0.10348215 0.20444296
0.016170636 0.04169292 0.117480874 -0.17353787 0.08442075 0.17970456 0.023521818 0.0036722273
0.11522405 0.26635027 -0.07914522 -0.19880529 -0.029324751 0.10634221 -0.22674163 -0.24571528
-0.093772456 -0.26325768 -0.30586728 0.020731593 -0.20790303 0.003058122 0.2406601 -0.03282315
0.15090421 0.2132806 0.19580336 0.08711797 -0.103994 0.09099688 -0.025586853 0.036464628
-0.122467436 -0.03403106 -0.11099539 -0.032315522 0.0690525 -0.17935027 0.034518685 -0.13220987
0.019277629 -0.0055252593 0.0017495027 -0.033924673 0.0640355 0.050937086 0.0679278 -0.10037874
-0.031967916 -0.043150745 -0.043318935 0.011061806 -0.04132337 0.113503695 -0.09672145 -0.070895754
0.093016736 -0.16288067 -0.014936236 -0.10240406 -0.11064399 0.03694735 -0.072912104 0.20153137
0.06339133 0.070793875 0.042209852 -0.045204125 0.12796055 0.10545601 0.1515285 0.15137461
0.00915147 -0.0047690407 -0.047067225 -0.12814552 -0.13829762 -0.13136083 -0.04447737 0.025562119

conv.0.bias f4 [16]
00000000: 671d ccbd 1267 1abb 794b f93d 70de a3bb
00000010: 723b debb 0b05 71bd a14e 7e3d d87b b2bc
00000020: d4b8 a2be 095c 60ba d50b 59be 94e3 7bb9
00000030: f676 6fbb e854 6cbd 8beb 9d3d 867a f33d
-0.099665456 -0.002355997 0.121725984 -0.005000882 -0.006781989 -0.0588427 0.062086705 -0.021787569
-0.31781638 -0.0008558636 -0.2119592 -0.00024022005 -0.0036539412 -0.05769816 0.07710942 0.11888604

conv.2.weight f4 [32, 16, 4, 4]
00000000: cafd d4bc 805b 90bd 9694 e2bd 7622 f8bb
00000010: d283 68bd 3449 17be c294 bcbd bbf4 e5bd
00000020: 25cc 69bd 47f6 b4bd 4878 2abd 52c7 84bd
00000030: 57bf 723d 28e7 0bbd cf6a c0bd 350b cabc
00000040: 05bf 96bd 6a84 bbbc 5c66 993d 18b4 bd3c
00000050: 040b 72bd 70d7 01bd 6181 ae3c d8de 983d
00000060: 89c7 2fbd f791 193d e25b f53c 6e9b 833d
00000070: 8014 d4bb 5610 4e3d 7574 033a 1578 223d
00000080: 8d79 303d 0344 9bbc 928e b93c 343f 63bd
00000090: 06f9 0f3d 3859 a03d 03c8 d23c 285d 203d
000000a0: 6381 97bc 8f90 f2bb 3a2e 8bbc 301c e33c
000000b0: 6f5e c6bd 2b12 23bd 21d6 91ba a56a 44bd
000000c0: ab26 263d 582c 7f3d 7af6 823d 6820 8a3d
000000d0: d8d6 393d 2015 f53d 0562 6e3d 8beb f93d
000000e0: 4136 fc3c c7ff c63d ffbe 493d 8cac 063d
000000f0: 8633 673d cee5 f33d f8b5 af3d 47a2 603d
00000100: df71 413c 3fc7 99bd 8d5f 88bc b18a ec3b
00000110: efb4 8a3c 86c2 003c 94bf 9b3c 8e9c 4d3c
00000120: 22a5 af3d 4590 8c3c a932 a13d d627 2f3c
00000130: e8fc 683d 45f8 9b3c 5576 fa3c 460e 893d
00000140: 58aa 8bbd 2091 7abd 4b73 babd e8a3 f9bd
00000150: ea54 a9ba bfb3 cabd 11c4 00be c796 68bd
00000160: 534c 683b 8f7e febd 44a5 a7bc 61b6 d8bc
00000170: f607 38be afe8 68bd 826c a6bc 4fb2 47ba
00000180: f91c 5a3d 009d b73c 80f6 a8bc dcbc 88ba
00000190: d125 1abd 67ed 92bc d68e 783d c732 973d
000001a0: f0eb b03c 42ff 853d 4689 063c 39bd 22bc
000001b0: 2ee3 65bd d901 fa3d 75e7 bf3d 599f 4d3d
000001c0: f8c2 86bd cfc2 7dbd 34e2 0ebd d628 abbd
000001d0: 891e 41bc f5aa 49bd 3de3 6abd 5fc0 743b
000001e0: e326 a0bd 17ae 86bd 8946 273d 3733 2b3b
000001f0: d1c8 29be 2e39 adbd 1318 93bd 113e 12bd
00000200: 9e6f 423d e547 973b 6f29 ec3c 927d 97bd
00000210: 2c03 c23d ec79 c83c 7a18 cf3c 4dfe 1a3d
00000220: 6e06 013d 0e74 ebbc dbf7 223d a1ae 033d
00000230: 992c 1fbb 6c7c e3b6 0062 0fbd dd80 a03b
00000240: 95a1 38bd e37f 8dbc d847 0a3d e07d 413d
00000250: 5278 cfbd f1fd 83bd 5750 ddbb 09a2 f83c
00000260: 5b98 6abd 9409 903d a120 653d 70ac a13c
00000270: 9c52 21bd e6a9 5a3d 4c9c 183e 41c3 1e3d
00000280: 36d9 0ebd 6942 5fbd c187 e0bc 0740 34bc
00000290: f88c a33c fac9 c1ba e5bb b2bd 79df c4bc
000002a0: 4db1 86bd 10ab 20bd d7ab 86bc 7584 563d
000002b0: 3241 24bd dd28 7d3d 0b4b 323d d111 a3bc
000002c0: be9b b1b9 e166 66bc 40cc a2bd 8892 5abc
000002d0: aed5 303d de96 5d3d b01e 9f3c d333 46bd
000002e0: 0042 4d3d 25ca 8d3c 913a 86bd 523d 0f3d
000002f0: b0a2 803d c490 833d 1733 7a3d 600d 8fbc
00000300: 2e89 a4bd 61f7 413d 6d34 7f3d 318e d83c
00000310: 6928 a1bd 9ee2 923c bb53 bd3d f30b 433d
00000320: ce8b ab3b 18be e9bc 6819 4abd 36b0 02bd
00000330: ac91 4a3d 7333 783c 6bfc 4fbc 4b83 0cbd
00000340: 3337 813d 48fe 19bd f4eb 6fbd c939 8abc
00000350: 1050 a4bc 2a24 4ebd b800 133c 560b 883d
00000360: e404 b13c e004 b2bb 9ff4 433d 6a0b b03d
00000370: 28b8 8b3d 9a98 09bd a998 6a3b c692 95bd
00000380: 8941 7d3d 00d4 64bd 1e1e c53c ff99 59bd
00000390: d83e bbbc ffe7 b53c 1557 8dbc 70c6 d5bc
000003a0: 3949 80bc ca9c 813d 3e5b b4bd 79b0 bdbc
000003b0: 4af1 263d 13b8 aebd 1f68 fd3b deeb 5ebd
000003c0: 87c9 32bd 1ad6 f9bb ee30 323d 4bd9 813d
000003d0: c6c6 43bd f991 4f3d 2044 8ebd 86be 82bd
000003e0: de14 3fbb 1cf7 e5bc f393 90bc f988 85bd
000003f0: 4507 8cbd efd6 643d c2a4 8ebd 4333 52bd
-0.025999922 -0.07048702 -0.11063497 -0.0075724674 -0.05676634 -0.14774019 -0.09208061 -0.11228319
-0.057079453 -0.08836036 -0.041618615 -0.0648333 0.059264507 -0.034155995 -0.09395372 -0.024663547
-0.07360653 -0.022890288 0.074902266 0.023157164 -0.059092537 -0.031699598 0.021301927 0.07464379
-0.0429149 0.03749272 0.02995104 0.0642613 -0.0064721704 0.050308548 0.0005014607 0.0396653
0.04308467 -0.018953329 0.02265099 -0.055480197 0.035149597 0.07829517 0.025730139 0.03915134
-0.018494314 -0.0074024866 -0.016989816 0.027723402 -0.096859805 -0.03981225 -0.0011126437 -0.047953267
0.04056422 0.06229815 0.06394668 0.06744462 0.045370907 0.1196692 0.058198947 0.122031294
0.030787589 0.097167544 0.049254414 0.032879397 0.05644562 0.11909066 0.0857963 0.05484226
0.011806934 -0.07508706 -0.016647125 0.0072186817 0.016931979 0.007858878 0.01901225 0.012549533
0.085764185 0.017158637 0.07870991 0.01069065 0.056881815 0.019039283 0.030574003 0.066921756
-0.068196 -0.06117356 -0.09104022 -0.12189466 -0.0012918983 -0.09897565 -0.12574793 -0.056784417
0.0035445883 -0.12426483 -0.020464547 -0.026454153 -0.17971787 -0.05686253 -0.020315412 -0.00076178176
0.053250287 0.02241373 -0.020625353 -0.0010432261 -0.03763372 -0.017935468 0.060683094 0.07382732
0.021596879 0.06542827 0.0082114395 -0.0099328095 -0.05612486 0.12207384 0.09370319 0.050200794
-0.06580156 -0.061953362 -0.034883693 -0.08357398 -0.011787065 -0.049235303 -0.057345618 0.0037346107
-0.07819917 -0.06576174 0.040838752 0.0026123056 -0.16580512 -0.08458172 -0.07182326 -0.035703722
0.047469728 0.004616725 0.02882835 -0.073969975 0.09473261 0.0244722 0.025280226 0.037840176
0.031500272 -0.028741863 0.039787155 0.03214896 -0.0024288057 -6.779612e-06 -0.03500557 0.004898174
-0.04507597 -0.017272895 0.03375992 0.047239184 -0.10130371 -0.0644492 -0.006753962 0.030350702
-0.057274204 0.07033077 0.05593932 0.019735545 -0.039385423 0.053384684 0.14903373 0.038760427
-0.034875117 -0.054506693 -0.027408483 -0.011001593 0.01996468 -0.0014784925 -0.08727244 -0.024032341
-0.06576786 -0.039225638 -0.016439361 0.052372415 -0.040101238 0.06180655 0.043528598 -0.019905956
-0.00033876108 -0.014062614 -0.07949114 -0.0133406 0.04317253 0.054098956 0.019423813 -0.048389267
0.05011177 0.017308304 -0.065541394 0.03497059 0.0628103 0.06424096 0.06108388 -0.017462432
-0.080339774 0.04735506 0.062305856 0.02643499 -0.07869036 0.017930325 0.09244486 0.047618818
0.005235172 -0.028533027 -0.049340636 -0.03190633 0.04945533 0.015148985 -0.0126944585 -0.0343049
0.063093565 -0.037596017 -0.05857463 -0.016873257 -0.020057708 -0.050327457 0.008972339 0.06642787
0.021608777 -0.00543271 0.04784071 0.08595927 0.068222344 -0.033592798 0.003579656 -0.073033854
0.061830077 -0.05586624 0.024062213 -0.053125378 -0.022857115 0.02220535 -0.017253438 -0.026095599
-0.015659915 0.06328733 -0.088064656 -0.023155438 0.040757455 -0.08531203 0.0077333595 -0.05442416
-0.043649223 -0.0076244 0.043503694 0.063402735 -0.047796987 0.05067632 -0.069465876 -0.06383996
-0.0029156725 -0.028071932 -0.017648673 -0.06520266 -0.06837324 0.05586904 -0.06965019 -0.05131842

conv.2.bias f4 [32]
00000000: 134a 663d fea1 483d da17 a13d 58a5 00bd
00000010: 97ed 43bb 0c90 ea3c e5db 19bc 09a5 5e3d
00000020: 0291 8e3c 179d e6ba 37b6 b1bc 59ee 0a3e
00000030: 6490 10bd 078e a83c ee19 c43c e58a 023d
00000040: bb11 bdba 6883 a9bd f6ac 91bc b269 9d3c
00000050: 4027 eb3b 7445 15bc 41fd bdbd cf18 a53b
00000060: 7f32 813a f7d9 4c3c c139 a93d c10c 5bbd
00000070: 5494 dd3c e971 50bd 5623 eebc bb40 123d
0.056222986 0.048982613 0.078658774 -0.031407684 -0.0029896253 0.02863314 -0.009390806 0.05435661
0.01740313 -0.0017594424 -0.021693332 0.13567485 -0.03529395 0.020575536 0.023938145 0.03187074
-0.001442484 -0.08277017 -0.01778267 0.019215439 0.00717631 -0.009110797 -0.0927682 0.005038358
0.0009856968 0.012503139 0.08262969 -0.05347896 0.027048267 -0.050889883 -0.029069584 0.035706263

conv.3.weight f4 [32]
00000000: 4c20 773f f32f 743f 4994 823f f3f4 883f
00000010: 5724 803f 83ee 643f cb5f 8b3f 77f0 783f
00000020: b761 853f f92c 963f 0a4f 823f d68f 6e3f
00000030: dff5 753f be0f 813f 6693 6d3f 4479 6b3f
00000040: 13ec 8b3f 5e32 8f3f 83f0 873f 9634 6d3f
00000050: a349 613f 1f67 8d3f 4c3c 663f 79b2 803f
00000060: baee 6b3f b7f0 5b3f ad42 713f b038 703f
00000070: 1d5e 6e3f d016 773f acaf 493f 2aac 803f
0.96533656 0.95385665 1.0201503 1.0699753 1.001109 0.8942644 1.0888609 0.9724192
1.0420445 1.1732475 1.0180371 0.93188226 0.96078295 1.0082929 0.9280304 0.9198191
1.0931419 1.1187246 1.0620273 0.92658365 0.88002986 1.1047095 0.89935756 1.0054466
0.9216114 0.85914177 0.94242364 0.938365 0.93112355 0.96519184 0.7878368 1.005254

conv.3.bias f4 [32]
00000000: 3d4c d7bd cdd4 97be 715c 46be 8a90 8fbe
00000010: cee5 80be 2538 33be 6b97 2bbe da10 9bbe
00000020: 2438 e0bd 18b7 7dbe 01f6 83be 669a fabd
00000030: 37e7 7dbe 8385 33be d284 68be 2e50 3cbe
00000040: 713e 7bbe fcac 39be 3a38 d0bd 4266 15be
00000050: 484c 3abe eec0 2dbe 6bc9 4dbe 7439 04be
00000060: 22c7 f3bd 2e32 8bbd e00b 45be 24c3 82be
00000070: 0a9c 9ebe 07f6 2abe e2b0 66bb 24d1 8bbd
-0.10512588 -0.29654542 -0.19371201 -0.28039962 -0.25175327 -0.17501886 -0.1675698 -0.30286294
-0.10948208 -0.24776876 -0.25773624 -0.122364804 -0.24795233 -0.175314 -0.22706917 -0.18389961
-0.24535538 -0.18132395 -0.10166974 -0.1458979 -0.18193161 -0.16968128 -0.20096366 -0.12912542
-0.11903216 -0.067966804 -0.19242811 -0.25539505 -0.30978423 -0.16695414 -0.0035200645 -0.06827

conv.3.running_mean f4 [32]
00000000: 9cc4 f93c face e73d 04fb c53d 3a0e f7bd
00000010: 58ad 7dbd 20fd 903d 864c 37be 10c0 673d
00000020: 9968 83bd e0de 13be 1bb9 89bd d0af 2a3e
00000030: 24de 9b3d ce84 383d 6f0c 3d3d c084 293c
00000040: 8923 d9bc cb24 67be edb9 26be b4d7 383d
00000050: d1b5 a6bd f15e aabc 669a 1fbd ae2d 11bb
00000060: 0257 d1bc 18d4 34be c732 b5bc ca76 98bd
00000070: 15eb 013c b176 94bd 7a5d 90bc 2afc 38bd
0.030489258 0.113187745 0.09667018 -0.120632604 -0.06193289 0.0707953 -0.17900285 0.05657965
-0.06416435 -0.14440489 -0.06724759 0.1666863 0.07610729 0.045048527 0.046154436 0.0103465915
-0.026506202 -0.22572629 -0.16281863 0.045127586 -0.081401475 -0.020797225 -0.038965605 -0.0022152471
-0.025554184 -0.17659032 -0.02211894 -0.07444532 0.007929583 -0.07249201 -0.017622698 -0.045162357

conv.3.running_var f4 [32]
00000000: 99e5 9f3b dfbe 0e3c 5fbc f53b 1cce 153c
00000010: d1bc a33b 2362 143c 2d85 f13b bbf5 f13b
00000020: 43bf 103c 512d 163c efde ff3b df8d 093c
00000030: 7684 443c 0d94 153c db1c 063c 3f86 7a3b
00000040: 6674 b13b 8a34 263c c711 213c 725e c83b
00000050: f525 313b ac02 b03b b428 fd3b a457 163c
00000060: 6c4a b53b 62b1 243b f075 d33b f11b 943b
00000070: 2e11 b23b b28d c13b c1da d53a bf2c d53b
0.004879665 0.008712499 0.007499262 0.009143379 0.004996874 0.009056601 0.007370612 0.0073840297
0.008834663 0.009166078 0.007808558 0.008395641 0.011994472 0.009129536 0.008185591 0.003822699
0.005415487 0.010144362 0.009830899 0.0061147744 0.002703068 0.0053714123 0.0077257995 0.009176169
0.0055325534 0.0025130142 0.006453268 0.0045199324 0.005434177 0.005906784 0.0016315804 0.0065055783

conv.5.weight f4 [64, 32, 4, 4]
00000000: 3383 d53b b7eb 0abd 6750 583c d61a 35bd
00000010: d063 7cbd b331 e1bd e88a e83a 1cd4 0a3d
00000020: 7926 a33d 25e1 903c d12e 51bd e76b c23c
00000030: 932a 5a3d 586d 7a3a 6865 d53c 2783 ed3b
00000040: d747 0fbc dbda b43c 6cd1 173c b5e8 0c3c
00000050: 1111 0bbc 06d2 31bd 0dc3 9bbc 79cf d0bc
00000060: 20ca 02bd ad76 b73c b7b5 f23c 6a2c 54bd
00000070: b218 33bd c527 9b3c 8ec2 833c 291a 7f3d
00000080: ae3c eebc 1c0b 1e3d e971 01bd 28eb b33d
00000090: 319a d4bc 81f5 72bd 47ee 0abc 1a3b 89bb
000000a0: 0230 44bd 960f c8bb 416e aebc f5e8 233d
000000b0: e423 88bd 10a4 99bd eabe d43c 0a4a d0bb
000000c0: 3ffa 2c3d 7fce db3c b6fc 243d b303 c4bd
000000d0: 7f7a 733d 08cd 2d3d b373 debc 2b02 9bbb
000000e0: 5397 f63c 583f 603b 3bae eb3c 6f83 d6bd
000000f0: 5bc2 503d 1d14 453d 215f 4ebc a3f6 3e3d
00000100: 57ab 8abd 54e4 803d 42f3 993c b8da 1e3d
00000110: 917c 79bd f89b d6bb 054e d63c cb9f b63d
00000120: 7211 243d e4b3 35bd 59d2 f3bc 7eb3 bf3c
00000130: e8a8 e2bc 8c2f 1dbd 5642 c53c eb0d e73c
00000140: ed70 d2ba 84a0 a1bb b3c8 f7bc bf2a dabc
00000150: 9087 163d 4705 1dbd bfc8 16bc 3aa1 fbbc
00000160: 3329 b9bc ca23 16bb 4a77 73bc 132c 0a3c
00000170: b6db 36bd 9801 33bd 7aba 893d 677b 1e3d
00000180: ba42 4abc 4d9e 34bd 9906 e83d 32c1 803d
00000190: 1292 83bd 1b1c 133d e192 003d 7d63 63bb
000001a0: dabb 52bd ae07 13bb 4275 7b3d c746 75ba
000001b0: d40f 94bd 8ce5 9c3c 4c87 00bb b170 dcbd
000001c0: e680 ea3c fb96 72bd b6e4 0a3d c4d1 a63c
000001d0: 836b 8f3d f7d8 0cbc 88af 68bd c34d 5bbd
000001e0: 253e 493d 8321 e83c 5820 153d edd6 a23d
000001f0: 83af 993d 5d46 cb3d f856 593d 163c b3bc
00000200: 9816 92bb 037a 02bc 4662 2abb 4104 1d3d
00000210: 9f3a a73b 5f44 09bc 0d4f 3e3d a300 563d
00000220: 981e 89bd 5450 15bd 590e e23d 0563 36bb
00000230: 85ef 0e3a 4dc6 aa3c 72c9 5dbd 1e94 95bd
00000240: d258 b23c fc3a 1c3d a86f 333b a569 85bb
00000250: cf11 5fbd 6420 043d e91e 0a3d cf6b 73bc
00000260: 14d0 02bd 5ca4 95bd 384e 573d e679 f7bc
00000270: 68e6 fabb a24e 673d 08f0 903d 59ff 3d3a
00000280: 42af de3d 4980 52bc fc01 9dbb 3c1b 893d
00000290: bd7c 4e3d e704 7fbd ae1a 1fbc 5ab9 19bd
000002a0: 7022 58bb 78f9 7fbd 3814 74bd 61a1 36bb
000002b0: 4f8a 8cbc 9c07 42bd 5df0 ebba a661 783d
000002c0: ac83 3bbc 8860 bc3b af09 ed3c 81cf fbbc
000002d0: c2c9 813d 7980 cf3d 3458 babd 248c ddbc
000002e0: 8379 973c f916 e4bc 80ae c1bb a983 923b
000002f0: 076f a13c c312 2f3d ff10 253b 11da 39bd
00000300: f0ab d5bc 160b cc3c 7fc0 183d 5f1d 663d
00000310: 9f97 b5bd 3f0d 883c dd0d ab3c 49aa f23c
00000320: 1fa7 1fbd 4fa2 1dbd cc5f 643d 6849 24bc
00000330: 9d72 fa3c c78d 5ebd d8ba 25bc dcd9 793d
00000340: 7edc 4e3d d984 20bd c018 dd3c 09d4 af3d
00000350: e48f a93b a275 b73d 3faf b83d 8362 093d
00000360: 4fa8 913c 5670 b8bc e12d d0ba 4c35 3a3d
00000370: eb18 2ebd 98c6 e43c 326c e5bb bd9b 833c
00000380: 8f9c 093d 385c e7bc 9fe4 1bbc d0da a33d
00000390: ed34 9abd ba17 953d 380e 0fbd 8970 973b
000003a0: 18b3 50bb 8566 ff3c 9182 64bd b76f 96bd
000003b0: 201d 263c 2c1a e93b 4a43 95bd e89c 1abb
000003c0: 3e44 ac3b 966f 103d 3dfa 85bd 1c32 aebd
000003d0: ef9c 193d ab93 17bc b54a 773d b789 1b3d
000003e0: f3b5 c83b 8289 eabc 7248 143d a0bc 82bd
000003f0: 44d1 84bc ed99 9fbc 2b96 783c 217a 833c
0.0065158843 -0.0339162 0.013202763 -0.044215046 -0.061618626 -0.109958075 0.0017741593 0.03389369
0.079663225 0.017685482 -0.05107004 0.023733092 0.05326326 0.00095530367 0.02604933 0.0072483006
-0.008745155 0.022077015 0.009266239 0.008600404 -0.008487956 -0.043413185 -0.019013906 -0.025489556
-0.031931043 0.022395456 0.029627664 -0.05180017 -0.043724723 0.018939862 0.016083982 0.062280808
-0.029081669 0.038584813 -0.031602774 0.08785087 -0.02595243 -0.059316162 -0.008479661 -0.0041879537
-0.047897346 -0.0061053736 -0.021292808 0.040017087 -0.066474706 -0.075019956 0.025969941 -0.0063564824
0.04223084 0.026831863 0.040280066 -0.09571018 0.059442993 0.04243186 -0.027154779 -0.004730483
0.030101454 0.0034217443 0.028769603 -0.10474288 0.0509666 0.048114885 -0.012595923 0.04662193
-0.06770962 0.0629355 0.018792752 0.038782805 -0.06090981 -0.0065493546 0.02616025 0.08917197
0.0400557 -0.04436101 -0.029763388 0.023401018 -0.027668431 -0.038375422 0.024079483 0.028204879
-0.0016055383 -0.004932465 -0.030247068 -0.026631711 0.036750376 -0.03833511 -0.009203135 -0.030716527
-0.022602653 -0.0022909516 -0.014859984 0.00843336 -0.044643126 -0.04370269 0.06725021 0.038691904
-0.01234501 -0.04409628 0.113293834 0.06286849 -0.06424345 0.035915475 0.031390075 -0.003469675
-0.05144868 -0.0022434997 0.061391123 -0.0009356555 -0.072295815 0.019152425 -0.0019611893 -0.10763682
0.028625917 -0.059226017 0.033909522 0.020363696 0.07002928 -0.00859665 -0.056808025 -0.053540956
0.04913153 0.028336292 0.0364078 0.0795115 0.07504179 0.0992553 0.053061455 -0.021879237
-0.00445826 -0.00796366 -0.0025998517 0.038334135 0.0051034237 -0.008378117 0.046462107 0.0522467
-0.066952884 -0.03645356 0.11037893 -0.0027830016 0.00054525613 0.02084651 -0.05414719 -0.07303642
0.021770868 0.03814219 0.0027379785 -0.0040714317 -0.054460343 0.032257453 0.033720884 -0.014857247
-0.03193672 -0.0730674 0.05256483 -0.030209493 -0.007656861 0.056471474 0.07077032 0.00072478276
0.108732715 -0.012847968 -0.0047914963 0.06694648 0.05041193 -0.062260535 -0.009710951 -0.03753028
-0.003297951 -0.06249377 -0.059589595 -0.0027867185 -0.017155794 -0.047370538 -0.0018000711 0.06064
-0.011444967 0.005748812 0.028935282 -0.030738594 0.063373104 0.10131926 -0.09098855 -0.027044363
0.018490558 -0.027842985 -0.0059106946 0.0044712615 0.019706262 0.042742502 0.0025187132 -0.04537398
-0.026082963 0.02490763 0.037292954 0.056180354 -0.0886681 0.016607879 0.020880634 0.029622214
-0.03897774 -0.038484868 0.05575542 -0.010027267 0.03057223 -0.05433443 -0.010115348 0.060998783
0.050503246 -0.039189193 0.02698934 0.08585364 0.005174624 0.089579836 0.090178005 0.033541214
0.017780451 -0.022514503 -0.0015882814 0.045460984 -0.042504232 0.027926728 -0.0070014233 0.016065473
0.03359657 -0.028242216 -0.009514957 0.080007195 -0.07529626 0.07279916 -0.03492567 0.0046215695
-0.003184503 0.031176815 -0.05578858 -0.07345527 0.01013878 0.0071137156 -0.07288225 -0.0023592059
0.0052571585 0.035262667 -0.0654187 -0.08505651 0.03750318 -0.009251515 0.06037398 0.037973132
0.0061252057 -0.028630022 0.0362019 -0.063836336 -0.016213067 -0.019482577 0.015172522 0.016049447

conv.5.bias f4 [64]
00000000: cb77 6a3d 36d3 46bc 67fe 4cbd 497c 22bd
00000010: e618 673d cb2f 863c 0594 babd 6597 0cbd
00000020: bb28 a63d 5775 fb3c 226c 50bd 94da 483c
00000030: f13e 923d 6d3c 05bc 4cfb 7ebd f122 34bc
00000040: 3a58 af3b 58a6 d3bc dd1e 573b 7957 b0bc
00000050: 3305 793d 992d 54bb 2f3f 333d a9ea 2bbd
00000060: d06b 9f3d 9082 263d b856 b2bc 6dc3 47bd
00000070: 19dc cf3c 159d 203d 833e ef3c 8889 d33c
00000080: e3b1 b1bd dae2 973c 4677 1e3d 26c1 f0bc
00000090: b7b5 753c 5a6e 273c d424 4dbd 1511 90bc
000000a0: e6c0 283d 307f 523d f574 383c f245 c33c
000000b0: 9b63 81bd b048 80bd fce1 d7bc 04c3 603d
000000c0: 943a 1dbd bc73 3c3d f010 c73a 8436 363c
000000d0: 576e 6ebc 3855 1bbd bee5 1cbd 443d 20bc
000000e0: 8423 05bd 76b9 7bbd 44ae 99bd 9c34 223d
000000f0: 405e 0a3d 463b 87bd 719c 7abd a324 6d3d
0.05724315 -0.012135318 -0.050047304 -0.03966931 0.05642023 0.016380211 -0.09110264 -0.03432407
0.081132375 0.0306956 -0.050884373 0.012259144 0.07140911 -0.008132082 -0.062251374 -0.010994659
0.0053510936 -0.025836155 0.0032824792 -0.021526085 0.060795974 -0.003237581 0.04376143 -0.041971836
0.077842355 0.040651858 -0.021769866 -0.048770357 0.025373505 0.039212305 0.029204613 0.025822416
-0.08676507 0.018540788 0.038687967 -0.029388975 0.0149969375 0.010219181 -0.05008395 -0.01758627
0.041199587 0.051390827 0.0112583535 0.023837063 -0.06317826 -0.06263864 -0.026352875 0.05487348
-0.038385943 0.04600881 0.0015187543 0.011121396 -0.014552674 -0.037923068 -0.038305037 -0.009780232
-0.032504573 -0.061456166 -0.07503942 0.039600953 0.03378129 -0.066031024 -0.06118435 0.057896268

conv.6.weight f4 [64]
00000000: 8b78 ef3f 13a9 d33f 8acb db3f 5abf c63f
00000010: 2727 c23f 96ef e63f 622f ed3f fb77 d53f
00000020: fcfb d73f cc8c e03f dd8b de3f f09f cb3f
00000030: 84bd da3f 0d67 cb3f 9936 d43f 3a97 cd3f
00000040: fb3d da3f 9f68 c13f d041 d03f 5a30 e23f
00000050: fb71 d53f 831c db3f e0ad ce3f c349 ed3f
00000060: 04ba c73f 31b8 d63f a7f8 f03f 7f05 e43f
00000070: 2ace c83f b763 e63f 0aa4 c93f 57a1 c73f
00000080: a11d e03f e56c de3f bac0 da3f d3ba dd3f
00000090: b31e d83f d0d7 bd3f 5f16 c93f 41bc d83f
000000a0: 1949 df3f 19e4 c83f 9168 d13f dfbe d53f
000000b0: e658 e03f 36d7 e13f 7562 d53f 9c54 dc3f
000000c0: 4b0f db3f 7fbc f03f 6ecc d43f a3fb e33f
000000d0: 49ea c93f 99ea d73f 0e08 e53f 6756 cd3f
000000e0: fc9a db3f e548 de3f 9413 e23f a75f d83f
000000f0: 5c6a db3f 87ca ef3f e9f7 d53f ea1d e63f
1.8708662 1.6535972 1.717149 1.5527146 1.5168198 1.8041866 1.8530085 1.667724
1.6873775 1.7542968 1.7386433 1.5908184 1.7089086 1.5890824 1.6579162 1.6061776
1.7050165 1.5110053 1.6270084 1.7671006 1.6675409 1.7118076 1.6146812 1.8538135
1.5603642 1.6774961 1.8825883 1.7814177 1.5687916 1.799918 1.5753186 1.5596112
1.7509042 1.7376982 1.7090065 1.7322639 1.6884369 1.4831486 1.5709952 1.693245
1.7444183 1.569461 1.6360036 1.6698874 1.752713 1.7643802 1.6670672 1.7213321
1.7114042 1.8807524 1.6624887 1.7811168 1.5774623 1.6868469 1.7893083 1.6041993
1.7156672 1.7365996 1.7662225 1.6904191 1.7141833 1.8733681 1.6716281 1.7977879

conv.6.bias f4 [64]
00000000: ba2c 2ebe 17de 7dbc 79a9 91bd 251a b23c
00000010: 6bb9 223e 9e30 80bd ce97 6cbd 6e35 01be
00000020: b315 15be 2dd4 01bd c569 d7bc 7d90 a1bd
00000030: 629a 98bd d363 aebd 7eac 20be ff5c 0cbd
00000040: 44fa 92bd 65c9 32bd cf77 0dbe fac1 09be
00000050: 4e3e 22bd fcf7 97bd f3c3 61be 08e3 75bd
00000060: c94d a5bc d97b ebbd 61b7 b6bd d49e 8dbd
00000070: 0a26 42bd 9fa5 03bd ae18 cfbb dd7e 59be
00000080: 8961 b33d a739 e2bd 320f e9bd db8c 63bd
00000090: 5644 1dbe 4493 d1bd 5bfe 6cbd 6c31 3fbd
000000a0: a7c1 6ebd a66d 643d 8698 3cbd e7a8 84bd
000000b0: aa73 2bbe 12a0 03be 2a1f f7bc e77d d93b
000000c0: 6c01 3cbe ca8d 9dbd 8882 d23c c383 99bc
000000d0: 994b c0be 1c5e 943d 0d07 d9bd 697d 23be
000000e0: baba 97bd 705b 97bc acdd a2bd a675 c3bd
000000f0: b1fc c2bd 1409 d7bd 4d97 eabd f8cd 18bd
-0.1700925 -0.015494845 -0.071124025 0.021740982 0.15891044 -0.06259273 -0.05776196 -0.12618038
-0.14559059 -0.031696487 -0.026295552 -0.07888887 -0.07451321 -0.08515134 -0.156908 -0.034268375
-0.07176641 -0.043649096 -0.13815235 -0.13452902 -0.0396102 -0.07420346 -0.22047405 -0.060030967
-0.020178692 -0.114982314 -0.089216955 -0.0691506 -0.047399558 -0.03214037 -0.0063200807 -0.21239801
0.08758838 -0.110461526 -0.113798514 -0.055554252 -0.153581 -0.10233167 -0.05785976 -0.04667799
-0.05829015 0.05576863 -0.046043895 -0.06477528 -0.16743341 -0.1285403 -0.030166227 0.006637323
-0.18359917 -0.0769306 0.025697008 -0.018739587 -0.37557676 0.072445124 -0.10597048 -0.15965809
-0.07408662 -0.018476218 -0.07952437 -0.09543924 -0.09520853 -0.104997784 -0.114546396 -0.037305802

conv.6.running_mean f4 [64]
00000000: a191 823e 5d22 00be b4a2 d7bd cc09 bb3d
00000010: f945 973d 5cf0 d4bd d45c 96bc 8b25 f1bd
00000020: 2851 413e 9310 cf3d d1d8 3bbe a478 e43e
00000030: 85a9 00be 7f59 de3e 725a 66bd 16d8 43bf
00000040: 76cc 713c 507d 5ebe a7ee a7be d33f 583c
00000050: 18d4 16be 45e9 42be 767c 343d 407b 23bf
00000060: 8eff c83d 8961 3d3e 9486 79bd c8b0 553e
00000070: 4e09 ce3d 1e1d 043e 288e e33d 96aa 263f
00000080: fc28 83be 9a20 623c b1a9 943e 82ad c4be
00000090: ca04 b1bc 615b 273f 1ac1 133e ee3b 83bd
000000a0: 5343 723e 204f 92bd 7671 6ebd 750f d33d
000000b0: 6093 f5be 813c 9abe 5913 3c3e 46ca 06bb
000000c0: e873 6a3e e88e a0bd 99a5 47bd 32a8 2ebe
000000d0: 864c 6e3e d6c1 37be 3096 4a3d 15a4 ad3e
000000e0: 8089 e13d 5835 3bbc ddc1 03bf 0867 31bd
000000f0: 84dc 733e 46ff b33d 6682 d1bd 6fc2 b3be
0.2550173 -0.12513109 -0.1052908 0.09132728 0.07386393 -0.103974074 -0.01835481 -0.11774739
0.18878615 0.10110583 -0.18344428 0.44623291 -0.12564667 0.43427655 -0.0562386 -0.76501596
0.01475822 -0.2172749 -0.32799265 0.013198811 -0.14729345 -0.19034298 0.044064008 -0.6385994
0.09814368 0.18494238 -0.06091936 0.20868218 0.100603685 0.12901732 0.111110985 0.65104043
-0.25617206 0.013801718 0.29035714 -0.38413626 -0.021608729 0.6537381 0.14429131 -0.06407915
0.23658495 -0.07143998 -0.058213674 0.103056826 -0.47964 -0.30124286 0.18366756 -0.0020567342
0.22895777 -0.07839757 -0.04874191 -0.17056349 0.23271379 -0.17945036 0.049459636 0.33914247
0.11012554 -0.011426292 -0.51467687 -0.04331115 0.23814589 0.08788924 -0.1022995 -0.3510928

conv.6.running_var f4 [64]
00000000: bdcc 1d3e e131 0f3e 34e3 2b3e 7f2d 8f3e
00000010: 1f45 4e3e 2744 2b3e 0643 273e d14a 1a3e
00000020: 7d31 1f3e 8830 213e 3a63 0d3e 38c1 0f3e
00000030: 4a0f 293e 43bd 573e a7b8 8a3e 96aa 133e
00000040: 930e 293e 3478 463e eec0 043e b9ec 1a3e
00000050: 4269 303e 2549 283e 16d5 2d3e 25ad 373e
00000060: dbc6 4e3e cc0a 0f3e 9070 0f3e 4e75 fb3d
00000070: 4b92 313e 1bc1 193e 4844 d33d 64c9 4e3e
00000080: 7fc0 1d3e 178c 223e 4f09 513e ad5f 273e
00000090: bc6b 263e f82b 303e aa54 2f3e c50a f93d
000000a0: a88b 243e efdf 083e e2c6 533e 78a3 0a3e
000000b0: c858 0a3e 6e35 0b3e 3ee4 703e 9776 023e
000000c0: 758d 003e 037e 1f3e 04f8 0a3e 2701 2a3e
000000d0: 80af 723e f956 143e d259 193e fbf9 083e
000000e0: 93f6 f23d 5f57 1c3e cd3c 0d3e e7a0 0b3e
000000f0: 1fcf fd3d 3829 2f3e 49cd 173e fa03 253e
0.15410133 0.13983871 0.1678589 0.27964398 0.20143555 0.16725217 0.16334161 0.15067603
0.15546222 0.1574117 0.13807383 0.14038551 0.16509739 0.21068291 0.27094004 0.14420542
0.16509466 0.19381791 0.12964222 0.15129365 0.17227653 0.16434152 0.16975817 0.17937143
0.20193045 0.13968962 0.14007783 0.122782335 0.17340963 0.1501507 0.10315758 0.20194012
0.15405463 0.15873753 0.20413707 0.16345091 0.16252035 0.17204273 0.1712214 0.12160257
0.160689 0.13366674 0.20681337 0.13538921 0.1351043 0.135946 0.23524567 0.12740551
0.12553962 0.15575413 0.13571173 0.16602002 0.2369976 0.14486302 0.1497567 0.1337661
0.118634365 0.15267704 0.13792725 0.13635598 0.12393021 0.17105567 0.14824404 0.16114798

adv_head.weight f4 [1, 2304]
00000000: 1c48 56ba 813e 88bb 9d86 993a 704a 7d3b
00000010: fe3c fcba 0afb bb3a 873f 673b 6004 573b
00000020: 9e16 bc3b b022 c5bb eb37 163b f7e1 13bb
00000030: 8aeb 77bb 9540 b3ba 8b6d 813b 90b6 46ba
00000040: c1ee 4e3b 32a8 b7bb 5e3a 9c3b 80a0 0dbb
00000050: a0cb 88bb 0490 98bb c491 55bb 9a77 dc3b
00000060: 3118 923b d369 a3ba 6455 fd3a 999c 18bc
00000070: 3f4e c03a d572 393c b6bc efbb 5e9f 11bc
00000080: 719c 59bb 5fd8 74bb 0e57 a639 e678 2bbc
00000090: d506 44bc 9f4a 4b3b 9b38 cf3b a973 9a3a
000000a0: 7b10 453b 03b5 83ba 4629 09bc bab6 7abb
000000b0: fb82 4a3b efa0 96bb a855 943b 04ef 21bc
000000c0: c79c 6cbc 7943 593b 2c30 cdbb 23f0 acbb
000000d0: 1f3b df39 a6fe 9e3b 979f e8bb 10f1 c5bb
000000e0: 5276 c93a 144b f7ba c37c 25ba 66e0 ac3b
000000f0: 5c2a e5bb 0917 8139 3794 1e3b 770e 833a
00000100: b8c5 62bc d57a 0b3c 0016 443b e90a 863b
00000110: 7aea ceb8 c5d7 473a 5f6e edbb dd6a 12bb
00000120: 97ae 9639 794a c2ba 7085 de3b 9946 dd3b
00000130: 0fa3 8e3b a350 71bb f081 c8ba ad2f f2bb
00000140: 28e5 0ebc 0de2 c93a b0e1 80bb 4ea3 20bb
00000150: dd3e 0abb d8cb 01bc 1561 efb9 d597 9abb
00000160: 6834 fcbb d017 2b3b 9757 12bc 2dfd 853b
00000170: df99 0e3c 7832 f8ba bd9f a83b adc1 2d3a
00000180: 46ad 1f3b f46d fd3b 0da0 09bb ce98 a339
00000190: 6849 6fbb da60 173b 9a12 f63b b739 c33b
000001a0: 15f1 e639 a13b edbb a749 e9bb 6010 82bb
000001b0: 9668 68b8 0609 0e3a 9038 803b 0a3a 933c
000001c0: 9894 753c d399 533c 09ae 27bc 1d1b 1abc
000001d0: a921 b33b a789 ff3b 5466 a63c e955 683b
000001e0: 4bc9 a339 c20a aabb 5f21 713a a1f7 4cbc
000001f0: a067 50b9 3f3d d53b 2a6f f7bb 8251 dfbb
00000200: c06c 083a 1d16 2a3b 37c1 6d3b ef42 e23b
00000210: beab b938 0ddd 70bb 8527 c33b 030e 513c
00000220: 4a37 7bbb 0dc1 9cbc 6985 353b 762c fbba
00000230: 125c 5c3c 9dd0 893b 81db 023c 22b8 aebc
00000240: 6078 e13b 4e63 0fbb 06a9 a7bb e797 b33a
00000250: 8572 a0bc 5dc9 f73b 136d 113c cc72 d83b
00000260: 9e48 eabb a8bf 58bb 3fd1 47bb 01c9 303c
00000270: 15c6 63ba cff2 29bb fbbe eb3b d523 abbb
00000280: 8d40 fa3a 5c57 353c a645 55ba cda9 4dbc
00000290: d152 c9bb 4b06 acbb 6c1f 1dbc 44ad cf3b
000002a0: 0f02 aabb 2357 acbb e8ab b8bb 1457 e339
000002b0: cb7b cb3a ee72 153b d79a 2c3c 7311 5ebb
000002c0: 0561 cabb 8bd8 bfbb 6bdb e5b9 3421 af3a
000002d0: a010 64bb 5977 f43a 5bef 313c f1a7 843c
000002e0: bcfa 2eba cf94 37bc b400 3c3c a877 a93b
000002f0: f00c b43a 1e37 8dbb f414 653b 0485 20bc
00000300: d308 0b3b ae56 363b 26bc 973b 1803 ba3b
00000310: baa4 70bb 09c3 1fbc 624d 22bc be3a 503c
00000320: 4380 33bb 9ef4 393b 0928 97bb 17ab a7bb
00000330: 6add acbb 09c7 063b 37cf e4bb 3ea0 72bb
00000340: f80a a2bb 22ad 0fbc 2da1 5c3b 50ee 173b
00000350: 0000 f5bb 3c45 d9bb 650c f3bb ae3c 03bb
00000360: b895 9f3b d4f4 e33b 7932 ef39 f44d 2b3a
00000370: cb0e 66ba 7e87 6d3b e09a 293b 9b54 f63b
00000380: 5724 593b 0ae2 c5bb fabc 7a3b 8f1e 093b
00000390: 922c af3b b106 08bb 1ac4 0dbb 94ca 223b
000003a0: 272c 75bb 9857 bdba aa2d 24bc 6478 51bb
000003b0: 0897 143a b27f 67b9 f340 ca3b 0bc6 3cbc
000003c0: d871 db3b e7c5 b2b9 de77 d6ba 15f0 5c3b
000003d0: fb06 babb 16b4 93bb 38b9 9e3b 4bce 413c
000003e0: f957 16bc ca4d ab3b 1ff6 d7ba 7753 0abc
000003f0: dfdc e1bb 6882 18bc c908 c1bb dc47 c2bb
-0.0008174197 -0.0041578417 0.0011713092 0.0038649105 -0.0019244251 0.0014341783 0.0035285668 0.0032809004
0.005740001 -0.006016098 0.0022921513 -0.0022565105 -0.0037829601 -0.0013675863 0.003949826 -0.00075803045
0.0031575414 -0.0056047672 0.0047677 -0.0021610558 -0.0041746646 -0.00465584 -0.0032588104 0.006728125
0.0044584502 -0.0012467451 0.0019327817 -0.00931468 0.0014671757 0.011318882 -0.0073161973 -0.008888094
-0.0033204819 -0.0037360413 0.00031726848 -0.010465836 -0.0119645195 0.003101982 0.0063238866 0.0011783737
0.0030069638 -0.0010048453 -0.008371657 -0.0038255886 0.0030900824 -0.0045968215 0.0045268126 -0.009883646
-0.0144416755 0.003315179 -0.006261846 -0.00527765 0.00042577923 0.004852134 -0.0070991027 -0.0060407
0.0015370345 -0.001886698 -0.00063128414 0.005275774 -0.006993575 0.0002462196 0.002419723 0.0009998818
-0.013841085 0.008513172 0.002992034 0.004090656 -9.86652e-05 0.00076234 -0.0072458233 -0.0022341528
0.0002874031 -0.001482322 0.0067908093 0.0067528007 0.004352934 -0.0036821745 -0.0015297513 -0.0073909373
-0.008721627 0.0015402451 -0.003933154 -0.00245114 -0.0021094598 -0.007922135 -0.00045657964 -0.004717807
-0.007696677 0.0026106723 -0.008932016 0.004089019 0.008703678 -0.0018935939 0.0051459954 0.0006628286
0.0024364754 0.0077340547 -0.0020999939 0.0003120363 -0.003651226 0.00230985 0.0075095417 0.005957808
0.0004404864 -0.0072397743 -0.0071193757 -0.003969237 -5.5410514e-05 0.0005418215 0.003912993 0.017972011
0.014989041 0.0129150925 -0.010234364 -0.009405878 0.005466659 0.007798392 0.020312466 0.0035451597
0.00031239758 -0.0051892707 0.0009198393 -0.012510211 -0.00019875029 0.0065075452 -0.0075510936 -0.0068151364
0.00052041933 0.0025953122 0.0036278495 0.0069049518 8.853477e-05 -0.003675285 0.005955639 0.012759688
-0.0038332515 -0.019135023 0.0027697927 -0.0019163031 0.013449686 0.004205777 0.007986904 -0.021328036
0.006880805 -0.0021879259 -0.0051165847 0.0013701887 -0.019585857 0.007561846 0.008876103 0.0066054817
-0.00714977 -0.003307322 -0.003048971 0.010790111 -0.00086888793 -0.0025932079 0.0071943975 -0.0052227774
0.0019092724 0.011068191 -0.00081356836 -0.012552691 -0.0061439057 -0.0052497736 -0.009590011 0.0063377935
-0.0051882337 -0.005259411 -0.005635727 0.00043361692 0.0015524564 0.00228041 0.010534964 -0.0033884912
-0.0061761164 -0.0058546714 -0.00043841763 0.0013361336 -0.0034799948 0.0018651291 0.010860289 0.016193362
-0.00066749356 -0.011204912 0.011474777 0.005171735 0.0013736766 -0.004309549 0.0034955116 -0.009797338
0.0021214976 0.0027822661 0.0046305833 0.0056766383 -0.0036719278 -0.00975109 -0.009906145 0.012709318
-0.0027389682 0.0028374563 -0.004612927 -0.005116831 -0.005275418 0.0020565412 -0.0069827097 -0.0037021781
-0.0049451552 -0.008769305 0.0033665404 0.0023182817 -0.0074768066 -0.006630568 -0.007417249 -0.0020025182
0.004870143 0.006956676 0.00045623237 0.0006534748 -0.0008776008 0.003624409 0.0025879666 0.00751741
0.0033133233 -0.006038909 0.0038259611 0.0020922755 0.0053458894 -0.0020755942 -0.0021631778 0.0024839984
-0.003741035 -0.0014445661 -0.010020653 -0.0031962628 0.00056682574 -0.00022077447 0.0061722933 -0.0115218265
0.006696921 -0.00034098254 -0.0016362628 0.0033712436 -0.0056771017 -0.004507552 0.004843857 0.011828969
-0.009176248 0.005227779 -0.0016476548 -0.008442751 -0.006892785 -0.009308435 -0.00589094 -0.0059289765

cls_head.weight f4 [7, 2304]
00000000: 5af5 e63c 0b88 0fbe ed51 22be 1573 813d
00000010: 6b53 863b ce8c 85bc 2e06 63bc d781 1a3e
00000020: 0d74 ea3b 5079 103d 4fbb ecbc e648 7bbd
00000030: 634b 99bd b053 b5bd c7b5 4f3d b34c ddbc
00000040: 54b1 e7bc 77a8 8c3d d7ab 4d3e 89c5 d5bc
00000050: 1bbf 9d3d fd7e a23d 6324 c53d 3046 c73b
00000060: ef0a 43be 541c 393b e5bf 3f3e 947f eb3d
00000070: 6914 bb3d 2d66 0dbd a22b 01be dd51 793c
00000080: 3aaf 7dbd e0a7 4e3e 44ba 32bc 4f15 f7bd
00000090: da66 963b e059 3f3e 82bb 473e a2fa 9bbd
000000a0: 6800 afbc 12bc 94bd 251e be3d 7ae9 573d
000000b0: 1576 43bd 3e6a a8bd fcdd 81bd e1eb 2d3d
000000c0: 36cc aa3d 662c f4bd f661 67bd 8d32 423d
000000d0: 0e40 5f3d 1cd5 bdbc 2b58 a7bd 9a3a 1d3d
000000e0: 73b3 6bbe 4f90 f13d d8b4 2e3e e13d 513d
000000f0: 8a2a 12bd 1c2f 473e 3e16 423d 82f5 aa3d
00000100: 062d 973d dc45 94bd 837c 2bbd 913f 8bbd
00000110: b7bf 6fbd 9350 b13c 22f1 823c ba3a 13bc
00000120: ed0f 8d3d 634b 373c 9d15 b2bd 77f7 f13b
00000130: 17f4 2f3c 196a b43d dd91 97bd 98b8 bcbd
00000140: 2693 62be ce8d 5bbe cbc0 52be 3b73 06bd
00000150: 7367 eebd 7838 74bd 6f1a ccbd 79ee afbc
00000160: be5d a03c cf84 623d 910a 833d 295e 38be
00000170: 27f9 f1bd 1058 4f3e 0049 483e c947 a33d
00000180: f7a3 46bd 5cf4 09be 4611 f8bc 102d 2f3e
00000190: 29dc 033d f106 07bd 0394 8fbc 0c53 dbba
000001a0: 1e63 883d ceca 0d3d 0d79 b13d f98b 913d
000001b0: 6079 1cbb d115 fb3d cf02 d4bb 3357 7b3c
000001c0: 1b2b f53b 4cb6 663d eb25 163d 3761 97bd
000001d0: 67b7 a6bd 462c fc3d 7c6b 1c3d ce6b acbc
000001e0: 726f 283d c1c5 5e3d 2c81 b23d efb4 8cbe
000001f0: 9eb0 f23c 04b2 b83d 83a9 83bd b6a2 2a3d
00000200: 8d91 3e3d afc9 063d bbb0 1abd e4c0 b83d
00000210: 7779 b6bc b4df d53d 5a30 b13d 2192 1abe
00000220: 0890 cf3d 9c68 d1bc f0f4 763d cc9a 27bd
00000230: 261e 68bd bcc1 7c3c f903 59bd 8135 edbd
00000240: 0212 d2bc b73d 903d 9460 813d c921 e5bd
00000250: 13e1 4dbd 5792 3c3d ac77 56bc 0f6d b93c
00000260: cca9 06be e218 e3bd ed94 9dbd 4fed 983d
00000270: 30fe 343d 6179 82bb e1d1 7abd 8bc5 a6bd
00000280: a937 93be db4c 7e3c 7fec bb3b 67dd bf3d
00000290: 9ba6 8a3c f49e e53d af44 99bc 9708 48bb
000002a0: b03e 59bd 3cc8 54bd a3d5 e33b 7f19 243d
000002b0: 6b6c 1e3e c70b 16bd 9247 bdbd 547c 963c
000002c0: 2059 44be 77a3 4a3e 129f 153c dd05 dcbd
000002d0: 68ad 7bbd dda8 113d 69d6 27bd 0385 37bd
000002e0: 2dd9 7ebc fbee 183d 48c2 0d3e d95a bfbd
000002f0: 6ea1 afbd bf5c 493e 90c3 3ebe 1671 febc
00000300: 148a a5bd 37dd 033d 027b d93d 018c 06be
00000310: a198 36bd 73ad e33c 271e c1bd 3dee 59bc
00000320: 0e80 033e a69c 82bd 16ec bf3d 26ee 62bc
00000330: 1369 9bbd 076c 043e e1d9 5bbc aae1 a8bd
00000340: af18 14bd d82f 513e dea3 22be 1456 3e3e
00000350: 59be 4cbe 51c0 fcbc af2d 263e 8ae7 813d
00000360: 64bc 1c3c e98d 523d d8c6 44bd d476 85be
00000370: fc49 183e 7fc4 e0bc 92c4 3c3d 990a b2bd
00000380: 16d8 6fbe 46b9 15be 6402 a8bc 3af2 a13d
00000390: 07d7 0dbc 2456 333d 6d1e d33d 9c13 9f3d
000003a0: 64eb 523d bb0c 4d3b 9ff5 9a3c b7e1 06bd
000003b0: d558 db3d 8e08 983d 173e 1e3e ab59 e63c
000003c0: 6331 bcbd cc84 23be 8d51 3dbc 0933 933d
000003d0: 86e9 153e 630d 8f3d e858 913d e58e 873d
000003e0: 2ddd 0dbe 67d2 6abd c3e9 143d af10 693d
000003f0: cd56 a33d e7a1 6f3d fdbb c23d fd49 4f3e
0.028193165 -0.1401674 -0.15851565 0.06320778 0.0040992997 -0.016302492 -0.013856454 0.15088592
0.0071549476 0.035271943 -0.02889791 -0.06134882 -0.07485082 -0.08853853 0.050710466 -0.027014112
-0.028282799 0.068680696 0.20085083 -0.026095169 0.07702466 0.07934377 0.09626081 0.006081365
-0.1904714 0.0028245645 0.18725546 0.11498943 0.09134752 -0.03452127 -0.12614301 0.015217272
-0.061934687 0.20181227 -0.010908667 -0.12064611 0.0045898976 0.18686628 0.19505122 -0.07616164
-0.021362498 -0.07262434 0.09283093 0.052712895 -0.047720034 -0.08223389 -0.06341168 0.04246128
0.083397314 -0.11922531 -0.056489907 0.04741149 0.054504447 -0.023172908 -0.081711136 0.038385965
-0.23017673 0.11795103 0.17061174 0.051084403 -0.0356851 0.19451565 0.047384493 0.08347608
0.073816344 -0.07239887 -0.04186679 -0.06799234 -0.058532443 0.021644866 0.015984122 -0.0089861695
0.06887803 0.011187407 -0.08695529 0.0073842364 0.010739348 0.08809299 -0.07400868 -0.09214896
-0.22126445 -0.21440813 -0.20581357 -0.032824736 -0.11640825 -0.059624165 -0.09965979 -0.021476017
0.01957595 0.055302437 0.063985 -0.18004669 -0.118151 0.20248437 0.19559097 0.07972676
-0.048496213 -0.13472122 -0.030281674 0.17107034 0.032192383 -0.032965604 -0.017526632 -0.0016733124
0.0665953 0.034617238 0.08665667 0.07106776 -0.0023876056 0.122600205 -0.0064700614 0.015340614
0.007481945 0.056326196 0.036657255 -0.07391589 -0.0814045 0.12313132 0.038188443 -0.021047499
0.041121908 0.05438781 0.08716044 -0.2748179 0.029625233 0.09018329 -0.06428816 0.04165908
0.046525527 0.032907184 -0.0377662 0.09021166 -0.022274716 0.104430586 0.086518005 -0.15094806
0.10134894 -0.025562577 0.060292184 -0.04091911 -0.056669377 0.015427049 -0.052982304 -0.11582471
-0.025643352 0.07043021 0.06317249 -0.11188085 -0.050263476 0.046037998 -0.013090055 0.022635011
-0.1315071 -0.110887304 -0.07694421 0.07467138 0.044187725 -0.0039817546 -0.061235312 -0.08143147
-0.28753403 0.015521253 0.0057349796 0.09368401 0.016925147 0.112119585 -0.018709509 -0.0030522698
-0.0530383 -0.05194877 0.0069529577 0.040063377 0.15471046 -0.036632326 -0.092421666 0.018369831
-0.19174623 0.1978892 0.009132164 -0.10743306 -0.06144467 0.03556143 -0.04097596 -0.044804584
-0.015554708 0.037337285 0.13843644 -0.093435 -0.08575712 0.19664286 -0.18629289 -0.031059783
-0.08082977 0.03219339 0.10619165 -0.13139345 -0.044579152 0.027792668 -0.09429579 -0.013301429
0.12841818 -0.063775346 0.09371202 -0.013850724 -0.07588401 0.12931834 -0.013418646 -0.08246167
-0.036156353 0.20428407 -0.15882823 0.18587524 -0.19994487 -0.030853422 0.16228364 0.06342991
0.0095664 0.051404867 -0.048041195 -0.2606722 0.14871973 -0.027437447 0.0460859 -0.086934276
-0.23422274 -0.14621457 -0.020508952 0.07907529 -0.008657224 0.043783322 0.10308538 0.07767412
0.051494017 0.0031288106 0.01891595 -0.032930102 0.10710303 0.07423507 0.15453373 0.028118929
-0.09189107 -0.15968627 -0.011555088 0.071874686 0.14639863 0.06984975 0.07097036 0.06619052
-0.13853903 -0.05732956 0.036355745 0.056900676 0.0797554 0.05850401 0.09508512 0.20243068

cls_head.bias f4 [7]
00000000: 6c13 3dbc 26a4 1dbd d48b 99bc 35f8 a73c
00000010: 60b3 d9bb 2cdc 873c 3154 fb3b
-0.011540275 -0.038486622 -0.018743433 0.020504097 -0.0066436976 0.016584478 0.0076699485
