src/facexpr/cGen+cDis/Version 1.7Final/weight/disc_ep170.pth (torch, 247605 bytes, 17 tensors)

conv.0.weight f4 [16, 1, 4, 4]
000000 f6 77 74 3e b7 e9 8a 3e e9 fe 6a 3e 5a 36 e8 bd
       0.23873886 0.27131435 0.22948803 -0.11338492
000010 bd e5 96 bd 62 a0 31 be c3 1c 0c bd 48 8c 39 3c
       -0.07368038 -0.17346337 -0.034207117 0.01132495
000020 f3 2a 94 bd 09 34 99 3c 69 2f 3a bd 08 96 16 bd
       -0.072347544 0.01870157 -0.04545537 -0.036764175
000030 47 48 81 be 25 a1 6f bd 86 8a 82 3d 57 ad c7 bd
       -0.25250456 -0.05850329 0.063740775 -0.09749859
000040 08 ed 1e 3e b0 2c 53 be 41 1a 5a be be e4 81 be
       0.15520108 -0.20622516 -0.21299078 -0.2536983
000050 6f cf 80 be 53 f0 94 3e 17 94 20 3e b7 6b 73 3e
       -0.2515826 0.29089603 0.15681492 0.23771559
000060 71 7a 23 3e cc 83 cb 3d 2b fb 56 bd 5c 63 4d 3e
       0.15964676 0.09937248 -0.052485626 0.20057434
000070 c4 11 c4 3c 24 be dc bd 08 62 1e be e7 fb a7 bd
       0.023934253 -0.10778454 -0.15467083 -0.082023434
000080 61 50 54 be a1 ea dd 3d ed 83 01 3d a7 5f b7 3d
       -0.20733787 0.108357675 0.031619955 0.08953791
000090 50 f0 16 be fc 75 07 be b2 c3 02 bd e6 53 10 3e
       -0.1474011 -0.13228601 -0.03192491 0.14094505
0000a0 72 5c 0d 3d 3e b8 42 3d 3c 68 81 3d 65 03 0d 3e
       0.03451199 0.04753899 0.06318709 0.13770826
0000b0 f2 94 de bb 83 a7 f4 3d b6 db f5 3b ba ea 0b 3d
       -0.006792658 0.11946013 0.007502998 0.0341594
0000c0 3a fa 5d 3d 9b 6d 2f 3e 33 43 65 3d 00 8d 98 bb
       0.054193713 0.17131655 0.05597229 -0.0046554804
0000d0 2b a2 b7 3e 1d 18 45 be 92 d2 82 be 94 fd 2c 3c
       0.35865912 -0.1924748 -0.25551277 0.010558505
0000e0 81 22 43 be 65 9f d8 be 2d 6c 06 3e 69 e3 af bd
       -0.19056131 -0.42309108 0.13127203 -0.08588297
0000f0 d8 ba f1 bc 72 c5 09 3e 1b a7 55 3e 0a 31 78 3d
       -0.02950804 0.13454226 0.20864527 0.060593642
000100 98 0c 9b 3d e0 4e c4 3c 69 52 01 be 0d 16 06 3d
       0.075707614 0.023963392 -0.12629093 0.032735873
000110 4c 56 8a 3c ec f3 fd 3d f8 f3 82 b9 5c 27 15 bc
       0.016886853 0.1240004 -0.00024977303 -0.009103622
000120 60 9d 6c 3e 9f 9c bb 3d f1 22 82 be 08 ef ec bd
       0.23106909 0.091607325 -0.25417283 -0.11569029
000130 10 a8 41 3e 26 f5 74 be 95 3e 49 be 66 db 30 3e
       0.18911767 -0.23921642 -0.1965278 0.17271194
000140 b4 a2 fc bc 94 d8 04 be 03 f2 85 3d 0f 35 21 3e
       -0.030839302 -0.12973243 0.06540301 0.15742896
000150 93 fb 20 3e ba b5 16 3d bd 77 d0 bc 7c 0b 93 3e
       0.15720968 0.0367944 -0.02544772 0.287197
000160 70 65 80 be f0 f4 52 be 0e 4e a4 bd 2a 2b d5 3d
       -0.2507739 -0.20601249 -0.080227 0.104086235
000170 fa 54 62 3e b7 e8 6e be 53 f2 c7 bd 96 86 1d bd
       0.22102728 -0.23330961 -0.097630166 -0.03845843
000180 4a 3c b7 3d e8 cf bc 3d 94 d7 13 be f9 8a 0a 3e
       0.08947046 0.092193425 -0.14437705 0.13529576
000190 72 aa 3b bd 40 db 03 bd fb 8d 42 be 98 b0 26 3e
       -0.045816846 -0.032191515 -0.18999474 0.16278303
0001a0 2a 42 64 bd 39 8e c8 3d 72 a5 d5 3c 56 d1 30 3d
       -0.05572716 0.09792752 0.026079867 0.04316839
0001b0 23 d0 eb bd 3d cb 3a 3e 4a 55 37 be ff 21 25 be
       -0.11514308 0.18241592 -0.17903629 -0.1612625
0001c0 8d f1 81 3c de 20 02 3c 1c 61 35 be 08 b8 59 bc
       0.01586225 0.007942406 -0.17712826 -0.013288505
0001d0 dc 1a 8d 3e 81 57 1e be ec 8f 8d be e9 7b 18 3a
       0.27559555 -0.15463068 -0.27648866 0.0005816804
0001e0 fa 69 6c 3e 62 60 36 3e 0d 35 7f bc 29 21 8f be
       0.23087302 0.17810205 -0.015576613 -0.27954987
0001f0 ed ab c7 3d 7a 4f 34 3e 58 ac 83 bd dd 32 ac 3c
       0.09749589 0.17608443 -0.06429356 0.021020347
000200 54 bb cc 3c 8c 74 0e 3d ff 30 7d 3e 97 52 20 be
       0.024991669 0.034779117 0.24725722 -0.15656506
000210 14 11 d0 3d 2c 99 9f bd 06 e3 d5 3d dd 84 68 be
       0.101595074 -0.07792887 0.10443692 -0.22706933
000220 f7 e1 3e be 10 e5 1f 3e 6e 7f 56 3e e8 82 b4 3d
       -0.18640886 0.15614724 0.20947048 0.08814031
000230 27 cd 3d bc 69 cd fb 3d df 6b 3e 3e b2 53 9f 3c
       -0.011584557 0.12295038 0.18595837 0.019449089
000240 c6 5e 7a 3c 3a 01 99 3d cc 62 c3 bd 2c 38 bf bd
       0.015281385 0.07470937 -0.095403284 -0.09336886
000250 51 a6 0d bc a1 f7 43 be e0 5c 52 be 62 5b 9e be
       -0.00864561 -0.19137432 -0.20543242 -0.30929095
000260 1b cb b4 bd 20 79 d0 3d c4 48 18 3e 2e 0f be 3d
       -0.08827802 0.10179353 0.14871508 0.09280239
000270 e5 fe 96 3d e5 31 8e 3d 85 3f 77 3e f8 00 2c 3e
       0.07372836 0.069431104 0.24145325 0.16797245
000280 94 77 3f 3e 0b 96 41 3e fd ff 37 be 8d 26 99 be
       0.18697959 0.18904893 -0.17968746 -0.29912224
000290 33 9d 5e be bb e8 a5 bc d0 0a 8f be 15 86 8c bd
       -0.21739654 -0.020252576 -0.27937937 -0.068615116
0002a0 05 0f 42 3e 8c 9a 92 3d 25 f6 3b 3e 3d ee 85 be
       0.18951042 0.07158384 0.18355615 -0.26158324
0002b0 64 f2 b9 3c 10 a5 0e 3e cf bd d6 3d 1e d0 52 3e
       0.022698589 0.13930154 0.10485422 0.20587203
0002c0 6e a9 1d 3c 0f 3d 27 3d 09 a2 f7 3d 82 0c 31 be
       0.009622915 0.040829714 0.12091453 -0.17289928
0002d0 df 0b a7 3d 80 12 3d 3e 08 65 c2 3c 99 79 48 3b
       0.08156561 0.18464088 0.023729816 0.0030590056
0002e0 79 8b eb 3d f8 d7 87 3e 69 29 a7 bd 6b 1c 4f be
       0.11501212 0.2653196 -0.08162195 -0.20225684
0002f0 84 eb 0c bd 7e 43 d5 3d 85 6d 66 be 7c 19 7a be
       -0.034404293 0.10413264 -0.22502716 -0.24423784
000300 12 c7 d2 bd bc 08 86 be 3c c9 9f be f8 ce b3 3c
       -0.10291876 -0.2617854 -0.31208217 0.021949276
000310 e1 62 4d be 33 c4 94 3b e8 e1 7b 3e 5b 62 f4 bc
       -0.2005725 0.0045399903 0.24597895 -0.029832056
000320 fb af 15 3e 75 3d 56 3e df 82 4b 3e 2b 4b ad 3d
       0.14617912 0.20921881 0.19874142 0.08461603
000330 ba 7e ca bd 9b fe b8 3d d0 99 ad bc 7d 5b 0c 3d
       -0.098874524 0.09032937 -0.021191508 0.034266938
000340 3c 72 fc bd 83 18 0a bd cf f7 ea bd 0a 98 e1 bc
       -0.12326476 -0.033714782 -0.11473047 -0.027538318
000350 55 1c 8d 3d c6 66 3a be 70 e8 0e 3d b0 69 0b be
       0.068901695 -0.18203267 0.03488964 -0.13614535
000360 ba f9 c7 3c 51 86 e5 bb 33 3e ed 38 ec 44 03 bd
       0.024411071 -0.007004537 0.00011312626 -0.03204815
000370 60 f1 82 3d e1 b6 3d 3d 05 10 91 3d f3 66 ce bd
       0.06393695 0.046316985 0.070831336 -0.1007823
000380 92 ff 0b bd 30 41 20 bd 37 19 49 bd ef a5 14 3c
       -0.034179278 -0.039124668 -0.049096312 0.009072765
000390 d8 89 1f bd d7 fd f0 3d 97 59 c6 bd 9f 35 85 bd
       -0.038949817 0.11767166 -0.09685057 -0.06504368
0003a0 56 b4 c1 3d 59 bd 25 be 98 9c 5a bc e2 9e d8 bd
       0.094582245 -0.16185512 -0.013342999 -0.105771795
0003b0 ff 79 de bd 29 63 1b 3d 1f 1b 95 bd 94 c8 51 3e
       -0.10863113 0.037936363 -0.072805636 0.2048667
0003c0 04 30 80 3d 01 be 94 3d 4b 0a 31 3d a1 c1 34 bd
       0.06259158 0.07262803 0.043222707 -0.04412997
0003d0 a7 9f 04 3e 7a cd d7 3d f9 f4 1a 3e e7 e3 16 3e
       0.12951528 0.105372384 0.15132512 0.14735375
0003e0 d7 4b ca 3b 16 0c aa bb f9 76 51 bd 6e fd 00 be
       0.0061735916 -0.005189429 -0.05113885 -0.12596676
0003f0 23 e4 0a be 05 9c 06 be 91 cf 31 bd 11 a2 e2 3c
       -0.1356359 -0.13145454 -0.04341084 0.02766517

conv.0.bias f4 [16]
000000 87 22 c8 bd 66 75 4a b9 4e ad ef 3d 7d b4 9c bb
       -0.097722106 -0.00019307956 0.11702977 -0.004782258
000010 3c 15 1f bc 3b 77 71 bd 8a 7f 7d 3d 7a a0 bf bc
       -0.0097096525 -0.058951598 0.06188921 -0.02339195
000020 c5 b8 a2 be 2d 35 33 bb e6 f9 5c be 24 7e 84 ba
       -0.31781593 -0.0027344928 -0.21579704 -0.0010108394
000030 35 ea 56 bb 2f 95 6e bd 3c 6e 95 3d 88 6c ec 3d
       -0.0032793407 -0.05824774 0.07296416 0.11544138

conv.2.weight f4 [32, 16, 4, 4]
000000 ea c2 19 bd 23 c8 9c bd ab ca fe bd 67 cf 36 bb
       -0.0375394 -0.076553605 -0.124409996 -0.0027894618
000010 d9 b1 69 bd 55 07 20 be 5b 91 d2 bd 29 43 e5 bd
       -0.057054374 -0.15627797 -0.102816306 -0.111944504
000020 e3 c5 78 bd 6e 2a c3 bd f8 79 2d bd be ac 93 bd
       -0.060735594 -0.09529577 -0.042352647 -0.07210682
000030 6f 5d 74 3d c0 b7 04 bd 85 1c ca bd 5f 99 d9 bc
       0.059659418 -0.0324018 -0.09868721 -0.02656239
000040 cf c0 9a bd 1d 4c c6 bc 89 e0 92 3d e5 2e d5 3c
       -0.075563066 -0.024206216 0.07171733 0.026023338
000050 b2 04 40 bd f0 bf 10 bd f4 03 8f ba 54 15 a4 3d
       -0.046879478 -0.035339296 -0.0010911212 0.080118805
000060 f3 5e 3a bd c1 1a 36 3d 14 ab 0c 3d a8 5f 8d 3d
       -0.045500707 0.04445911 0.03434284 0.069030106
000070 43 0b 5d bc 35 59 5c 3d 00 77 0e b7 8c cc 1f 3d
       -0.0134914545 0.053796012 -8.491566e-06 0.03901343
000080 f1 20 57 3d 6d ec b0 bc 1d 02 ea 3c f4 49 73 bd
       0.05252165 -0.021597112 0.02856546 -0.0593967
000090 22 a3 17 3d f5 da 93 3d b8 64 ee 3c 13 52 17 3d
       0.03702081 0.07219497 0.02910076 0.036943506
0000a0 dc 56 c7 bc 50 82 cf bb 68 24 c9 bc dd 8d ba 3c
       -0.02433341 -0.006332673 -0.024553493 0.022772724
0000b0 f3 63 ce bd bf a2 2f bd 21 a5 a8 bb 18 d9 40 bd
       -0.100776576 -0.042879816 -0.005146638 -0.047082037
0000c0 45 6d 4c 3d 09 8f 8c 3d 75 7b 91 3d 69 6c 9a 3d
       0.049908895 0.06863219 0.07103626 0.07540209
0000d0 8e b9 37 3d 16 68 f6 3d 60 92 82 3d 13 41 fc 3d
       0.044854693 0.120315716 0.06375575 0.123170994
0000e0 7c bf c4 3c d6 af da 3d fb 9c 59 3d 72 6d 05 3d
       0.024017088 0.10678069 0.053128224 0.03257508
0000f0 36 79 59 3d ba e5 08 3e 48 91 92 3d b4 7c 5f 3d
       0.05309411 0.13368884 0.071566164 0.054562286
000100 8d 7b bc 3c b7 71 7d bd 6e a7 c7 bc 22 aa e1 3a
       0.023008132 -0.061876025 -0.024371829 0.0017216841
000110 14 56 57 3b 86 9c 23 3c b8 99 82 3c 52 23 ac 3c
       0.0032857703 0.009986049 0.01594244 0.021012936
000120 61 21 c0 3d 05 63 86 3c c1 be a9 3d ce cc 5a 3c
       0.093813665 0.016404638 0.082883365 0.013354493
000130 67 f3 78 3d dd 6f 92 3c 24 95 1f 3d b5 bb 7f 3d
       0.060779 0.017875606 0.03896059 0.06243487
000140 90 2c 7d bd b9 4d 83 bd cd 22 bd bd c2 96 00 be
       -0.061810076 -0.06411309 -0.09235153 -0.1255751
000150 15 3f fd ba 34 49 c1 bd 1a d2 f8 bd 42 ce 4b bd
       -0.0019321168 -0.094377905 -0.12149449 -0.04975725
000160 0c ea 73 3b 71 24 02 be 17 e4 a6 bc 3b f7 0b bd
       0.003721836 -0.12709214 -0.020372434 -0.034171324
000170 0c ff 35 be d7 7b 8d bd 17 2e dd bc 96 d9 08 bb
       -0.17773074 -0.06908386 -0.026999516 -0.0020881644
000180 bc 3f 73 3d 87 62 a8 3c 5a 44 6a bc 14 b8 43 bb
       0.059386954 0.020554794 -0.014298523 -0.0029864358
000190 66 e9 27 bd 5a 09 03 bd d2 0b 78 3d 78 4e 81 3d
       -0.04099407 -0.03199134 0.060558148 0.06313795
0001a0 07 aa 36 3c 32 c5 8d 3d 6a 5b 15 3c dd 05 b8 bc
       0.011148936 0.06922378 0.009116033 -0.022463733
0001b0 ff 87 88 bd 28 ce 02 3e e2 0d c3 3d 91 70 3c 3d
       -0.06666564 0.12773955 0.09524132 0.04600579
0001c0 57 f9 8c bd de 92 79 bd c2 bd e1 bc e7 42 ad bd
       -0.06883495 -0.06093108 -0.027556304 -0.08460026
0001d0 85 3c 80 bc cf 57 62 bd db 45 69 bd 64 b6 63 3a
       -0.015653858 -0.055259522 -0.056951385 0.0008686541
0001e0 e7 1a a1 bd af 8d 81 bd 5e 42 0c 3d 1f 0a 28 3b
       -0.07866459 -0.06325852 0.03424298 0.0025640798
0001f0 9f 50 2f be 12 d5 b0 bd ba 7f a7 bd 9c 39 df bc
       -0.17120598 -0.0863439 -0.08178659 -0.02724915
000200 e8 eb 27 3d 49 e7 e7 3b 1c d0 de 3c 05 39 a1 bd
       0.040996462 0.007077132 0.027198844 -0.07872204
000210 44 52 c7 3d 48 d7 d4 3c e8 f6 bb 3c 75 67 28 3d
       0.09732488 0.02598156 0.022944883 0.04111429
000220 a9 6f da 3c 50 82 da bc ef a3 42 3d fd 37 09 3d
       0.026664572 -0.026673466 0.04751962 0.03350066
000230 49 de 17 3b d1 7a 3d bb 49 49 18 bd 63 76 f9 3a
       0.0023173264 -0.0028912316 -0.037179265 0.0019032474
000240 d5 e1 41 bd 30 91 b9 bc 37 73 00 3d b8 83 31 3d
       -0.04733451 -0.022652239 0.031359877 0.043338507
000250 91 3b e9 bd 39 0b 80 bd f8 ec 65 bb cd 5c e4 3c
       -0.113883145 -0.062521406 -0.0035083871 0.027876282
000260 73 a5 7a bd 72 32 94 3d 64 76 63 3d 36 70 d5 3c
       -0.06119294 0.07236184 0.055532828 0.026054483
000270 b2 e3 1d bd 26 a4 64 3d bc 2f 25 3e 94 ce 1e 3d
       -0.038547225 0.055820607 0.1613149 0.038771227
000280 83 11 03 bd 4e 2e 81 bd 7c 3c e8 bc 35 09 2c bc
       -0.031999122 -0.0630766 -0.028349154 -0.010500242
000290 22 3d 8d 3c f1 b7 13 3c 6e 05 d1 bd ae 4c c7 bc
       0.017241064 0.009016023 -0.10206114 -0.024328556
0002a0 42 30 9c bd 39 c7 25 bd 1e 6b dd bc 16 b4 59 3d
       -0.07626392 -0.040473197 -0.027028617 0.05315026
0002b0 60 f3 39 bd 21 29 99 3d c7 0a 09 3d aa 11 e9 bc
       -0.045398116 0.07478548 0.033457544 -0.028450806
0002c0 df fd 8f 3b bd e0 b8 bc 05 ba a5 bd b7 11 56 bc
       0.0043942775 -0.022568101 -0.08092121 -0.013065747
0002d0 bd e7 1f 3d fb ec 38 3d 68 a0 d1 3c 1d a7 64 bd
       0.039039362 0.045147877 0.025589183 -0.055823434
0002e0 e6 f8 40 3d dd e2 69 3c 28 34 94 bd 77 a5 28 3d
       0.047112368 0.01427528 -0.072365105 0.041173425
0002f0 ae cf 8c 3d e2 db 84 3d d4 de 78 3d e9 12 a5 bc
       0.06875549 0.06487252 0.06075938 -0.020150619
000300 8f 13 b5 bd 8d 80 36 3d 8a 6c 80 3d a3 3d ea 3c
       -0.08841621 0.04455619 0.06270702 0.028593844
000310 25 82 9c bd 8b ae 86 3c e8 47 c2 3d d5 0d 38 3d
       -0.076420106 0.01644065 0.09486371 0.044935066
000320 01 08 29 3c 81 2b af bc 76 fc 34 bd e3 f3 10 bd
       0.01031685 -0.021383049 -0.044186078 -0.03538884
000330 2e 22 57 3d 95 1f 39 3c b1 e0 4f bc 22 c4 ca bc
       0.05252283 0.011299034 -0.012687848 -0.024751727
000340 25 52 76 3d aa ae 34 bd 4a a4 83 bd 7f 2a 93 bc
       0.060136933 -0.044111885 -0.0642782 -0.0179646
000350 bf c3 ec bc e3 3b 4f bd 2f 53 59 3c cc f8 87 3d
       -0.028901933 -0.05059422 0.013264461 0.06639251
000360 fb fe 9d 3c 65 ff 57 bb 77 0f 4d 3d 16 7c af 3d
       0.019286623 -0.0032958623 0.050063577 0.085685894
000370 a0 f0 95 3d 71 3e 18 bd bb b6 23 3b 4a 67 8f bd
       0.07321286 -0.037168924 0.0024980742 -0.07002123
000380 48 83 83 3d fa 8a 7f bd be 3c 01 3d ce 99 58 bd
       0.06421524 -0.062388398 0.03155207 -0.052881055
000390 77 a8 b1 bc 51 72 af 3c a0 ac 92 bc 37 c9 d9 bc
       -0.021686776 0.021416815 -0.01790458 -0.026585205
0003a0 58 7d 4a bc a0 17 9a 3d c7 e0 c0 bd ae 6a da bc
       -0.012358986 0.07524037 -0.09417873 -0.026662197
0003b0 20 14 45 3d 45 1b c8 bd 20 ad 25 3c 33 50 5b bd
       0.048114896 -0.09770826 0.010112077 -0.05354328
0003c0 b3 c4 42 bd d4 d8 2c bc 1f 9b 4a 3d 74 dc 91 3d
       -0.04755087 -0.010549743 0.04946434 0.07122126
0003d0 f6 7d 4d bd 72 b5 82 3d 82 10 9c bd 46 1a 8d bd
       -0.050168954 0.06382264 -0.07620336 -0.06889777
0003e0 0d 6f db bb 3d 26 aa bc 86 6d 61 bc b2 80 8b bd
       -0.006696588 -0.020770187 -0.013759023 -0.06811656
0003f0 c1 72 90 bd 8b 99 8a 3d 69 95 91 bd da c6 6d bd
       -0.070531376 0.06767567 -0.07108576 -0.058050968

conv.2.bias f4 [32]
000000 3e d1 38 3d a0 98 a6 3d 70 40 ce 3d ca 42 84 bc
       0.045121424 0.0813458 0.10070884 -0.016145129
000010 27 38 87 3c ff 12 72 3c e3 e2 88 bc 1a a1 7a 3d
       0.016506268 0.014775037 -0.01670975 0.061188795
000020 26 8c a9 3c 64 e4 aa ba 09 a7 3c 3c 90 34 35 3e
       0.02069671 -0.0013038036 0.011514434 0.17695832
000030 cf 67 63 3b 12 a0 14 3d 08 11 ab 3c 99 46 98 3c
       0.0034699326 0.036285467 0.020882145 0.018588351
000040 72 dd 38 bc d2 2a a3 bd f6 ac e6 bc d7 e5 b0 3a
       -0.011283265 -0.07967152 -0.028158646 0.0013496232
000050 d3 3a 7c 3c da 10 a1 bc 09 3c 9e bd 05 6f 2d 3c
       0.015394884 -0.019661356 -0.077262945 0.010585551
000060 46 54 c8 bc 38 e3 cd 3c 3f 53 7d 3d 0f 15 8d bd
       -0.024454247 0.02513276 0.061846968 -0.06888782
000070 4c 82 1e 3d cd 7b 45 bd ae 13 1b bd 64 e8 b1 3c
       0.03869848 -0.04821377 -0.037860565 0.021717258

conv.3.weight f4 [32]
000000 aa b2 77 3f df d3 73 3f f3 dc 80 3f ec 1c 89 3f
       0.96756995 0.95245165 1.0067428 1.0711951
000010 80 81 80 3f 25 f7 62 3f 38 1e 8c 3f e5 72 79 3f
       1.003952 0.8865836 1.0946722 0.9744094
000020 48 f3 86 3f f6 f7 96 3f fd de 82 3f 69 4d 6c 3f
       1.0542994 1.1794422 1.0224301 0.9230562
000030 ab 40 75 3f c1 cd 80 3f 28 6e 6c 3f 52 f1 6a 3f
       0.958018 1.0062791 0.92355585 0.91774476
000040 18 d0 8c 3f 99 b9 8f 3f 16 fc 87 3f f1 94 6c 3f
       1.1001005 1.1228515 1.0623806 0.92414767
000050 38 7d 5f 3f a7 91 8e 3f a8 87 65 3f ed b4 7f 3f
       0.87300444 1.11382 0.8966012 0.99885446
000060 cb 9e 6b 3f 41 57 58 3f a3 c9 71 3f 08 87 6d 3f
       0.92039174 0.8450814 0.944483 0.92784166
000070 c4 e4 6f 3f bd 37 75 3f 3d 63 48 3f ae 47 81 3f
       0.93708444 0.95788175 0.78276426 1.01

conv.3.bias f4 [32]
000000 db 43 e6 bd c2 bd 9d be 57 c0 4e be 13 48 99 be
       -0.11243411 -0.30808836 -0.2019056 -0.299378
000010 67 59 86 be 23 4d 39 be 6e ba 29 be 64 28 9b be
       -0.26240084 -0.18095832 -0.16575024 -0.30304253
000020 e1 2e df bd b7 b3 83 be 78 5e 85 be 66 81 09 be
       -0.10897613 -0.2572305 -0.26048636 -0.13428268
000030 d9 2f 81 be ff 29 33 be 79 bb 75 be e7 89 48 be
       -0.25231817 -0.17496489 -0.23997296 -0.19583856
000040 06 4d 80 be 12 c2 39 be 44 27 ef bd 08 71 1a be
       -0.25058764 -0.18140438 -0.11677411 -0.1508218
000050 06 67 40 be 92 7b 38 be e9 27 51 be 9a 99 02 be
       -0.187893 -0.18015888 -0.20425381 -0.12753907
000060 cd 99 e1 bd 84 55 8a bd 75 dc 48 be 26 3e 84 be
       -0.11015663 -0.06754592 -0.19615348 -0.25828665
000070 d0 1f a1 be fc 75 2c be ec 6f 53 3a f7 8c 8b bd
       -0.31469584 -0.16841882 0.0008065689 -0.06813996

conv.3.running_mean f4 [32]
000000 50 4c 7f 3c 0e b6 16 3e 3d 36 ee 3d 2f 7a d7 bd
       0.015582159 0.14717886 0.11631439 -0.105213515
000010 2d 08 40 bd 35 29 76 3d 14 a4 46 be d8 80 73 3d
       -0.046882797 0.06009789 -0.19398528 0.059449047
000020 7e ff 8c bd ad 50 11 be 03 09 01 bd 6e 3b 63 3e
       -0.06884669 -0.14190932 -0.031502735 0.2219064
000030 68 fe f9 3d cb 45 98 3d 39 30 fd 3c 47 98 65 bb
       0.12206727 0.07435187 0.030906783 -0.0035033391
000040 e0 89 16 bd 8b 19 67 be 04 d6 36 be 1a ff 1d 3d
       -0.03675258 -0.22568338 -0.17855078 0.038573362
000050 50 5c 94 bd a9 52 fb bc 13 c1 08 bd 7e 74 40 3b
       -0.0724417 -0.030679064 -0.033387255 0.002936631
000060 99 eb 87 bd 9a 5c 2d be 8e 32 2d bd f9 a5 c8 bd
       -0.066367336 -0.16929856 -0.04228454 -0.09797282
000070 4e 17 69 3c f8 bb 9e bd be 6c be bc 69 32 8f bd
       0.014226748 -0.07750696 -0.023245212 -0.06992037

conv.3.running_var f4 [32]
000000 2b ce af 3b e9 21 15 3c fb 01 02 3c 21 90 15 3c
       0.0053651533 0.009102323 0.0079350425 0.009128601
000010 38 b3 ae 3b 1f c0 14 3c 4b f9 f6 3b e3 85 12 3c
       0.005331423 0.009079008 0.0075370423 0.008943054
000020 63 27 16 3c d7 fa 23 3c b0 c2 ff 3b dd 77 06 3c
       0.009164664 0.010008535 0.007805191 0.008207289
000030 a9 cf 53 3c 8a 4b 1c 3c 0b d2 04 3c a0 34 85 3b
       0.012927928 0.009539494 0.008106719 0.0040651113
000040 45 78 c3 3b 87 48 26 3c e6 8c 27 3c 5c 14 e8 3b
       0.005965265 0.010149128 0.010226464 0.007082505
000050 e6 53 47 3b 4a e0 ce 3b 4b a7 05 3c b2 69 13 3c
       0.0030414998 0.0063133584 0.0081575615 0.008997368
000060 bf 14 c4 3b 24 7c 3b 3b 01 70 e1 3b 30 62 9d 3b
       0.0059839184 0.002860793 0.006879807 0.0048029646
000070 83 e1 d1 3b c3 23 d1 3b 90 3f e9 3a 61 c6 e1 3b
       0.006405057 0.006382437 0.0017795432 0.0068901037

conv.5.weight f4 [64, 32, 4, 4]
000000 83 f8 10 3c 14 b6 3d bd dd 96 73 3c 2f 99 1e bd
       0.008848312 -0.04631622 0.014867512 -0.038720306
000010 f6 50 5a bd 72 c1 d5 bd 36 20 a0 b9 41 15 1f 3d
       -0.053299867 -0.104372874 -0.00030541577 0.03883863
000020 32 48 a5 3d 2b b5 f2 3b 71 92 66 bd bb f1 9f 3c
       0.08070411 0.007406851 -0.056292 0.019524446
000030 7a 53 4b 3d 93 d0 ce 3a 8e 03 2c 3d f3 3b e2 3b
       0.049640156 0.0015778713 0.041995578 0.006904119
000040 d9 a0 7a bc 23 ef c8 3c c1 08 52 3c 08 ff cc 3b
       -0.015297138 0.024528092 0.01281947 0.006255988
000050 ad c9 ba bb 55 e6 5f bd 3d 05 f8 bc c8 7a af bc
       -0.005700311 -0.05466302 -0.030275935 -0.021420851
000060 9a 68 0e bd 3c e2 be 3c 7a e5 ce 3c c0 95 8a bd
       -0.034767725 0.023301236 0.025255907 -0.06766844
000070 c6 38 16 bd 32 19 0a 3d ba 5a c6 3b 7f 9c 76 3d
       -0.036675237 0.033715434 0.006053296 0.06020784
000080 f3 9e 1f bd b9 3b 1d 3d 38 d1 e6 bc 99 36 bf 3d
       -0.038969945 0.038387034 -0.028175935 0.093365856
000090 bf 04 c7 bc e7 03 95 bd 32 78 20 bc e2 19 a7 bc
       -0.024294255 -0.07276135 -0.009794282 -0.020398084
0000a0 87 30 65 bd 33 a5 51 bc 30 0a a0 bc ab b4 30 3d
       -0.055954482 -0.012795734 -0.019536108 0.04314105
0000b0 8c ab 6d bd b6 6a b3 bd e3 2c 24 3d 3e 18 65 bb
       -0.058024928 -0.08760588 0.04008187 -0.0034957076
0000c0 a8 d5 47 3d 4b ae c4 3c 81 d6 31 3d 3a 94 ee bd
       0.048787743 0.02400889 0.043417457 -0.11649366
0000d0 4f da 6f 3d af bc 51 3d c8 2a ee bc a1 a2 d6 bb
       0.058557805 0.051205333 -0.029073134 -0.0065501486
0000e0 73 53 03 3d 88 ef 33 3c 3d 4f 0b 3d f0 85 dd bd
       0.032062005 0.010982402 0.034011114 -0.10816562
0000f0 cd c6 6b 3d ce 7a 27 3d 33 fa 45 bc a7 de f4 3c
       0.057562638 0.0408886 -0.012083578 0.029891325
000100 6b 02 74 bd 1a 26 a9 3d 74 76 32 3c bf c4 16 3d
       -0.05957262 0.082592204 0.010892499 0.036808725
000110 41 44 61 bd af 3c 8f bb 8d 03 9c 3c 49 d4 c2 3d
       -0.054996733 -0.0043712477 0.019044662 0.095131464
000120 fc bd 4d 3d f6 f7 4a bd bd 74 90 bc 87 1e 6c 3c
       0.05023001 -0.04955288 -0.01763379 0.014411575
000130 79 ca a9 bc 18 77 2f bd c7 fe eb 3c ec f5 c9 3c
       -0.02072643 -0.042838186 0.02880801 0.024653398
000140 f2 85 11 bb 8a f7 5b bb af 35 29 bd 66 28 84 bc
       -0.0022205082 -0.0033564293 -0.041310962 -0.016132545
000150 0f cb d6 3c e5 12 1d bd e1 fc 05 bb 67 2c 07 bd
       0.026219873 -0.038348097 -0.0020444917 -0.03300133
000160 67 a6 8b bc 25 bf 48 ba 78 ae df bc 7f 75 e3 3b
       -0.01704712 -0.0007657877 -0.027304873 0.006941497
000170 bc d4 2b bd 85 a0 f5 bc cd 63 7f 3d 1b 8d 2e 3d
       -0.041950926 -0.029983768 0.062351037 0.042615037
000180 a5 ec 9d bc f1 de 2f bd 72 b8 d5 3d 47 65 9f 3d
       -0.01927788 -0.042937223 0.10435571 0.07782989
000190 b8 c2 99 bd e5 e9 37 3d 75 72 d1 3c a4 a5 40 bc
       -0.07507843 0.044900794 0.025567273 -0.011758242
0001a0 27 63 6e bd d2 c5 3f bc d4 48 80 3d b7 6c 51 3b
       -0.058200028 -0.011704879 0.06263891 0.0031955668
0001b0 b2 47 af bd c0 c7 07 3d fc a3 e5 b7 71 fb ca bd
       -0.08558597 0.03314948 -2.7375288e-05 -0.0991124
0001c0 13 36 ee 3c 7d 46 86 bd d8 4b ad 3c 84 fc ba 3c
       0.029078519 -0.06556413 0.02115433 0.022825487
0001d0 aa 90 92 3d 43 c2 e3 3b 7e e5 86 bd 63 ed 8e bd
       0.07156499 0.006950648 -0.06586741 -0.06978872
0001e0 02 ac 58 3d b8 01 26 3d 54 e5 52 3d 69 47 b0 3d
       0.052898414 0.040528983 0.051488236 0.086073704
0001f0 f7 75 bb 3d ec 78 d0 3d e8 10 45 3d b4 ec ea bc
       0.091533594 0.10179314 0.048111826 -0.028677322
000200 27 18 6c bb a3 53 91 bc b4 d1 4d bc 75 86 2e 3d
       -0.0036025138 -0.017740076 -0.012562204 0.042608697
000210 8c 7a 74 3b e2 a5 41 bc 24 89 66 3d 80 14 70 3d
       0.003730449 -0.011819335 0.05628313 0.0586133
000220 06 a5 99 bd fe b4 06 bd e6 0e 00 3e 85 f0 e8 3b
       -0.07502179 -0.03288745 0.12505683 0.0071087503
000230 2c 42 c6 3a 2b 6b 51 3c d4 42 7f bd ca 5f 97 bd
       0.0015125922 0.0127818985 -0.06231959 -0.07391317
000240 c6 16 bd 3c 57 a8 55 3d 20 a2 12 bc 07 e4 eb bb
       0.023082148 0.052162495 -0.008949786 -0.007198814
000250 18 2f 55 bd 95 fb 05 3d c9 a7 2a 3d f4 55 a8 bc
       -0.052046865 0.03271063 0.04166392 -0.020548798
000260 03 79 4a bd 74 2a 99 bd a7 e1 76 3d c5 c4 32 bd
       -0.049431812 -0.074788004 0.060273793 -0.043644685
000270 49 8b 3e bc bb c7 85 3d 57 13 9c 3d 3f ab b9 3b
       -0.011629888 0.06532236 0.07620876 0.005666166
000280 7d 45 e8 3d e2 8d 82 bc 16 9a c8 bb ab d8 8a 3d
       0.11341379 -0.015936796 -0.006121884 0.067796074
000290 2a ab 5c 3d 95 0f 7c bd 3e 6c ee 39 60 27 18 bd
       0.053874172 -0.061538298 0.00045475544 -0.037146926
0002a0 5d 85 47 bc ba 38 99 bd 31 57 9f bd c2 63 87 bb
       -0.012177792 -0.07481523 -0.07780302 -0.004131765
0002b0 ec e6 00 bc a9 a4 52 bd a8 af 71 3a 67 42 6b 3d
       -0.007867556 -0.051426563 0.0009219595 0.057436373
0002c0 25 2f 0d bc 5f 18 35 ba 49 67 6a 3c 9d 1e 09 bd
       -0.008617197 -0.00069082336 0.014306852 -0.03347646
0002d0 a7 12 3e 3d 32 d1 f9 3d 45 a7 ca bd 27 bf b9 bc
       0.046404507 0.12198104 -0.098951854 -0.022674156
0002e0 f3 53 c0 3c 7a 87 af bc 98 23 85 bc ec 01 8a 3c
       0.02347753 -0.021426905 -0.016252324 0.01684662
0002f0 1e 8c cc 3c ce 2c 57 3d 73 df 32 3b c3 85 44 bd
       0.024969157 0.052532963 0.002729383 -0.047979128
000300 fa 0d c3 bc c8 6e fe 3c 4b 36 47 3d 30 6e 84 3d
       -0.023810375 0.031058684 0.048635762 0.06466329
000310 50 57 ad bd 99 41 91 3c 34 00 8a 3c 50 30 2e 3d
       -0.08463919 0.017731475 0.0168458 0.042526543
000320 f2 a2 31 bd 98 8f 34 bd 6b bb 81 3d ee 31 10 bb
       -0.043368287 -0.044082254 0.06334575 -0.0022002417
000330 16 4c e4 3c 52 8c 4a bd 58 2c 37 bc c3 8f 79 3d
       0.027868312 -0.049450226 -0.011180006 0.060928117
000340 36 87 4b 3d c0 02 4e bd 92 8c b7 3c c4 07 c8 3d
       0.049689494 -0.05029559 0.022405896 0.09767106
000350 82 be b8 3c 80 18 b1 3d 6f 03 ba 3d 6c 36 07 3d
       0.022551779 0.08647251 0.09082686 0.033010885
000360 2d 12 97 3c a8 9c 01 bd 7b e5 f2 ba 29 a6 55 3d
       0.018441284 -0.03164354 -0.0018531525 0.052160416
000370 6d 5d 14 bd a7 a5 2b 3c 0f f2 91 3b 1d 19 8e 3c
       -0.03622191 0.010476506 0.0044539045 0.01734596
000380 6e bc 04 3d a6 da d1 bc 33 2f f8 bb 7c 7e ae 3d
       0.032406263 -0.025616955 -0.007573986 0.08520219
000390 7b de a8 bd 4c 57 99 3d 3a c4 f6 bc 22 6e c6 3a
       -0.0824556 0.07487354 -0.030122865 0.0015139023
0003a0 e7 ea af bb a6 d9 ab 3c 8b a0 57 bd 67 05 a2 bd
       -0.0053685787 0.020977806 -0.05264334 -0.07911187
0003b0 04 79 f8 3b 84 03 5c 3c a3 9f bc bd 70 69 0b 3c
       0.0075827856 0.013428573 -0.09210136 0.008509025
0003c0 b0 39 a4 3b d4 51 22 3d 8c cc 87 bd 0b 26 b5 bd
       0.0050117597 0.03962882 -0.06630811 -0.08845147
0003d0 76 b3 4a 3d 64 40 81 bc 96 fa 82 3d 08 1f 5f 3d
       0.049487554 -0.015777774 0.06395452 0.054472953
0003e0 37 ba 28 bb 80 5d da bc 1e ee 42 3d c7 93 8b bd
       -0.0025745758 -0.026655912 0.047590367 -0.06815296
0003f0 8b bb 48 bc fe 03 a6 bc 7d 4a df 3c 40 9b ed 3c
       -0.012251745 -0.020265575 0.027257198 0.029004693

conv.5.bias f4 [64]
000000 20 da 9f 3d ee 49 28 3b fd 40 8d bd d4 fd 48 bd
       0.07805276 0.002567883 -0.06897161 -0.049070194
000010 04 66 6e 3d 4c 02 9a 3b 33 1f d4 bd c7 fa 8b bc
       0.05820276 0.004699981 -0.10357513 -0.017087353
000020 b8 dd b7 3d 45 d7 f6 3c f4 50 3b bd 31 97 ba 3b
       0.08977836 0.030131945 -0.0457315 0.005694293
000030 fa ea b3 3d b4 81 a9 bc 51 58 a1 bd 43 81 1b 3c
       0.087850526 -0.02069173 -0.07878173 0.009491268
000040 d0 49 80 3c 10 17 e3 bb d1 a0 06 3c 91 5b e9 bc
       0.015660197 -0.0069302395 0.008217053 -0.028486045
000050 2f 86 98 3d 05 05 64 37 f7 74 5a 3d f8 af e5 bc
       0.074474685 1.3591028e-05 0.053334203 -0.02803801
000060 68 d5 90 3d 39 66 88 3d 40 f4 83 bc 51 90 42 bd
       0.07071954 0.066601224 -0.016107678 -0.047500912
000070 be 71 27 3d 23 22 04 3d 78 fc 64 3d d2 40 02 3d
       0.040879957 0.032259118 0.055904835 0.0318001
000080 2a 66 c7 bd 56 5b f8 3c 5c a8 48 3d 59 27 0f bd
       -0.09736283 0.03031699 0.048988685 -0.034949634
000090 15 aa fc 3b ad 1b 24 3c 40 d7 3a bd 0b 63 fd bb
       0.007710705 0.010016364 -0.045615435 -0.007732754
0000a0 bb e5 12 3d d5 54 1e 3d 26 c4 56 ba b3 b5 0e 3d
       0.03586362 0.03865512 -0.00081926805 0.03484125
0000b0 bb cf 8f bd 8e 76 9a bd 77 77 2f bd 7f 76 58 3d
       -0.07022043 -0.07542144 -0.04283854 0.05284738
0000c0 5e 1e 01 bd 39 b8 42 3d 31 04 11 3c 2d b2 37 3b
       -0.0315231 0.04753897 0.008851097 0.0028029785
0000d0 d2 dd b2 bc 56 bb 05 bd 7d bc 19 bd 7a 8b f4 bb
       -0.021834288 -0.03264936 -0.037533272 -0.007462916
0000e0 a3 c4 36 bd 72 a9 3c bd 92 93 a8 bd 0c 29 31 3d
       -0.04462112 -0.046060033 -0.08231272 0.043252036
0000f0 3f 97 f9 3c df c4 83 bd be b6 54 bd 7e 1f 6c 3d
       0.030467628 -0.064340346 -0.05193209 0.05764722

conv.6.weight f4 [64]
000000 6a 93 00 40 66 12 e2 3f 02 10 ed 3f 57 4e d3 3f
       2.0089974 1.7661865 1.852051 1.6508282
000010 e3 dc ce 3f 2d 12 f6 3f 99 c5 fc 3f f5 38 e4 3f
       1.6161159 1.9224297 1.9747802 1.7829882
000020 15 2b e8 3f 92 cf ef 3f a2 f1 ed 3f 50 56 da 3f
       1.8138148 1.873522 1.8589365 1.705759
000030 c2 eb e9 3f 04 37 da 3f 23 ad e4 3f b3 3d e0 3f
       1.8275073 1.704804 1.7865337 1.7518829
000040 21 2d e7 3f 5d 6b d0 3f 55 95 de 3f f0 7e f1 3f
       1.8060647 1.6282765 1.7389323 1.8866863
000050 c4 a9 e5 3f 59 80 ec 3f c2 b1 dd 3f dd 88 fb 3f
       1.7942433 1.8476669 1.7319872 1.9651142
000060 bb e8 d6 3f 6b 60 e5 3f c4 b2 00 40 22 b6 f4 3f
       1.6789774 1.792005 2.010911 1.9118083
000070 a9 69 d6 3f 5e a1 f6 3f e8 e4 d8 3f 6f 3c d6 3f
       1.6750995 1.9267995 1.6944857 1.6737193
000080 71 c0 f0 3f 1d 8c ee 3f a4 14 e9 3f c5 6b ee 3f
       1.8808728 1.8636509 1.8209424 1.8626639
000090 d9 3f e4 3f 94 d0 ca 3f 6b 40 d9 3f 3f 77 ea 3f
       1.7831985 1.5844903 1.6972784 1.8317641
0000a0 ca 64 f0 3f 12 e9 db 3f 3c 68 dd 3f 68 83 e5 3f
       1.8780758 1.7180502 1.7297435 1.7930727
0000b0 4e 02 f1 3f fe a1 f1 3f 2b 6f e4 3f 1d ca eb 3f
       1.8828828 1.8877561 1.7846426 1.8421055
0000c0 15 78 ec 3f 09 6f 00 40 d7 0b e5 3f ce 3d f7 3f
       1.8474146 2.006777 1.7894238 1.9315736
0000d0 f6 1b d6 3f ea b4 e7 3f 65 bd f6 3f 27 5f db 3f
       1.6727283 1.8102086 1.9276549 1.7138413
0000e0 70 6d ea 3f ca f4 ea 3f b6 09 f2 3f 1b f8 e6 3f
       1.8314648 1.8355954 1.8909214 1.8044466
0000f0 90 8e ee 3f b8 49 ff 3f d9 b5 e4 3f be 45 f6 3f
       1.8637257 1.9944372 1.7867996 1.9240034

conv.6.bias f4 [64]
000000 43 c7 49 be 62 0b 09 bd 0f 17 b3 bd 5c 52 d8 bb
       -0.19704919 -0.03345812 -0.087446325 -0.006601615
000010 ca c5 1e 3e 33 14 98 bd 60 9e 96 bd 50 12 22 be
       0.15505138 -0.07425728 -0.073544264 -0.15827298
000020 64 db 33 be da 26 92 bd 93 c7 45 bd 56 df a7 bd
       -0.1756416 -0.071363166 -0.048286032 -0.08196895
000030 e7 f3 bd bd 29 78 d5 bd d8 f9 3c be 21 ac a4 bd
       -0.09275036 -0.10423309 -0.18454683 -0.080406435
000040 a4 0d b5 bd cb 11 43 bd 0f ae 3c be 11 fe 2d be
       -0.08840492 -0.04762439 -0.18425773 -0.1699145
000050 fe 98 58 bd 18 52 c8 bd 30 a7 7d be d6 52 95 bd
       -0.05288028 -0.09781283 -0.24770808 -0.0729119
000060 90 af 10 bd 77 6f 0d be 6c 9b df bd 66 5e b8 bd
       -0.03532368 -0.13812052 -0.10918316 -0.0900238
000070 3e e9 58 bd f3 99 1e bd 83 3d f3 bc 7d 67 61 be
       -0.052956812 -0.038721036 -0.029692417 -0.22012134
000080 bb c2 ba 3d 50 c1 f5 bd 19 c9 04 be 66 66 80 bd
       0.09119173 -0.11999762 -0.12967338 -0.06269531
000090 20 3e 35 be 3c 86 c5 bd 72 b3 95 bd 47 1b 9d bd
       -0.1769948 -0.09644744 -0.07309617 -0.07671218
0000a0 01 51 76 bd 20 96 38 3d 33 9b 7b bd 38 e7 b5 bd
       -0.060135845 0.045065045 -0.061427306 -0.08881992
0000b0 de 79 38 be 3b 3a 1f be b5 8a 2c bd 2a 1f a8 bc
       -0.18015239 -0.15549557 -0.04212447 -0.020522673
0000c0 bf d6 40 be 01 06 cb bd f7 c5 ed 3b 2e 3a 04 bd
       -0.18831919 -0.099132545 0.0072562653 -0.032282047
0000d0 c5 3b cd be 34 c5 56 3d 25 8c e6 bd 50 75 38 be
       -0.40084663 0.05243416 -0.11257199 -0.18013501
0000e0 03 e3 a6 bd 4c 90 93 bc 74 57 e7 bd 20 d7 f3 bd
       -0.08148768 -0.018013142 -0.11295977 -0.11906266
0000f0 de e9 e4 bd 77 83 f8 bd 02 6b 03 be 01 8a 68 bd
       -0.11177419 -0.1213445 -0.12833789 -0.056772236

conv.6.running_mean f4 [64]
000000 5a cc 80 3e cf 86 13 be df bf 25 be f4 b6 29 3d
       0.25155908 -0.14406894 -0.16186474 0.041434243
000010 91 2a 19 3e 82 87 f8 bd 3d fa ae 3c aa f8 ce bd
       0.14957644 -0.12135221 0.021359557 -0.10106023
000020 7c 88 4c 3e 59 e2 e6 3d 49 db 81 be a0 9f dd 3e
       0.1997394 0.11273641 -0.25362614 0.43285847
000030 56 03 d9 bd 62 38 f3 3e d7 24 da bd ae 03 41 bf
       -0.105963394 0.47503954 -0.10651558 -0.7539624
000040 ee fd 0d 3b e8 49 70 be d4 56 a6 be 30 c3 a8 3c
       0.0021666246 -0.23465693 -0.3248812 0.020600885
000050 b0 27 e4 bd 92 0d 0b be c5 97 0b 3d 05 1b 28 bf
       -0.11140382 -0.13579395 0.034080286 -0.6566623
000060 93 e3 70 3d a3 a8 29 3e da 57 3a bd 71 39 86 3e
       0.05881078 0.16568236 -0.045493938 0.262157
000070 8a 69 f1 3d a1 86 09 3e 6e 5d 27 3e 3a e4 3b 3f
       0.11787708 0.13430263 0.16344234 0.7339512
000080 8e 30 8e be 7b 43 44 3d 68 f6 90 3e 68 77 b9 be
       -0.2777142 0.047915917 0.28312993 -0.36223912
000090 05 27 94 bd f5 86 41 3f 33 e9 5c 3e dd 13 6f bd
       -0.07234005 0.75596553 0.21573333 -0.058368552
0000a0 1e da 4f 3e 4f f6 57 3c 9f 08 83 bd e3 9d 0a 3e
       0.20298049 0.013181283 -0.06398129 0.13536792
0000b0 68 c0 08 bf 1e f6 ab be 7c 17 ee 3d b4 7e 1d bd
       -0.5341859 -0.3358621 0.11625573 -0.03845091
0000c0 44 28 57 3e c9 fd b9 3a be 7d d4 bd 20 8d 3a be
       0.21011454 0.0014190014 -0.10375546 -0.18217897
0000d0 5e 12 ab 3e ea a4 25 be 34 53 db bc 7f 5b 96 3e
       0.3341245 -0.16176191 -0.026773073 0.2936668
0000e0 9a 4d f1 3d c4 10 4a bd a7 e7 0f bf 4b c0 52 bc
       0.117823794 -0.049332395 -0.5621285 -0.012863229
0000f0 29 1d 57 3e 24 83 c9 3d 15 b1 ce bd 23 9a be be
       0.21007217 0.09839466 -0.100923695 -0.37226972

conv.6.running_var f4 [64]
000000 2e 2d 23 3e 89 f6 16 3e b7 81 43 3e 1e 37 9d 3e
       0.15935203 0.14742483 0.19092451 0.30706114
000010 9e 41 63 3e 72 eb 37 3e 29 db 31 3e 18 03 21 3e
       0.22193 0.17960909 0.17368759 0.15723836
000020 48 13 27 3e be 85 34 3e 4c 52 21 3e 2e 5c 1a 3e
       0.16315949 0.17629144 0.1575405 0.15074226
000030 18 fa 2e 3e ae 31 64 3e a8 3a 86 3e a0 85 25 3e
       0.1708759 0.22284576 0.26216626 0.16164255
000040 4c e1 3c 3e 02 2a 68 3e b6 80 12 3e 02 c1 2d 3e
       0.18445319 0.22672275 0.14306912 0.16968158
000050 31 3c 46 3e c5 9b 3d 3e 93 df 34 3e 92 c3 42 3e
       0.19358899 0.18516453 0.17663412 0.19019917
000060 2e 3f 57 3e be e2 22 3e 1a 5f 17 3e e4 64 10 3e
       0.21020195 0.15906808 0.14782372 0.14100987
000070 8e 6c 49 3e d3 b5 2b 3e d4 c1 03 3e 44 6c 6d 3e
       0.19670317 0.16768579 0.12866908 0.23185831
000080 94 db 34 3e c1 45 40 3e 57 89 5b 3e a6 17 36 3e
       0.17661887 0.18776609 0.2143911 0.17782459
000090 fb f4 38 3e 81 32 50 3e 7f 62 32 3e 33 47 16 3e
       0.18062203 0.20331766 0.17420386 0.14675598
0000a0 c1 54 3e 3e fa d3 16 3e 1c 8f 69 3e a5 5d 1f 3e
       0.18587019 0.147293 0.22808498 0.15563066
0000b0 db 56 20 3e 01 03 1e 3e 8c b3 85 3e 9e b7 11 3e
       0.15658133 0.15430833 0.26113546 0.142302
0000c0 01 dd 0b 3e 96 1d 25 3e e1 33 1c 3e 71 29 49 3e
       0.13658525 0.16124567 0.15254165 0.19644715
0000d0 e4 7d 7b 3e ac 32 2a 3e ae 05 32 3e 4b d6 19 3e
       0.24559742 0.16620892 0.17384979 0.15023153
0000e0 c4 7c 09 3e 44 18 2f 3e 09 d3 2b 3e 19 39 16 3e
       0.134265 0.170991 0.16779722 0.14670219
0000f0 39 f0 13 3e be df 40 3e 2a 8a 21 3e 55 59 2a 3e
       0.14447106 0.18835351 0.15775362 0.1663564

adv_head.weight f4 [1, 2304]
000000 0c f0 f1 3a 68 d9 f2 3b 02 d1 a0 bb dd 70 75 bb
       0.001845838 0.0074111708 -0.004907728 -0.0037451305
000010 bc 34 4f bb ab 87 67 bb 2e 96 43 bc b8 55 6c bc
       -0.0031617125 -0.0035328667 -0.011937661 -0.014424734
000020 ad 5c 83 3b 1d 3d 0d bc b7 b7 00 39 b9 02 35 3c
       0.0040088505 -0.008620528 0.0001227547 0.011048012
000030 f5 3c 81 b9 a0 fb 55 bb 97 82 fd bb 51 39 b4 3a
       -0.00024650214 -0.00326512 -0.007736515 0.0013749992
000040 f2 32 0f 3c 5f 61 6e 3b 3a 12 77 bc b6 1f 3f 3b
       0.008740174 0.0036373956 -0.015080029 0.0029163188
000050 5a 88 07 3c 00 63 14 ba 87 89 bf 3a a7 8a 54 3b
       0.008272255 -0.0005660504 0.001461313 0.0032431276
000060 44 6c 84 bb 96 46 df 3b 72 31 81 b9 04 39 a1 bb
       -0.0040412266 0.0068138344 -0.00024641637 -0.004920127
000070 31 50 0e 3b d2 82 f7 ba b4 f3 11 3b 25 33 0c 3b
       0.0021715278 -0.0018883592 0.0022270503 0.002139279
000080 ec b3 2e bc 76 f2 3b 3a 1a 00 c4 3b e6 0c 70 3b
       -0.010663014 0.00071696134 0.0059814574 0.0036628782
000090 79 5e a0 bb eb d9 9d bb 34 74 0a bb 86 72 3d 3a
       -0.0048940745 -0.0048172376 -0.0021126391 0.0007226843
0000a0 25 09 37 3b bb 93 bd bb 75 53 48 bb 49 8d 43 3b
       0.0027929035 -0.005785433 -0.0030567322 0.0029838851
0000b0 44 82 86 bb 04 a6 89 bb e4 8f c2 3b a5 54 2e ba
       -0.0041048843 -0.004200699 0.0059375633 -0.0006650186
0000c0 02 c0 e2 bb 96 f0 19 bb f8 92 63 3b 41 ab e0 ba
       -0.006919862 -0.0023489348 0.0034725051 -0.0017140881
0000d0 a8 22 05 3c 15 fb e2 ba c7 94 51 3a 9b 90 dd ba
       0.0081259385 -0.001731726 0.0007994887 -0.0016904058
0000e0 86 90 b9 ba 2c 03 ba b9 bb b9 99 3a 1d 21 94 bb
       -0.0014157451 -0.00035479048 0.0011728326 -0.004520549
0000f0 5f 48 5c bb ee c2 18 3b 11 a9 e8 bb 5d 92 82 bb
       -0.0033612472 0.0023309547 -0.0071002324 -0.003984733
000100 b8 cf c5 3b 1d ad 63 bb 70 f3 fd 3b fc e7 aa 3a
       0.006036725 -0.0034740635 0.0077499673 0.0013039107
000110 02 64 21 bb a9 70 35 3c 79 6d b8 bb 4d 30 33 b9
       -0.002462626 0.011074224 -0.0056282845 -0.00017088764
000120 c0 28 6b 3b c0 57 a3 bb ec 3d 4c bb 91 4f 11 3b
       0.0035882443 -0.004984826 -0.0031164838 0.002217267
000130 37 27 06 bc 49 9c ed 3b 43 67 05 3c 37 17 cc 39
       -0.0081880605 0.0072512967 0.008142295 0.00038927209
000140 02 84 c3 3a 0b 08 25 bc 75 b3 ca bb f8 98 c2 bb
       0.0014916661 -0.010072718 -0.0061859437 -0.0059386455
000150 8a 5c e0 3b 45 26 61 3b 0d e7 a7 bb fb 78 19 3a
       0.006846969 0.0034355086 -0.005123979 0.00058545143
000160 77 2c cf bb 65 f6 18 3b 10 19 0c 3c 77 c5 6d 3a
       -0.0063224393 0.0023340222 0.008550897 0.0009070257
000170 1b 53 0e bc 9e 38 36 bb 86 58 22 bb 0a eb 87 ba
       -0.008686806 -0.0027804743 -0.0024772002 -0.001036973
000180 b5 1c 99 3c 0b e5 c1 ba c8 fd 35 bb ad 5a 5d 3b
       0.018690446 -0.0014792992 -0.0027769674 0.003377597
000190 47 c5 65 3a fa 71 a6 3a 1e 13 bd 3b 88 8d b6 bb
       0.00087650534 0.0012698763 0.005770101 -0.005571071
0001a0 32 4a dd bb 2d 75 94 bb 98 22 e9 bb ff 40 05 3b
       -0.0067532295 -0.00453057 -0.0071147196 0.002033293
0001b0 a7 51 1e bc 22 fd d4 3c e3 13 62 3c bb 4f d5 bb
       -0.009663022 0.02599961 0.013798687 -0.0065097488
0001c0 9a bf 2f 3b ef 8c ac bb a6 93 57 bc bf 46 47 3b
       0.0026817084 -0.005265824 -0.013157761 0.0030407158
0001d0 43 e4 c9 3c c1 39 d4 bb 01 3d 1c 3b 66 4b ee 3b
       0.024644976 -0.0064766114 0.0023840072 0.007272172
0001e0 75 31 65 bb 39 a5 52 bb 49 2e 09 3c 37 14 75 3b
       -0.0034972106 -0.0032141937 0.008372852 0.0037396082
0001f0 16 b3 3e 3c 6f 7f e0 ba e8 d6 86 ba a7 fa c3 bb
       0.011639377 -0.0017127822 -0.0010287436 -0.005980808
000200 8d 56 21 3c b9 ea 3f ba 3e aa 8f 3b 16 a0 2a bb
       0.0098472955 -0.0007321048 0.004384308 -0.002603536
000210 dd e1 87 ba f4 a3 f9 3a 19 c8 75 bc 65 31 65 3c
       -0.0010366995 0.0019046054 -0.01500132 0.013988827
000220 3e 43 19 3c 64 7b 8e 3c f4 9c b7 bb 11 dc 43 bb
       0.009354411 0.017392822 -0.005603427 -0.0029885808
000230 ff 4c a7 bb c0 5b 8a bb e6 56 bc 3b 34 0a 9c 3b
       -0.005105614 -0.0042223632 0.005747664 0.0047619585
000240 a2 f1 00 3c 2f e3 1f 3c d2 1e 12 bc 83 ee 02 3b
       0.00787011 0.009758755 -0.008918481 0.001997859
000250 d9 99 d4 bb 5e 83 08 3c 15 cd 5b 3b fa ae 23 b9
       -0.0064880666 0.008332102 0.0033538986 -0.00015610075
000260 c6 a4 d3 bb c4 2c 3d bb 97 fa 0c 3b c8 ac 61 3a
       -0.0064588515 -0.0028865794 0.0021511668 0.0008608815
000270 64 c8 ba 3b 4c 5c ce bb 5a 02 52 bb 31 f9 e5 3a
       0.005700158 -0.0062976237 -0.0032044859 0.0017545578
000280 bb 79 0f 3b 8f c7 3d 3c 63 11 86 ba c9 93 14 3a
       0.0021892625 0.011583223 -0.001022857 0.00056677737
000290 8c 33 b9 3b a9 d6 1a bc b9 d7 27 3c a5 b3 44 39
       0.005651897 -0.009450593 0.010244303 0.0001875894
0002a0 2b 87 2f ba a6 b8 40 bc e4 bc 87 38 da 25 39 bc
       -0.0006695862 -0.011762774 6.472485e-05 -0.011300528
0002b0 72 3e d5 3b 47 98 08 bc 8b ed d6 3b 9f 39 2c 3c
       0.006507688 -0.008337087 0.006559079 0.010511785
0002c0 fb 1d 1d bb cb 61 ce ba ea a0 eb ba 79 9a 0e bb
       -0.0023974169 -0.0015745697 -0.0017977033 -0.0021759553
0002d0 75 3a 8d bc ab 33 b8 3b dd 31 68 3c 8a 33 41 3b
       -0.017239789 0.0056213937 0.014172045 0.0029480183
0002e0 be 42 97 bb 0f 4f cb bb 76 bd 9f 3b 16 92 ff ba
       -0.0046161106 -0.006204493 0.0048748804 -0.0019498493
0002f0 8e 7f 03 3c 96 dd 98 bb 58 eb 0a bc e7 ea a3 3b
       0.008026017 -0.004665087 -0.008478962 0.005002368
000300 57 16 9f 3b f8 82 7e bb 67 15 49 bb 15 f8 cd bb
       0.004854958 -0.0038835388 -0.0030682923 -0.006285677
000310 26 39 a8 b9 f9 d9 3a bb 32 bc 56 3b c3 6f 96 b9
       -0.00032086036 -0.002851127 0.0032765982 -0.00028693498
000320 d8 9b 29 bc 80 be 5c bb bc cf 5e 38 cc f3 6e bb
       -0.010352097 -0.0033682883 5.3122392e-05 -0.0036461232
000330 06 cd 12 3b 0e ca 42 ba d6 29 e1 3b 1e 56 1d 3b
       0.0022400036 -0.0007430621 0.0068714423 0.0024007629
000340 a4 18 91 3b 02 c1 36 ba 8e e9 e6 3b 91 b1 57 bc
       0.004427986 -0.00069715094 0.007046885 -0.013164894
000350 58 d7 c3 ba 68 0b c0 ba 30 9b d9 3a 17 24 cf bb
       -0.0014941497 -0.0014651837 0.0016602036 -0.006321441
000360 ce f6 7a 3a e8 7f 87 bb 6e 7e 0e 3c c0 d2 e9 ba
       0.000957352 -0.0041351207 0.008697135 -0.0017839298
000370 8f b8 3d bb 55 55 0d bc e3 e5 27 bc 58 b4 92 3a
       -0.0028949117 -0.008626302 -0.01024768 0.0011192663
000380 71 54 45 bb ee 03 ba bb 4e 2b 27 3b 4d 5d 00 3c
       -0.0030110145 -0.005676738 0.002550799 0.007834745
000390 84 db ce bb 36 6d 77 3c 14 0a b4 3b 24 4e 23 bc
       -0.0063127894 0.0151017215 0.0054943655 -0.009967361
0003a0 fc cd b0 bb 13 99 1e bb 4e 37 c1 39 ef 3a 22 3c
       -0.005395649 -0.0024200126 0.00036853034 0.009901746
0003b0 d2 c2 9d bb 41 93 10 bb 5e 9a 31 3a 80 ee af 39
       -0.004814484 -0.0022060426 0.00067750167 0.00033556297
0003c0 15 22 eb bb 21 64 fc 3b 27 38 11 bb 91 c1 67 bb
       -0.0071756938 0.007702366 -0.0022158714 -0.0035363177
0003d0 f6 89 45 39 8b d4 a5 3b d9 d7 5a bb 43 d7 b6 bb
       0.00018838778 0.0050607375 -0.0033392815 -0.0055798604
0003e0 f6 c2 63 3b 7f f6 9a 3b 56 76 44 3b fc fa a0 3b
       0.0034753657 0.0047290917 0.002997776 0.004912732
0003f0 4b b7 ff 39 4d 7a 56 3a b7 83 9b 3b b8 84 92 3b
       0.00048773954 0.00081816764 0.0047459262 0.0044713877

cls_head.weight f4 [7, 2304]
000000 14 8a 3b 3d f8 72 2e be 20 5b 39 be 59 69 2e 3d
       0.04578598 -0.17036045 -0.18101168 0.042580936
000010 91 ce 3f bb 2e 1b 6b 3b b0 34 dc ba e7 d6 34 3e
       -0.002926741 0.0035874355 -0.001680037 0.17660104
000020 25 8f c1 3b 75 37 2a 3d e1 1d ee bc ad ac 78 bd
       0.0059069567 0.041556794 -0.029066982 -0.06071155
000030 80 d9 ac bd 56 a1 da bd 67 93 7a 3d 45 34 12 bd
       -0.08439922 -0.10675304 0.06117573 -0.03569438
000040 f5 83 09 bd c4 85 b5 3d fd dd 76 3e b3 66 0e bd
       -0.03357311 0.088634044 0.2410812 -0.03476591
000050 a8 f2 bb 3d 2b df c6 3d 5e cb d7 3d 38 a5 e6 3b
       0.091771424 0.09710535 0.10536836 0.0070387386
000060 8e 91 71 be 11 d1 2a bc d8 ec 58 3e ce 58 f1 3d
       -0.23590681 -0.010425822 0.21184099 0.11784516
000070 f2 8e e9 3d 43 c3 6a bd 82 e0 11 be fd 52 97 3c
       0.11404218 -0.057315122 -0.14245799 0.01847219
000080 ca 27 8c bd a1 44 61 3e b5 91 ae bb 58 e6 02 be
       -0.06843527 0.21998836 -0.005327428 -0.12783182
000090 7c 0c 43 ba 4b a6 4e 3e 47 6e 63 3e 71 ff 8f bd
       -0.000744052 0.20180623 0.22210036 -0.070311435
0000a0 a1 d9 40 bc 45 c7 c3 bd dd bd e1 3d 6f 9e 55 3d
       -0.011770637 -0.09559492 0.11022542 0.052153047
0000b0 bf 79 53 bd 6e f1 db bd 86 c6 99 bd a5 61 7f 3d
       -0.051629778 -0.107394084 -0.075085685 0.06234898
0000c0 93 d2 b7 3d 6a 26 14 be e5 a2 65 bd 4c 8d 7a 3d
       0.08975711 -0.14467779 -0.05606355 0.061169907
0000d0 8f 84 83 3d 37 9a 7a bc 99 bf bb bd 7f c1 b0 3d
       0.06421768 -0.015295557 -0.09167404 0.086306565
0000e0 49 ac 80 be 7c 3e 01 3e 8a 48 40 3e 8b 84 86 3d
       -0.25131443 0.12621492 0.18777671 0.06568249
0000f0 6d 1e 51 bd dd e3 55 3e 8d fd 70 3d 77 96 a9 3d
       -0.051054407 0.20887704 0.058835555 0.08280652
000100 cb 74 a0 3d f0 fc 98 bd 7c a8 52 bd bd d4 89 bd
       0.078347765 -0.07470119 -0.05143021 -0.0673003
000110 d0 fd 75 bd 78 5c 22 3d 71 2d 60 3c d7 32 d6 3b
       -0.060056508 0.039638966 0.013682709 0.0065368223
000120 1c a8 a7 3d 72 99 e6 3b ad 5c d1 bd b9 4f 6f 3b
       0.08186361 0.007037335 -0.102227546 0.0036516024
000130 19 84 b9 3c d6 a4 c5 3d b9 02 b7 bd 7a 18 f4 bd
       0.022645997 0.096505806 -0.08936066 -0.11918731
000140 87 0a 81 be 8d 4a 80 be ae 1b 7b be f2 f1 39 bd
       -0.25203344 -0.25056878 -0.24522278 -0.045396753
000150 74 62 1a be aa 70 77 bd 1f a7 df bd 3a 72 8e bc
       -0.1507662 -0.06041018 -0.10920548 -0.017388452
000160 ed 6f 88 3c 4e f2 73 3d ae 2a b7 3d c7 95 5f be
       0.016654933 0.05955725 0.089436874 -0.2183448
000170 fb 04 23 be fc 94 7b 3e cf b6 5b 3e 8d 58 8d 3d
       -0.15919869 0.24568552 0.21456455 0.06901655
000180 d3 44 f0 bc 9a 3b 17 be b9 ce 62 bd 09 d1 47 3e
       -0.029329693 -0.1476883 -0.055372927 0.19513334
000190 6b a6 36 3d c6 f5 d7 bc 68 ac 33 bc 2b f5 e3 bc
       0.044592302 -0.026362311 -0.010966398 -0.027826866
0001a0 cf 0c 8b 3d a7 81 07 3d 0c 14 d9 3d a8 c7 9b 3d
       0.067895524 0.03308263 0.10599527 0.07606441
0001b0 a6 81 c6 3b 20 3d 0f 3e ec bd 97 bb 71 c1 15 bc
       0.0060579358 0.13988161 -0.0046307947 -0.009140358
0001c0 8d 51 31 3b da 9a 56 3d b3 7f 22 3d 91 24 ae bd
       0.0027056665 0.05239377 0.039672565 -0.08503068
0001d0 95 f0 e7 bd 60 9a 06 3e ba ac dc 3c 2d 46 e6 bc
       -0.11325184 0.13144827 0.026937831 -0.028109634
0001e0 1d 29 3d 3d ef 1d 8c 3d df bc bd 3d 34 58 93 be
       0.046181787 0.06841647 0.0926454 -0.2877823
0001f0 52 25 49 3d e1 86 d0 3d 79 fb 9d bd 5f 37 8f 3d
       0.049107857 0.10181976 -0.0771398 0.06992983
000200 2c 84 57 3d 01 1e f3 3c 16 b8 e7 bc b6 8f bb 3d
       0.052616283 0.029677393 -0.028286021 0.0915827
000210 6b d7 fc bc 6c 26 f7 3d 43 a6 e1 3d b1 9c 29 be
       -0.030864438 0.12067875 0.1101804 -0.1656368
000220 ef 26 f2 3d 3c cc 2b bd 41 1f 80 3d 04 1a 32 bd
       0.11823832 -0.04194282 0.06255961 -0.04348184
000230 19 2b 84 bd a5 7c 58 3c ca 14 a0 bd 29 04 f5 bd
       -0.06453533 0.013213311 -0.07816465 -0.11963684
000240 e8 a5 ea bc db 25 ce 3d 76 14 94 3d e9 27 04 be
       -0.028643563 0.10065814 0.07230465 -0.1290585
000250 7e f0 76 bd f4 2b 76 3d e1 d9 22 bc 12 a4 01 3d
       -0.060287945 0.06010051 -0.009939642 0.03165061
000260 cc 53 0a be ae a8 fa bd 80 51 ab bd 61 fa b4 3d
       -0.13508528 -0.12239204 -0.08365154 0.088368185
000270 e4 a6 40 3d 00 80 91 3b 50 e4 95 bd 16 10 dc bd
       0.04703416 0.0044403076 -0.07318938 -0.10745256
000280 45 c8 a2 be 1d c0 83 3c 60 0b 2b 3c 23 db f7 3d
       -0.3179342 0.016082818 0.010439724 0.12102344
000290 c2 1a a7 3c ac 70 00 3e 86 cd d2 bc 91 35 78 3c
       0.020398501 0.12542981 -0.025732767 0.01514949
0002a0 9e df 6d bd 6c 8f a3 bd 67 24 a8 bc bc b1 14 3d
       -0.058074586 -0.0798634 -0.02052517 0.036302313
0002b0 00 86 40 3e 27 45 7a bd 6d 38 e2 bd 37 96 e7 3c
       0.18801117 -0.061101105 -0.110459186 0.02826987
0002c0 e7 a6 5e be c3 f6 76 3e 44 00 1f bc 46 1d 03 be
       -0.21743356 0.2411757 -0.009704653 -0.12804136
0002d0 5c 54 82 bd eb e2 14 3d ca 71 15 bd b9 7f 7d bd
       -0.063637465 0.03634922 -0.03648547 -0.061889384
0002e0 b4 8a 61 bc 11 45 65 3d 69 37 25 3e a7 75 cc bd
       -0.01376598 0.05597407 0.16134419 -0.09983378
0002f0 6b 7b a1 bd 57 da 5e 3e 56 fe 5d be e8 b8 f7 bc
       -0.07884868 0.21762978 -0.21679053 -0.030239537
000300 e0 3c d2 bd 63 a6 23 3d 06 2b df 3d aa 03 15 be
       -0.10265517 0.0399536 0.10896878 -0.14552179
000310 a0 8b 27 bd 61 07 99 3c ff 3c e3 bd 68 fd e6 bb
       -0.04090464 0.018680276 -0.110956185 -0.0070492513
000320 25 48 17 3e 7a 4e 99 bd 3b a6 f4 3d 81 47 ce bc
       0.14773615 -0.07485671 0.119457684 -0.02518058
000330 6f 6b ad bd 9a 6f 19 3e d8 fd 9f bc a3 8f d2 bd
       -0.08467757 0.14983979 -0.019530222 -0.10281303
000340 92 47 38 bd a6 42 70 3e 14 ea 3e be 6b c7 5a 3e
       -0.04499013 0.23462924 -0.18643981 0.21365134
000350 fa b5 6a be 30 0d bd bc d7 06 42 3e 68 09 b2 3d
       -0.22920981 -0.023077577 0.18947922 0.086932
000360 6d f0 2c 3b 4a e9 7b 3d f4 fc 44 bd 6b 98 97 be
       0.0026388422 0.06150178 -0.048092797 -0.29608473
000370 eb 6d 28 3e 2a 48 fe bc 81 a0 5d 3d b1 67 ce bd
       0.1644818 -0.03104027 0.054108147 -0.10078371
000380 ff 8c 83 be 82 70 07 be 54 40 9d bc 84 63 a4 3d
       -0.2569351 -0.13226512 -0.019195713 0.080267936
000390 60 aa 7f 3c 7c 7d 3b 3d f4 f1 e1 3d 14 74 c0 3d
       0.015604585 0.045773968 0.11032477 0.0939714
0003a0 c0 e7 38 3d a5 39 12 bb 2b c0 f7 3c 89 4a 27 bd
       0.04514289 -0.002231219 0.030243 -0.040842567
0003b0 6a 29 ec 3d 11 df ad 3d e8 61 34 3e ee 0b f2 3c
       0.115313366 0.08489812 0.17615473 0.029546704
0003c0 40 9d c3 bd 4b f5 44 be 9f 93 55 bc 3c 78 b1 3d
       -0.095514774 -0.19234197 -0.013035684 0.08665511
0003d0 02 50 2a 3e 3c a5 8e 3d 2d c8 ad 3d 1d 00 9c 3d
       0.16632083 0.0696511 0.08485446 0.07617209
0003e0 21 16 20 be a9 e3 96 bd 32 de 29 3d fd c5 6f 3d
       -0.15633442 -0.073676415 0.041471668 0.058538426
0003f0 76 67 99 3d f8 ea 6f 3d 52 3b e8 3d 7d e0 62 3e
       0.07490437 0.058573693 0.113394395 0.22155948

cls_head.bias f4 [7]
000000 c2 a2 35 bc c0 c1 1f bd 39 3a 98 bc ff 49 b3 3c
       -0.011086168 -0.039003134 -0.01858245 0.02188587
000010 30 9c 04 bc 9e 64 94 3c 79 fd e0 3b
       -0.008093879 0.018114384 0.006866154
