src/facexpr/cGen+cDis/Version 1.7Final/weight/disc_ep180.pth (torch, 247605 bytes, 17 tensors)

conv.0.weight f4 [16, 1, 4, 4]
000000 25 6b 73 3e 53 f6 8a 3e 0a 79 6c 3e de 3f e9 bd
       0.23771341 0.27141055 0.23093048 -0.11389135
000010 21 5c 96 bd 40 fb 32 be 2a b7 06 bd ca 3c 35 3c
       -0.07341791 -0.17478657 -0.032889523 0.0110618565
000020 da 4a 98 bd 52 21 9a 3c 7e 99 37 bd 0b d4 12 bd
       -0.07436152 0.018814716 -0.044824116 -0.03584675
000030 47 c7 81 be b9 15 77 bd cd 33 84 3d c3 fb ca bd
       -0.2534735 -0.06032345 0.06455193 -0.09911301
000040 dc de 1c 3e 84 d1 53 be 06 2f 5a be 81 3c 82 be
       0.15319389 -0.20685393 -0.21307 -0.25436786
000050 ae b9 81 be ec 9f 96 3e 6f 85 1f 3e f1 79 72 3e
       -0.25336975 0.29418886 0.15578245 0.2367933
000060 e9 cc 23 3e 4b 09 cf 3d 8c cf 51 bd 50 7b 4d 3e
       0.15996136 0.10109194 -0.051223323 0.20066571
000070 8b 08 ca 3c 90 f3 db bd cb ba 1d be f2 75 aa bd
       0.024662277 -0.10739815 -0.15403287 -0.083232775
000080 6d c4 56 be 0f cb d8 3d 00 7a eb 3c ff a8 b5 3d
       -0.20973368 0.10585605 0.028744698 0.08870124
000090 3f 99 17 be 0f 19 05 be 6f 4e 0d bd e8 97 0f 3e
       -0.14804552 -0.1299784 -0.03449863 0.14022791
0000a0 a2 86 1d 3d b6 9e 30 3d 27 df 85 3d bb 2b 0e 3e
       0.038458474 0.04312011 0.065367036 0.1388387
0000b0 57 bd 18 bc 6c e1 f4 3d a9 61 d2 3b d5 1f 05 3d
       -0.009322486 0.11957058 0.0064203334 0.03250106
0000c0 dd ec 56 3d bd 9d 2f 3e d3 cd 66 3d 65 ab 93 bb
       0.052471984 0.17150016 0.056348633 -0.004506516
0000d0 95 7c b7 3e df 39 44 be 24 62 84 be 19 24 17 3c
       0.35837236 -0.19162701 -0.25856125 0.009224915
0000e0 75 bf 43 be 9f 46 da be 08 4a 05 3e e6 6a aa bd
       -0.19116004 -0.42632005 0.13016522 -0.083211705
0000f0 fd 3e d0 bc 1d bf 07 3e d8 17 55 3e fa b2 79 3d
       -0.02542066 0.13256498 0.20809877 0.0609617
000100 33 83 96 3d 35 a1 be 3c 63 4b 01 be b6 94 00 3d
       0.07349243 0.023270229 -0.12626414 0.03139182
000110 36 15 7e 3c dc f6 00 3e ad 9b 4c bb 2f 45 24 bc
       0.015507987 0.1259417 -0.003122072 -0.01002626
000120 3a 8f 6b 3e 88 29 b8 3d 2f 9b 82 be 57 27 f2 bd
       0.23003855 0.089922965 -0.2550902 -0.1182391
000130 4b e4 40 3e f3 09 77 be f7 e9 4a be ff 05 31 3e
       0.18837087 -0.24124889 -0.19815813 0.17287444
000140 e0 be fa bc b2 5e 02 be da 02 8f 3d bb a2 24 3e
       -0.030608594 -0.12731436 0.06982966 0.16077702
000150 11 4e 21 3e 06 c3 15 3d 34 77 bf bc f1 42 95 3e
       0.15752436 0.036562942 -0.02337227 0.29152635
000160 0e 84 80 be b7 09 53 be c4 86 a0 bd 8d e9 d3 3d
       -0.2510075 -0.20609175 -0.078382045 0.10347281
000170 0a 99 62 3e cb 54 6c be 2a 73 c7 bd 85 6e 16 bd
       0.22128692 -0.23079221 -0.09738763 -0.036726493
000180 2c 4e b2 3d 9e 9f bc 3d ad f4 14 be e2 77 0c 3e
       0.08706316 0.09210132 -0.14546461 0.13717607
000190 62 92 38 bd 18 78 0f bd ab 8e 43 be 78 b5 27 3e
       -0.045061477 -0.03502664 -0.19097392 0.16377819
0001a0 0d 93 60 bd 29 bf c8 3d 41 ac d0 3c e5 5f 34 3d
       -0.05482774 0.09802086 0.025472762 0.044036765
0001b0 02 cc e9 bd 0e 49 38 3e 0c 51 36 be 2c 57 26 be
       -0.114158645 0.17996618 -0.17804354 -0.16244191
0001c0 b1 bd 86 3c f5 47 ff 3b f6 65 36 be 4d 1f 2f bc
       0.016447874 0.0077905604 -0.17812333 -0.010688615
0001d0 06 db 8d 3e 34 1d 20 be 16 27 8e be 2e db c2 ba
       0.27706164 -0.1563614 -0.27764195 -0.0014866346
0001e0 03 a5 6b 3e e2 36 35 3e 29 25 9a bc 58 35 8f be
       0.23012166 0.17696717 -0.018816547 -0.27970386
0001f0 f7 36 c3 3d 91 8c 35 3e f4 a1 7f bd 1d be 99 3c
       0.09531968 0.17729403 -0.06241031 0.01876741
000200 e2 f9 d7 3c d4 5d 14 3d 61 60 80 3e ea 4b 20 be
       0.02636427 0.036222294 0.2507353 -0.15653959
000210 06 c7 cf 3d 79 c5 9d bd c2 33 cf 3d 6c 7e 6a be
       0.101453826 -0.077036805 0.10117294 -0.22899789
000220 62 2e 3f be b4 1a 1f 3e 1b f0 57 3e 5a 7f b7 3d
       -0.18670037 0.1553753 0.21087687 0.08959837
000230 ba 74 3c bc 09 19 f8 3d d0 28 3f 3e d7 ae 9c 3c
       -0.011502439 0.1211415 0.18667912 0.019126339
000240 0c a1 83 3c 69 07 98 3d cd 32 bf bd 81 4e be bd
       0.016068004 0.074232884 -0.09335861 -0.09292317
000250 a6 ed 01 bc 3b 5a 46 be bf 73 54 be 5f f5 9e be
       -0.007930195 -0.19370358 -0.20747279 -0.31046578
000260 82 af b3 bd 44 33 d5 3d 06 b9 17 3e e9 c0 bc 3d
       -0.0877371 0.10410169 0.14816675 0.09216482
000270 5e 8d 95 3d ac ca 91 3d 63 89 77 3e 3d 7d 2c 3e
       0.07302354 0.07118735 0.24173503 0.1684465
000280 f5 66 43 3e 2d 86 42 3e da 41 39 be 67 f0 99 be
       0.19082244 0.18996496 -0.18091527 -0.30066225
000290 5d fb 5e be 8e 7a 9e bc 92 7a 90 be e6 79 89 bd
       -0.21775575 -0.019345548 -0.28218514 -0.067127034
0002a0 82 a2 3e 3e da e8 9b 3d 15 f9 37 3e f7 03 86 be
       0.1861668 0.07612772 0.17966111 -0.261749
0002b0 a1 46 a6 3c 8f 43 0f 3e a3 5c e1 3d 0b 2b 55 3e
       0.02029735 0.13990615 0.11003997 0.20817201
0002c0 bd fc 5e 3c 54 da 24 3d b8 7c ff 3d c3 53 30 be
       0.013610062 0.040247276 0.1247496 -0.17219453
0002d0 20 42 a8 3d 37 f0 3d 3e f1 7b af 3c 7f af a5 3a
       0.08215737 0.18548666 0.021421405 0.0012640803
0002e0 d1 3b eb 3d 89 c7 89 3e cf eb a0 bd 53 53 50 be
       0.114860184 0.26910046 -0.07857477 -0.20344286
0002f0 34 8f 13 bd bc 28 d6 3d df ca 66 be df b3 76 be
       -0.03602524 0.10456988 -0.22538327 -0.24092053
000300 c2 e6 d5 bd 88 18 85 be 5c 8b a0 be e7 5b b0 3c
       -0.10444404 -0.25995278 -0.31356323 0.021528197
000310 28 57 4e be f7 a6 82 3b ce 44 7b 3e 99 bc f5 bc
       -0.20150435 0.003987189 0.24537966 -0.029997157
000320 fa 5d 12 3e 00 73 55 3e e4 15 4c 3e ad e7 af 3d
       0.14293662 0.2084465 0.19930226 0.085891105
000330 28 a8 c7 bd a6 fa bb 3d 43 83 b7 bc 74 fc 06 3d
       -0.0974887 0.09178667 -0.022401458 0.0329556
000340 27 c2 fb bd 9c e3 1b bd fd 5b ec bd c3 da cf bc
       -0.12292891 -0.038058862 -0.11540983 -0.025372868
000350 f7 07 94 3d 2b 40 39 be c6 9d 20 3d 71 13 0e be
       0.07228082 -0.18090884 0.039212964 -0.13874604
000360 18 26 c9 3c 8d 19 0f bc 77 a2 8e ba 23 ad 09 bd
       0.024554297 -0.008734119 -0.0010882159 -0.03361238
000370 81 15 88 3d 9e 59 42 3d 1b 8e 96 3d 37 ad c7 bd
       0.066447265 0.047448747 0.07351323 -0.09749835
000380 71 2f 08 bd 17 b7 1d bd a8 54 3b bd 59 cb 44 3c
       -0.03324837 -0.038504686 -0.04573503 0.0120113725
000390 d2 c5 1a bd 22 36 f4 3d be 09 cc bd 30 22 87 bd
       -0.037786312 0.119243875 -0.09962796 -0.065983176
0003a0 97 86 c1 3d 8c a5 23 be a8 d7 28 bc ae 80 d2 bd
       0.09449499 -0.1598112 -0.010305323 -0.1027845
0003b0 ac f9 dc bd 33 41 17 3d 61 5d 94 bd 30 ad 52 3e
       -0.10789809 0.036927413 -0.07244373 0.20573878
0003c0 f7 f4 77 3d c6 45 96 3d 18 5c 32 3d 93 00 37 bd
       0.06053635 0.07337527 0.04354486 -0.044678282
0003d0 e3 ed 03 3e d5 3a d2 3d 46 ac 19 3e eb 9f 13 3e
       0.12883715 0.102651276 0.15007123 0.14416473
0003e0 05 7c 1e 3c a4 4c a3 bb 9e 3f 59 bd 09 e4 fa bd
       0.009673123 -0.0049835015 -0.053039186 -0.122505255
0003f0 42 71 0c be af 98 05 be fa 80 2b bd 4c 57 e0 3c
       -0.1371508 -0.13046525 -0.04187105 0.027385376

conv.0.bias f4 [16]
000000 15 2a ca bd ab b6 b7 b8 c0 19 f1 3d 65 3d ab bb
       -0.09871308 -8.7601446e-05 0.117724895 -0.0052258247
000010 03 0b d9 bb e8 72 75 bd 4e 42 80 3d d1 8b bd bc
       -0.006623627 -0.059924036 0.062626466 -0.023137959
000020 92 f5 a2 be 9b a9 83 3a ac 79 5d be 00 cf 5c 37
       -0.3182798 0.0010045053 -0.21628445 1.3161218e-05
000030 ea 91 a8 bb 58 de 6d bd fd 0f 90 3d e8 bd ed 3d
       -0.0051443474 -0.05807337 0.070342995 0.11608487

conv.2.weight f4 [32, 16, 4, 4]
000000 5f 8d 45 bd 2c 6c 92 bd 19 fb fa bd 8d 2c da 3b
       -0.048230525 -0.071495384 -0.12254924 0.006658143
000010 dc 3d 69 bd a6 ef 1a be b0 39 d7 bd 2d 06 e3 bd
       -0.05694376 -0.15130481 -0.1050905 -0.11085162
000020 54 43 6c bd e1 23 d0 bd 4c 74 1f bd 10 8c 9a bd
       -0.057681397 -0.10163093 -0.03892927 -0.07546246
000030 de 4c 84 3d d6 33 08 bd a4 9e d2 bd 28 d0 0f bd
       0.06459974 -0.03325256 -0.102841645 -0.035110623
000040 b0 dd a5 bd 3d 55 e7 bc f8 65 7e 3d c8 b7 ed 3c
       -0.08098924 -0.028238887 0.062108964 0.029018298
000050 6e 8d 60 bd 67 e2 d8 bc 6a 2c a4 bb 43 23 bb 3d
       -0.054822378 -0.026475145 -0.0050101774 0.09137585
000060 96 d3 16 bd 6f 14 1c 3d 84 69 14 3d ad fe 94 3d
       -0.036822878 0.038105424 0.03623344 0.07275138
000070 fb 0a 78 bc 63 d7 71 3d 60 33 43 bb 6b 68 f7 3c
       -0.015139337 0.0590433 -0.002978526 0.030201158
000080 ec e7 56 3d 48 51 9e bc 5f f8 e0 3c 21 c4 75 bd
       0.05246727 -0.019325867 0.027462183 -0.060001496
000090 93 ed 29 3d 59 5e 94 3d e4 1b ea 3c e4 b6 28 3d
       0.041486334 0.07244558 0.028577752 0.041190043
0000a0 bf 94 bd bc b4 eb b8 bb 6a 65 d0 bc 36 e3 cd 3c
       -0.023142217 -0.0056433324 -0.025438983 0.025132757
0000b0 ce 62 d6 bd 05 b9 3e bd 0c 2e a2 bb de 78 3d bd
       -0.10468064 -0.046563167 -0.004949337 -0.046257846
0000c0 7b b8 69 3d 18 78 89 3d 13 cb 95 3d 87 ca 95 3d
       0.0570607 0.06712359 0.07314124 0.0731402
0000d0 83 8a 4a 3d 3a 83 f1 3d b0 9b 7f 3d b0 2a f1 3d
       0.0494485 0.117926076 0.062404335 0.1177572
0000e0 ce 31 c2 3c 53 ce e6 3d c0 58 51 3d 00 6e 0d 3d
       0.02370539 0.11269822 0.05111003 0.034528732
0000f0 b2 05 79 3d 0a 78 04 3e 64 8f 9f 3d 23 9c 6b 3d
       0.060796447 0.12936416 0.077910215 0.05752195
000100 b7 ce d8 3c 99 85 73 bd e3 52 9a bc 71 23 de ba
       0.026465757 -0.05945358 -0.018838352 -0.0016947818
000110 39 4a 80 bb 0f f8 e8 3b 3c 7f 93 3c 02 04 b0 3c
       -0.003915098 0.007109649 0.018005006 0.021486286
000120 83 a2 be 3d b0 7c ba 3c e8 19 c2 3d 48 60 85 3c
       0.093083404 0.022764534 0.094775975 0.016281262
000130 d2 3d 78 3d 74 eb c2 3c 36 80 19 3d c5 c7 43 3d
       0.06060583 0.023793913 0.037475787 0.047797937
000140 4b 76 80 bd 31 8e 88 bd c3 96 ca bd 00 47 02 be
       -0.062725626 -0.06667746 -0.09892037 -0.12722397
000150 99 10 ea bb 88 a0 cd bd 02 52 fc bd f9 4e 42 bd
       -0.007143092 -0.100403845 -0.12320329 -0.047438595
000160 d6 30 a0 3b 28 7c 0a be 4b e1 b6 bc 58 56 13 bd
       0.004888634 -0.13523924 -0.022324225 -0.035971016
000170 1c 39 33 be d1 e4 91 bd ec 2c d4 bc d0 23 27 bb
       -0.17502254 -0.071237214 -0.025900327 -0.0025503524
000180 71 5a 7c 3d 1a 28 8c 3c f7 67 9d bc 38 0a 0f 3c
       0.06160969 0.017108966 -0.019214613 0.008730464
000190 cd 4f 37 bd e1 8c e1 bc 75 64 8d 3d d0 d0 94 3d
       -0.04475384 -0.027532997 0.06903926 0.0726639
0001a0 86 74 83 3c 55 f9 96 3d bb b5 02 3c 82 c2 e6 bc
       0.016046774 0.07371775 0.007977898 -0.02816892
0001b0 9e 1f 92 bd e0 fe 01 3e b8 e3 d4 3d 2a 47 6b 3d
       -0.07134937 0.12694883 0.103949964 0.057440914
0001c0 16 97 91 bd 25 df 70 bd 12 f3 e3 bc 75 51 af bd
       -0.071088955 -0.058806557 -0.027825866 -0.085604586
0001d0 5c f3 cb bb be 94 7e bd 7c 44 55 bd 8c 1c 88 bb
       -0.006224079 -0.06215357 -0.052067265 -0.0041537937
0001e0 61 c7 a9 bd e8 72 89 bd 85 1e 09 3d 18 03 f6 b7
       -0.08289982 -0.0671137 0.03347637 -2.9326926e-05
0001f0 be ae 2c be e3 0c ad bd b9 b3 9b bd 69 80 e3 bc
       -0.16863534 -0.084497236 -0.07602639 -0.027771192
000200 08 fb 13 3d 35 dc b9 3b e1 e2 d9 3c b7 08 a7 bd
       0.036128074 0.0056720027 0.026597442 -0.08155959
000210 37 81 c7 3d 28 9f ef 3c 4c 80 a9 3c 60 13 2e 3d
       0.09741443 0.029250696 0.02069106 0.042498946
000220 80 43 8c 3c 79 fa ef bc 43 a8 45 3d a3 2f 08 3d
       0.01712203 -0.02929424 0.04825617 0.033248555
000230 54 fe 48 bb f6 63 12 bc 13 e7 24 bd 37 57 00 bb
       -0.003066917 -0.008934965 -0.040259432 -0.0019583234
000240 31 b9 3c bd 9c ca 94 bc 3e 86 20 3d 0e a4 18 3d
       -0.04607505 -0.018163018 0.039190523 0.03726583
000250 2e 08 ea bd c5 1d 8d bd c0 62 e1 bb 7b 05 0a 3d
       -0.114273414 -0.06890444 -0.006878227 0.033696633
000260 a8 04 89 bd de b6 96 3d de e8 6d 3d d1 ad f2 3c
       -0.06690341 0.07359098 0.058083408 0.029623898
000270 f5 c1 20 bd 7d 92 59 3d 5f 71 24 3e b5 70 13 3d
       -0.03924747 0.053118218 0.16058873 0.035996158
000280 d7 03 0a bd fe e3 6c bd b9 76 e1 bc 05 fd 74 bc
       -0.03369507 -0.057834618 -0.027522432 -0.014952903
000290 13 5a 90 3c 5d 54 30 3c f9 fc d0 bd fd ad cb bc
       0.017621076 0.010762301 -0.10204501 -0.024863238
0002a0 32 6b 9a bd a7 bf 28 bd ee 0a ad bc 00 14 47 3d
       -0.07539977 -0.0411984 -0.021123376 0.048603058
0002b0 80 d0 52 bd f5 f4 9c 3d ec 2e 0c 3d d8 51 e2 bc
       -0.051468372 0.07663909 0.034224436 -0.027626917
0002c0 1e 6e e5 3b 9a 2d a8 bc 2c 5d a9 bd 4a ca 58 bc
       0.0070016524 -0.020529557 -0.08269724 -0.013231823
0002d0 51 7e 32 3d 56 43 48 3d 9e 71 e0 3c 10 ee 4a bd
       0.043577496 0.04889234 0.027397927 -0.04954344
0002e0 f4 56 42 3d d5 a8 38 3c 6a 0c 9b bd a9 7d 34 3d
       0.047446206 0.011270721 -0.07570727 0.04406515
0002f0 51 2d 98 3d c7 96 83 3d 57 23 71 3d 2e a0 89 bc
       0.074305184 0.06425243 0.058871593 -0.016800012
000300 b1 c9 b8 bd 67 8b 3d 3d 00 89 81 3d 97 5a fa 3c
       -0.090228446 0.046275523 0.06324959 0.030560775
000310 71 63 96 bd 7c a5 81 3c fb 47 c4 3d d1 78 40 3d
       -0.07343186 0.01582598 0.09584042 0.04699022
000320 52 4d 7f 3b 37 9e d8 bc e6 a2 39 bd bc 7d fe bc
       0.0038955999 -0.02644263 -0.045321368 -0.031065814
000330 5d 76 5f 3d 2a 20 7a 3c d2 09 86 bc 11 36 cc bc
       0.05455624 0.015266458 -0.016362105 -0.024928125
000340 2b 12 83 3d 5d d6 34 bd b5 db 83 bd f8 ba a2 bc
       0.0639995 -0.044149745 -0.0643839 -0.019864544
000350 d9 b2 f1 bc 20 6c 48 bd 5e 1d 58 3c de 31 86 3d
       -0.029504227 -0.04893124 0.013190595 0.0655248
000360 b9 89 98 3c 44 46 be ba 2e 7d 4e 3d a9 66 ad 3d
       0.018620359 -0.001451679 0.05041235 0.084668465
000370 b2 61 96 3d 2a dd 16 bd 43 6f 8e 3a 9a ff 91 bd
       0.07342853 -0.036832012 0.0010866899 -0.0712883
000380 5c c4 88 3d c6 fd 83 bd db 56 06 3d e7 66 62 bd
       0.066780776 -0.06444888 0.032797676 -0.055273917
000390 2c 09 a1 bc 23 6f 95 3c d8 8e 82 bc 99 bc cb bc
       -0.019657694 0.01824147 -0.015937254 -0.024870204
0003a0 a3 17 7b bc 9d e1 9e 3d e1 ba c3 bd dd af cb bc
       -0.01532546 0.07757876 -0.09557129 -0.024864132
0003b0 a7 86 47 3d 07 d7 c6 bd a2 82 81 3c b2 7c 47 bd
       0.0487124 -0.09708982 0.01580936 -0.048702903
0003c0 34 a3 47 bd b0 1c 15 bc 67 fb 54 3d f9 a4 96 3d
       -0.048739627 -0.009101078 0.05199757 0.07355685
0003d0 19 61 52 bd cb f5 87 3d 3d e2 92 bd 6d 14 94 bd
       -0.05136213 0.06638678 -0.07172058 -0.072304584
0003e0 2f 90 0a bc ff 14 b4 bc bd 62 28 bc 69 39 90 bd
       -0.008457228 -0.021982668 -0.010277447 -0.070422
0003f0 41 23 8e bd 4c 94 90 3d e5 f8 8c bd b2 b1 64 bd
       -0.06940318 0.070595354 -0.0688341 -0.055833526

conv.2.bias f4 [32]
000000 77 79 78 3d 07 fe 97 3d 98 14 de 3d e7 c8 a7 bc
       0.060662713 0.07421499 0.10843772 -0.02048154
000010 1e 64 bb 3c 7b 38 4d 3c 75 09 82 bb 66 2b 05 3d
       0.022874888 0.012525673 -0.0039684125 0.03251209
000020 38 ce 05 3b 9f 32 48 3c de 9f 51 3c e7 e5 31 3e
       0.0020417105 0.0122191 0.012794463 0.17372857
000030 78 2a 71 bb c1 ac 21 3d fe e5 c6 3c 3c 98 7e 3a
       -0.0036798995 0.03947139 0.02427959 0.0009712016
000040 00 e0 83 ba a7 25 b1 bd e0 19 ec bc f6 06 9a b9
       -0.0010061264 -0.0864976 -0.028820932 -0.00029378355
000050 b7 50 8f 3c 83 0b 97 bc 1b 13 a4 bd e9 a5 9c 3c
       0.017494543 -0.018438106 -0.080114566 0.01912208
000060 58 cb 1c bd 57 95 1b 3c cb 80 62 3d 83 87 78 bd
       -0.03827986 0.009496055 0.055298608 -0.06067611
000070 3e 40 42 3d c2 f7 7e bd 1b fe 0b bc db 32 9a 3c
       0.047424547 -0.062248 -0.00854447 0.018823078

conv.3.weight f4 [32]
000000 72 fb 76 3f 67 74 72 3f 7e 0d 81 3f 19 77 89 3f
       0.96477425 0.94708866 1.0082242 1.0739471
000010 5f c7 80 3f ef fd 61 3f 8d 05 8c 3f 79 6c 7a 3f
       1.0060843 0.88278097 1.0939194 0.97821766
000020 20 0e 87 3f 4a 8a 97 3f 12 56 83 3f 6d 94 6c 3f
       1.0551186 1.1839077 1.0260642 0.9241398
000030 74 e7 74 3f db b8 80 3f b8 e0 6b 3f 00 b2 6a 3f
       0.9566567 1.0056413 0.9213977 0.91677856
000040 93 96 8d 3f e8 8d 8f 3f 04 1b 88 3f 94 3f 6c 3f
       1.1061577 1.1215181 1.0633245 0.9228451
000050 2e f4 5f 3f de d0 8d 3f 26 18 65 3f 0a ea 7f 3f
       0.87481964 1.1079366 0.8948997 0.9996649
000060 6c 26 6a 3f e4 88 58 3f dd bf 72 3f 41 7e 6d 3f
       0.9146488 0.8458388 0.9482401 0.92770773
000070 96 81 70 3f e0 3d 76 3f 44 0a 45 3f 69 d0 80 3f
       0.9394773 0.96188164 0.7696879 1.0063602

conv.3.bias f4 [32]
000000 38 d0 fb bd fa 0e a1 be a5 f3 4e be da e4 96 be
       -0.12295574 -0.3145674 -0.2021013 -0.29471475
000010 5c f1 86 be ba 04 37 be 0d 3d 25 be 61 6d 99 be
       -0.26356018 -0.17872897 -0.1613657 -0.29966262
000020 81 28 ed bd 25 bd 85 be 69 a5 85 be 13 2b 0d be
       -0.11579991 -0.26120868 -0.2610276 -0.13785963
000030 50 41 83 be ed 3a 31 be c4 54 7e be a6 bf 4a be
       -0.25635767 -0.17307635 -0.24837023 -0.1979967
000040 6d ab 7f be ef cd 3d be 84 78 fa bd cb 9f 21 be
       -0.24967737 -0.18535589 -0.12230018 -0.15783612
000050 79 3d 43 be 0c 97 3b be d2 b9 58 be a8 32 05 be
       -0.19066419 -0.18319339 -0.21164635 -0.13007605
000060 c7 48 e2 bd 25 e9 82 bd e9 1f 47 be 7c fe 82 be
       -0.110490374 -0.06392125 -0.19445767 -0.2558478
000070 a0 42 a1 be 16 b5 2b be f2 04 8a b9 df 07 90 bd
       -0.31496143 -0.16768298 -0.00026325096 -0.07032751

conv.3.running_mean f4 [32]
000000 56 4b 3a 3d 24 1e 0e 3e 0a 61 05 3e b0 17 e2 bd
       0.045482002 0.13878685 0.13025299 -0.11039674
000010 e3 9e 1a bd 11 b2 56 3d c0 fc 39 be eb 36 28 3d
       -0.037749182 0.05241591 -0.18162823 0.041068
000020 4a 25 b3 bd b2 78 03 be 51 e8 c8 bc 44 1a 5e 3e
       -0.08747347 -0.1283901 -0.02452484 0.21689707
000030 c2 84 da 3d a3 fe 94 3d d7 0f 17 3d c5 e0 98 bc
       0.10669853 0.072751306 0.03688034 -0.018661866
000040 78 97 a2 bc 37 15 6b be 2e 78 3a be 61 27 06 3d
       -0.019847617 -0.22957312 -0.18209907 0.0327524
000050 80 1c 8a bd 76 f4 d5 bc 9f 63 0f bd 03 f1 40 3c
       -0.06743717 -0.026117545 -0.035007115 0.011776212
000060 17 65 b4 bd 3b 84 36 be 02 19 52 bd 43 d6 a6 bd
       -0.08808344 -0.1782388 -0.05129338 -0.08146336
000070 7e a4 b6 3c a0 39 bf bd 68 c7 28 ba ff f6 84 bd
       0.022295233 -0.09337163 -0.0006438405 -0.06492423

conv.3.running_var f4 [32]
000000 75 6b 97 3b c6 18 0b 3c 06 eb f3 3b 1b 47 0c 3c
       0.004620964 0.008489793 0.0074437885 0.008561875
000010 a7 0a a0 3b 42 d6 0e 3c 1f af e0 3b 79 b6 06 3c
       0.0048840824 0.008718075 0.0068568136 0.008222216
000020 be a5 05 3c 25 c0 18 3c 87 09 fb 3b 11 54 f6 3b
       0.008157192 0.009323155 0.007661048 0.0075173457
000030 7f 1b 3c 3c 38 cb 0a 3c 71 55 12 3c 0b c2 77 3b
       0.011481165 0.008471303 0.008931504 0.0037804868
000040 3b bb a7 3b b3 83 13 3c 38 5a 3b 3c 6f 85 c8 3b
       0.005118755 0.0090035675 0.011435084 0.006119422
000050 ce 36 31 3b 05 12 b9 3b 4a 53 02 3c 91 5f 13 3c
       0.0027040723 0.0056479 0.007954428 0.008994953
000060 47 8a ad 3b c5 e1 3d 3b b6 44 dc 3b 3d 2c 90 3b
       0.005296025 0.002897368 0.006722058 0.004399805
000070 74 0d d1 3b 15 f1 be 3b ab 61 de 3a e8 79 ca 3b
       0.0063797776 0.005827079 0.0016966363 0.006179083

conv.5.weight f4 [64, 32, 4, 4]
000000 0d 36 fd 3b ee de 7a bd 00 d3 6c 3c 7b 72 11 bd
       0.0077273906 -0.06124776 0.014454603 -0.035509568
000010 bf 4b 83 bd 5f 94 d5 bd fa e1 25 bc 61 6b 19 3d
       -0.06410932 -0.1042869 -0.010124678 0.03745592
000020 9b 52 ad 3d 17 2a 33 3a 85 35 5b bd 99 e2 bb 3c
       0.08463021 0.000683458 -0.053517837 0.022935199
000030 7b 0c 2a 3d f2 81 94 3a 57 b4 33 3d a8 6c bb 3b
       0.04151581 0.0011330231 0.043873157 0.00571974
000040 16 3a 8f bc 44 4d 91 3c 4d 40 93 3c 9b 21 11 3c
       -0.017483752 0.017737038 0.017974997 0.00885811
000050 83 62 07 bb ae 2f 53 bd 02 42 f8 bc 51 88 bb bc
       -0.0020658083 -0.051559143 -0.030304912 -0.02289215
000060 65 fc 18 bd 4a e6 df 3c 2e f4 ce 3c 07 03 a2 bd
       -0.037350077 0.02733149 0.025262918 -0.07910734
000070 5a 78 1f bd a9 c8 b2 3c 07 de d4 3b f7 dc 78 3d
       -0.038933136 0.021824198 0.0064961943 0.060757603
000080 d7 00 26 bd 49 50 31 3d 75 c6 1b bd a6 5c bf 3d
       -0.040528145 0.043289457 -0.03803106 0.09343843
000090 62 ba eb bc 75 07 96 bd 92 85 b0 ba 49 07 d1 bc
       -0.028775398 -0.07325641 -0.0013467541 -0.02551617
0000a0 51 66 66 bd 8b d3 91 bc a0 70 be bc a5 53 29 3d
       -0.05624992 -0.017801067 -0.023247063 0.041339535
0000b0 d1 96 78 bd 9b 5c a9 bd 5c 0b 10 3d 74 63 f0 bb
       -0.060690705 -0.08269616 0.035167083 -0.0073360745
0000c0 80 43 5a 3d a5 62 8a 3c d4 94 3c 3d 75 da fe bd
       0.05328703 0.01689274 0.04604037 -0.12444011
0000d0 89 da 7d 3d b8 21 58 3d 20 3d e2 bc 80 e7 28 bb
       0.06197599 0.05276653 -0.027617037 -0.002577275
0000e0 c3 1e 18 3d dc 5e ea 3b 3c 53 0e 3d 2f df e7 bd
       0.03713871 0.0071524214 0.034747347 -0.11321866
0000f0 63 c8 55 3d 6f df 36 3d a1 b4 98 bc b0 a6 b3 3c
       0.052193057 0.044646677 -0.018640818 0.021930069
000100 6d ff 85 bd f6 3a ae 3d 1c 56 34 3c 04 5c 10 3d
       -0.06542859 0.0850734 0.011006858 0.035244003
000110 4f 98 5a bd 3e 32 88 bb a4 52 42 3c 99 30 cc 3d
       -0.05336791 -0.00415638 0.011860523 0.09970207
000120 15 55 2e 3d 3a 6e 46 bd 97 d3 a1 bc 96 4b 6f 3c
       0.04256161 -0.048444964 -0.019754214 0.014605423
000130 7a ea ac bc 5e d1 29 bd f0 d8 c7 3c 12 d3 c2 3c
       -0.0211079 -0.041459434 0.024395436 0.023782287
000140 1b df ba bb 5b 4b 89 ba 62 7c 35 bd 61 59 c7 bc
       -0.005702866 -0.0010474728 -0.044308074 -0.024334611
000150 f7 8f 9b 3c c7 10 23 bd 13 24 19 3a ac f6 06 bd
       0.018989546 -0.039810922 0.00058418623 -0.03295009
000160 c8 aa b2 bc 7b c8 3f bb c2 23 01 bd 31 a2 60 3c
       -0.02180995 -0.0029263783 -0.031528242 0.013710544
000170 45 68 31 bd 43 2b fb bc bd 95 70 3d 36 ae 36 3d
       -0.04331233 -0.030660277 0.05873655 0.044599734
000180 0a ae b3 bc f2 a3 3d bd 8f 8b e2 3d 51 86 9b 3d
       -0.021933574 -0.04629893 0.11061775 0.07593978
000190 11 d1 96 bd 4d 39 1b 3d 52 d6 e3 3c f8 40 88 bc
       -0.07364095 0.037896443 0.027812157 -0.016632542
0001a0 71 e5 4c bd d1 bc 3e bc 49 33 97 3d 28 ec ea 3b
       -0.0500235 -0.011641697 0.07382829 0.0071692653
0001b0 0f 36 c4 bd b3 19 1b 3d dc 10 a4 3b d3 b3 cb bd
       -0.09580623 0.037866306 0.0050068926 -0.09946408
0001c0 83 8e 0d 3d 3f e5 94 bd 29 a8 b2 3c 3f 11 c3 3c
       0.034559738 -0.07270288 0.0218087 0.023811935
0001d0 bc 86 99 3d 7b 5a 90 3c 99 21 83 bd a9 ab 96 bd
       0.07496402 0.01762127 -0.064028926 -0.0735696
0001e0 a8 6f 72 3d dd 41 30 3d 99 d2 45 3d 1f 8c b2 3d
       0.059188515 0.043031562 0.048296545 0.08718132
0001f0 b1 82 ba 3d 6a 14 d4 3d cc 0d 48 3d 1b 33 00 bd
       0.09106959 0.10355456 0.048841283 -0.031298738
000200 76 0c 08 bc 66 1b 82 bc e4 d2 7a bc 5f 09 25 3d
       -0.008303752 -0.015882205 -0.015309069 0.04029214
000210 ff 5e 68 39 4a 3d 3a bc 36 64 5d 3d a8 12 5a 3d
       0.00022160633 -0.0113671515 0.054050647 0.05324045
000220 be 32 a7 bd bb d3 ff bc 51 33 f3 3d 82 86 df 3b
       -0.08163975 -0.03122889 0.11875022 0.0068214545
000230 62 04 a5 3b ff 37 28 3c 7e 1e 75 bd 19 12 93 bd
       0.005035923 0.010267257 -0.059843533 -0.07181186
000240 33 4c b9 3c 94 fb 4e 3d 9b 9e 02 bc 1d 94 0e bc
       0.022619342 0.050532892 -0.007972385 -0.008702305
000250 8d 06 5f bd 12 df dc 3c 56 c5 31 3d b2 e1 ba bc
       -0.054449607 0.026961837 0.043401085 -0.022812698
000260 cf d3 48 bd d2 1a 92 bd 35 31 65 3d 7e ce 2c bd
       -0.04903012 -0.07134022 0.05595513 -0.042189114
000270 5b c2 79 bc 6e 0e 8b 3d 7b 0b a2 3d 72 6d a2 3b
       -0.015244092 0.067898616 0.07912346 0.0049568946
000280 68 66 ee 3d fe 1f 89 bc 8e bf 4c 3b 25 b6 a5 3d
       0.11640626 -0.016738888 0.0031242105 0.08091382
000290 d2 3e 73 3d 2c c8 68 bd c4 c1 2f ba 0c ce 37 bd
       0.059386082 -0.056831524 -0.00067045935 -0.044874236
0002a0 b5 72 c7 bb a4 ef 9d bd 9a de 97 bd dd 1d c2 bb
       -0.006086672 -0.077117234 -0.07415505 -0.00592397
0002b0 80 7b 72 bc f5 8f 46 bd 98 58 a2 39 66 13 62 3d
       -0.0147999525 -0.048477132 0.00030965055 0.05519428
0002c0 fe eb 02 bc 44 f2 7f 39 3c 02 94 3c 17 8d dd bc
       -0.007990835 0.00024408946 0.018067472 -0.027044816
0002d0 11 d3 3d 3d 06 10 f7 3d 02 b0 c2 bd f7 02 0e bd
       0.046343867 0.12063603 -0.09506227 -0.034670796
0002e0 0c a2 d6 3c f8 e0 b6 bc d5 42 cc bc 63 a1 9d 3c
       0.026200317 -0.02232407 -0.024934212 0.019241994
0002f0 fc 3e d9 3c 8a 8b 63 3d a9 b8 f6 3b d2 73 52 bd
       0.026519291 0.055552997 0.0075293374 -0.051379986
000300 c5 95 f4 bc 80 48 fa 3c 07 02 34 3d 4c 67 81 3d
       -0.029856572 0.030552149 0.043947246 0.063185304
000310 a3 2c b9 bd 30 0f 92 3c 86 ac 04 3c 01 53 1c 3d
       -0.09041717 0.017829508 0.008097773 0.038165096
000320 9d 84 26 bd 71 79 1c bd 37 01 75 3d 36 a9 21 bb
       -0.040653814 -0.038201753 0.05981561 -0.0024667508
000330 4e 5e d5 3c 87 fe 41 bd 7e 68 9e bc 88 76 7b 3d
       0.026045945 -0.047361877 -0.019336935 0.061392337
000340 f5 3b 4f 3d db d3 39 bd 78 f9 e1 3c 7a 34 cb 3d
       0.05059429 -0.045368057 0.027584776 0.099221185
000350 96 ec cb 3c d7 a0 a4 3d af 61 ba 3d 6a f7 fe 3c
       0.024893086 0.0803849 0.09100663 0.031123836
000360 13 ef 9d 3c 66 00 1c bd d4 ab 03 3b 52 32 38 3d
       0.019279039 -0.038086317 0.0020091431 0.044969864
000370 63 ad 1a bd 32 30 45 3c 18 0a a6 3b cd a4 67 3c
       -0.03776301 0.012035416 0.0050671212 0.014138413
000380 c5 e2 2f 3d b8 2e 04 bd 8a dd 0d bc a7 1d a5 3d
       0.042940874 -0.032271117 -0.008658776 0.08062296
000390 f9 7f c0 bd 98 94 8f 3d 5b 96 b9 bc 94 85 51 3b
       -0.09399409 0.07010764 -0.022654703 0.0031970488
0003a0 06 57 f6 bb 18 f7 8e 3c 43 c0 5b bd 9c 4b a3 bd
       -0.007517698 0.017451808 -0.053650152 -0.07973406
0003b0 6d 84 44 3c 91 36 59 3c 6f 91 c9 bd b7 c7 3e 3c
       0.011994463 0.013257639 -0.098421924 0.011644295
0003c0 00 ad 17 3c a3 2d 0a 3d 2f cf 7f bd a8 f0 bc bd
       0.009257555 0.03373493 -0.062453445 -0.09225589
0003d0 db f7 56 3d 99 05 ab bc 94 36 89 3d b4 d2 48 3d
       0.052482467 -0.020876693 0.06699863 0.049029067
0003e0 7f 9c 32 3c 24 b4 df bc 38 73 33 3d c1 78 6f bd
       0.010901569 -0.027307577 0.043811053 -0.05846477
0003f0 5a c2 2b bc 06 0c 80 bc 2c 31 fa 3c 0d 17 18 3d
       -0.010483349 -0.015630733 0.030541025 0.037131358

conv.5.bias f4 [64]
000000 2e dc 9d 3d 1e 54 1d 3b 04 57 90 bd d2 12 55 bd
       0.077080116 0.0024006437 -0.07047847 -0.0520199
000010 e4 17 8c 3d bb 82 64 b8 3c 5e de bd d0 b4 74 bc
       0.06840494 -5.448119e-05 -0.108578175 -0.014935687
000020 cc 96 b7 3d 24 00 f3 3c fc 6b 13 bd 2f cd f3 3a
       0.08964309 0.029663153 -0.035991654 0.0018600578
000030 fe a8 ad 3d 2d 93 91 bc e5 7e 9c bd 4e 70 a8 3b
       0.08479498 -0.017770374 -0.07641391 0.005140341
000040 f0 7b 41 3c 32 6a 09 3b ca a0 39 3c f8 b5 f5 bc
       0.011809334 0.0020967838 0.011329839 -0.029993996
000050 2e ba 95 3d 68 f8 33 bb e9 96 45 3d 9d fe d1 bc
       0.073109016 -0.0027461294 0.048239622 -0.025634104
000060 64 c8 7d 3d f6 c5 81 3d b1 9e da bc 3e 38 58 bd
       0.061958686 0.06336586 -0.026686998 -0.05278801
000070 4f a5 39 3d f9 ae 11 3d 65 fc 5e 3d 0f ca ab 3c
       0.045323666 0.035567258 0.05443992 0.020970372
000080 8e bc cf bd 25 5b c0 3c da 5f 2f 3d 76 d3 21 bd
       -0.10143386 0.023480961 0.04281602 -0.039508305
000090 0f eb de 3c 9e be 3a 3c 2d a4 1e bd b5 cb 08 bc
       0.027211694 0.011397986 -0.03873079 -0.008349349
0000a0 d7 a4 0f 3d 99 e2 15 3d 81 8d 7c bb 35 0c 09 3d
       0.035069313 0.036593053 -0.0038536491 0.033458907
0000b0 1a 9b 82 bd 36 45 9c bd 01 0a 32 bd f4 c1 56 3d
       -0.063772395 -0.076303884 -0.04346657 0.052431062
0000c0 cb c1 9b bc 62 a3 62 3d 92 bc 0c 3c 77 62 25 3c
       -0.019013306 0.055331595 0.008589881 0.010094277
0000d0 c9 fc a7 bc 07 37 1f bd 73 fa 3f bd c6 3d 0c bc
       -0.02050628 -0.038870838 -0.046869706 -0.00855965
0000e0 d5 59 48 bd 4d b4 61 bd 8b 7d ad bd 65 50 42 3d
       -0.048913796 -0.05510359 -0.08471211 0.04743995
0000f0 c6 38 fa 3c c5 5f 7a bd 74 06 72 bd b9 64 4d 3d
       0.03054465 -0.06112649 -0.059088185 0.050144885

conv.6.weight f4 [64]
000000 d6 d2 02 40 85 b5 e6 3f 41 05 f1 3f 61 1b d6 3f
       2.0441184 1.8024145 1.8829728 1.6727105
000010 7b 1c d2 3f 26 87 fa 3f 1b 94 00 40 ea 68 e8 3f
       1.6414942 1.9572494 2.0090396 1.8157017
000020 9e 9f ed 3f 0e 13 f4 3f ee 8a f2 3f 77 a0 de 3f
       1.8564336 1.9068315 1.8948648 1.739272
000030 6a a4 ed 3f 08 b7 dd 3f f9 b4 e9 3f 07 08 e5 3f
       1.85658 1.7321482 1.8258353 1.7893075
000040 3c 6a eb 3f a8 41 d3 3f d6 2d e2 3f 07 2f f5 3f
       1.8391795 1.6504412 1.7670238 1.9154977
000050 41 ca e9 3f b2 ae f1 3f 17 45 e1 3f 1d 81 ff 3f
       1.8264848 1.8881438 1.759921 1.9961277
000060 31 0b da 3f 69 c2 e8 3f 86 be 02 40 16 7d f9 3f
       1.7034665 1.8184329 2.0428786 1.9491298
000070 b3 f4 d9 3f 39 6a fb 3f 99 27 dd 3f c7 a9 d9 3f
       1.7027801 1.9641792 1.7277709 1.7004937
000080 bf cf f4 3f 51 c4 f2 3f ce 90 ed 3f 40 fe f3 3f
       1.9125899 1.8966161 1.8559816 1.9061966
000090 7f e6 e7 3f ff 4f ce 3f 1b 1b dd 3f c4 b6 ee 3f
       1.8117217 1.6118163 1.7273897 1.8649526
0000a0 49 1a f5 3f 75 27 e0 3f bc 4f e0 3f 88 e4 e9 3f
       1.9148647 1.7512041 1.7524333 1.8272867
0000b0 99 f8 f5 3f 1f 25 f6 3f f7 81 e8 3f 2b f1 ee 3f
       1.9216491 1.9230078 1.8164662 1.8667349
0000c0 25 33 f1 3f 55 a9 02 40 51 4a ea 3f 87 60 fc 3f
       1.8843733 2.0415852 1.830393 1.9716958
0000d0 4c 45 d8 3f 5a ba eb 3f 64 b5 fa 3f f7 3d df 3f
       1.6896148 1.8416245 1.9586606 1.7440785
0000e0 1a 5c ee 3f 8f eb ee 3f 50 69 f6 3f e4 6c eb 3f
       1.8621857 1.8665637 1.9250889 1.8392606
0000f0 ef 47 f3 3f 34 a6 01 40 cb 54 e9 3f 94 a8 fa 3f
       1.9006327 2.0257692 1.8229002 1.9582696

conv.6.bias f4 [64]
000000 ae 64 51 be 8b de 2d bd 75 5c c0 bd 79 76 78 bb
       -0.20448563 -0.04244856 -0.09392635 -0.0037912412
000010 01 e0 1d 3e be eb a5 bd 9e 06 ad bd 7e 3e 2b be
       0.15417482 -0.08101605 -0.08448528 -0.16723058
000020 a6 d2 36 be c4 4a a3 bd fc 2e 52 bd ff 6a b6 bd
       -0.17853794 -0.07973245 -0.05131434 -0.08907127
000030 c2 ac d4 bd 50 91 db bd de 18 49 be 7b 74 d2 bd
       -0.103845134 -0.107210755 -0.19638392 -0.10276123
000040 bc 9b b9 bd 98 4b 74 bd 77 2a 46 be bf 55 3e be
       -0.09062907 -0.059642404 -0.19352137 -0.18587397
000050 b0 e6 81 bd 08 bc d3 bd 79 c9 84 be a7 90 a2 bd
       -0.06342828 -0.103385985 -0.2593496 -0.079377465
000060 2f e9 32 bd 2e 05 12 be 8f ca f8 bd 35 0c c4 bd
       -0.043679412 -0.14259788 -0.1214801 -0.09572641
000070 99 ba 69 bd 9e 3e 29 bd 4b 39 15 bd 0e 85 6a be
       -0.05706272 -0.041319482 -0.036431592 -0.22902319
000080 e4 34 c0 3d 0f 99 02 be 81 74 0c be a1 9d 8a bd
       0.09385088 -0.127537 -0.13716318 -0.067683466
000090 f4 15 3d be cb 43 c9 bd 2a 0a b2 bd 8d 9a b1 bd
       -0.18465406 -0.098273836 -0.08693345 -0.08672056
0000a0 b4 d4 83 bd 5b 34 2a 3d e2 e0 84 bd 4c 8b bd bd
       -0.06437054 0.041553836 -0.064882055 -0.092550844
0000b0 8b 5d 3d be 5e 34 22 be d4 a8 1a bd c2 07 f4 bc
       -0.18492715 -0.15840289 -0.037758663 -0.029788855
0000c0 2a 4b 47 be b2 c0 de bd fa 86 31 3c 1f bd 1d bd
       -0.19462267 -0.108765975 0.010835404 -0.038510438
0000d0 6f 23 d5 be d1 26 43 3d 6f 80 f5 bd db 66 3c be
       -0.41628596 0.04764444 -0.119873874 -0.18398611
0000e0 c4 91 b2 bd b1 9f a2 bc 32 69 03 be 9b b8 fa bd
       -0.08719209 -0.019851537 -0.12833098 -0.12242242
0000f0 a9 69 f2 bd 99 80 ff bd c3 84 05 be 08 9d 86 bd
       -0.11836559 -0.124757 -0.13038926 -0.0657292

conv.6.running_mean f4 [64]
000000 42 19 68 3e 99 39 db bd ab 51 32 be f2 18 8a 3d
       0.22665885 -0.10704345 -0.17413966 0.06743039
000010 81 e8 0c 3e 75 ac ae bd 0e 2c b8 3c c6 f0 c8 bd
       0.13760568 -0.08528987 0.022481944 -0.09811549
000020 c1 39 48 3e 0c 51 8c 3d cf 05 72 be 0b 2c 01 3f
       0.19553281 0.06851396 -0.23635028 0.5045783
000030 e7 4a 1c be 11 ac e9 3e eb c4 b7 bd ef 3c 3c bf
       -0.15262948 0.4563909 -0.08973106 -0.7353048
000040 53 b8 48 bc 7d 7e 56 be 9b 01 9c be 7b 57 00 bd
       -0.012250978 -0.20946689 -0.30469975 -0.031333428
000050 84 cc a4 bd c9 2d 6d be 7d 73 b3 3d 0a 22 23 bf
       -0.08046821 -0.23161997 0.08762262 -0.63723814
000060 ea de a7 3c c1 4a 3d 3e 97 31 9e bc 76 6a ae 3e
       0.020492036 0.18485548 -0.019310756 0.34065598
000070 57 92 39 3e e9 0f 07 3e ee d3 2b 3e 0f 00 39 3f
       0.1812223 0.13189663 0.16780064 0.72265714
000080 84 a1 74 be 2b ea 68 3c b0 cf 8b 3e 62 74 d7 be
       -0.23889738 0.014215986 0.2730689 -0.4208098
000090 ee f7 81 bd 21 91 4b 3f 0f 09 62 3e 1c 5e a9 bd
       -0.06346117 0.79518324 0.22073768 -0.08269903
0000a0 e4 e8 3a 3e 61 5a 9b bb f4 64 56 bd a8 15 26 3e
       0.18252903 -0.0047409986 -0.05234237 0.16219199
0000b0 66 2a 0a bf c7 52 a5 be e4 b1 4b 3e f8 eb 2a bd
       -0.53970945 -0.32289717 0.19892079 -0.041728944
0000c0 7b 47 6e 3e 1d 27 f6 3b 44 b3 de bd 49 b0 f0 bd
       0.23269455 0.007511987 -0.10874036 -0.11752374
0000d0 16 53 c2 3e 7a e1 27 be 73 40 27 3d 45 79 a5 3e
       0.37954015 -0.16394606 0.040832948 0.32319084
0000e0 4e 95 f0 3d 64 e5 1f bd 16 03 09 bf 56 17 18 bd
       0.117472276 -0.039037123 -0.53520334 -0.03713163
0000f0 49 a2 65 3e e0 97 99 3d 43 cd a4 bd 28 6e df be
       0.22425188 0.07499671 -0.08046963 -0.4363873

conv.6.running_var f4 [64]
000000 2d 64 2c 3e 36 ca 1e 3e 68 79 53 3e c4 9f 94 3e
       0.16835089 0.15506825 0.20651782 0.29028141
000010 63 61 53 3e a6 53 3c 3e c2 0c 33 3e e5 c8 29 3e
       0.20642619 0.18391284 0.17485335 0.16580541
000020 cf a6 33 3e 3b 9c 2e 3e 55 a4 2d 3e c5 b1 24 3e
       0.17544101 0.17051785 0.16957219 0.16083439
000030 15 ae 35 3e ca c6 6c 3e b5 a4 95 3e 21 02 2d 3e
       0.17742188 0.23122707 0.29227224 0.16895343
000040 42 9e 32 3e f9 84 63 3e 0a 84 15 3e a2 00 2b 3e
       0.17443183 0.22218694 0.1460115 0.1669946
000050 c2 7e 4f 3e fc eb 37 3e 1b e5 3c 3e fb 78 46 3e
       0.20263198 0.17961115 0.18446772 0.19382088
000060 e3 79 56 3e ee 95 2d 3e 07 50 1e 3e 0f 1d 1a 3e
       0.20944934 0.16951725 0.15460216 0.15050147
000070 60 0e 4a 3e 03 28 29 3e 4f 89 05 3e cb ce 6e 3e
       0.19732046 0.1651917 0.1304066 0.23321073
000080 6b 82 41 3e 9d bb 46 3e d5 31 6d 3e 74 b1 42 3e
       0.18897407 0.19407506 0.2316354 0.19013005
000090 63 0c 3a 3e 92 7f 67 3e dc ad 3f 3e 1e d7 1d 3e
       0.18168788 0.22607258 0.18718666 0.15414092
0000a0 18 99 3c 3e 38 3e 14 3e ab bc 6f 3e 88 6f 20 3e
       0.18417776 0.1447686 0.23411815 0.15667546
0000b0 fd 1b 24 3e a5 46 22 3e 2c 42 79 3e 8a bf 13 3e
       0.16026302 0.15847261 0.24341649 0.14428535
0000c0 8f dd 1d 3e 18 15 35 3e ce 79 1f 3e e6 4c 46 3e
       0.15416549 0.17683828 0.15573809 0.19365272
0000d0 0e c9 96 3e 55 56 33 3e aa 2d 2d 3e f6 79 2b 3e
       0.29450268 0.17513402 0.1691195 0.16745743
0000e0 54 37 0b 3e 72 90 31 3e c9 bf 1f 3e 88 d3 1f 3e
       0.13595325 0.17340258 0.15600504 0.15608037
0000f0 3e af 1e 3e 50 06 32 3e 4e 9d 20 3e 63 d6 2e 3e
       0.15496537 0.1738522 0.15685007 0.1707397

adv_head.weight f4 [1, 2304]
000000 ff b8 e9 bb 39 5c dc bb dd 82 35 bc 99 ef 05 bc
       -0.007132649 -0.006724861 -0.0110785635 -0.0081748
000010 49 1c ab 3b 21 63 20 3a 89 89 df bb c4 47 c2 ba
       0.0052218777 0.0006118287 -0.0068218154 -0.0014822413
000020 16 61 96 bb 63 e4 b9 3b 20 a8 ef ba 86 62 b1 3b
       -0.0045892103 0.005672978 -0.0018284358 0.0054133562
000030 55 17 1c bb d6 8f ab 3b fc 70 9e ba cb 1e 95 bb
       -0.0023817618 0.0052356524 -0.0012088115 -0.00455079
000040 66 20 d1 bb ba 2c 67 39 c5 d8 18 3c cf 94 b5 bb
       -0.006382036 0.00022046539 0.009329026 -0.005541421
000050 73 dc 04 3c 6d ef 89 bb 3e 5e 51 3c 56 24 50 3c
       0.0081092 -0.00420945 0.012778817 0.012703976
000060 40 fb 84 bb 31 10 7c bb b2 06 1f 3b a0 c8 33 3c
       -0.0040582716 -0.00384618 0.0024265465 0.010973126
000070 0c 80 35 bb 4e 36 6c 3c 00 ac 48 3b b2 2f 2e bb
       -0.002769473 0.014417244 0.0030620098 -0.0026578722
000080 d4 92 98 bb 06 3d b3 bb c1 02 03 bc 01 5c 04 bc
       -0.004656175 -0.005469921 -0.007996262 -0.008078576
000090 8c ec 7f bb 85 ac 41 3c 71 2d 43 bc 36 63 63 3b
       -0.0039050905 0.011820917 -0.01191269 0.0034696585
0000a0 bd 72 9a bb cd 0e 19 3b 08 9c fa 3a 8c 15 d6 3a
       -0.004713385 0.002335477 0.0019119987 0.0016333326
0000b0 75 15 b1 3b b4 a9 bf b9 74 8c 47 3b 6c f9 17 bb
       0.005404169 -0.00036556798 0.0030448707 -0.0023189439
0000c0 1a 00 86 3b 60 b0 c8 3a a2 2e 5e 3b 87 47 67 3a
       0.0040893676 0.0015311353 0.0033902307 0.0008822609
0000d0 c1 8c e3 bb 60 6f 28 3b 7f 7d ff 3b 08 24 d2 3b
       -0.0069442694 0.002570115 0.0077969427 0.0064129867
0000e0 c6 ac aa 3a 2f 2b 49 39 39 79 a7 3a 51 fd a9 3b
       0.0013021461 0.00019184941 0.0012777216 0.0051876684
0000f0 43 d3 ee bb 19 4b ad 3b 0b 35 fe bb 88 ee b7 ba
       -0.007288368 0.0052884934 -0.007757788 -0.001403288
000100 30 76 82 ba 93 e7 c8 3b 2b 22 d6 3b 0d 85 80 3b
       -0.0009953436 0.0061311214 0.006534835 0.003922111
000110 e5 a7 c7 bb 49 54 b7 39 4e ee 2d 3b 97 1d f3 bb
       -0.0060930126 0.00034967277 0.0026539746 -0.007419299
000120 d8 3e a0 ba b3 1a ca bb 3f 26 9c bb 4d 1f a8 3a
       -0.001222576 -0.0061677336 -0.0047653015 0.0012826711
000130 5c 61 2d bc 44 2b 87 bb 6f 28 8d bb 2c 83 0b 3b
       -0.010582294 -0.0041250307 -0.0043077986 0.0021287901
000140 5d 78 02 3c b3 68 2f bb 32 fa 9e bb 0c e5 bb ba
       0.007963267 -0.0026765286 -0.004851603 -0.0014335229
000150 07 c3 2b bc 41 3d 44 3b 5f 81 05 3a f0 09 97 b9
       -0.01048351 0.0029943737 0.0005092825 -0.00028808368
000160 41 4c c1 bb 9f 7e 91 bb b7 de 22 bc 6a ff dc b9
       -0.0058989828 -0.0044401432 -0.009940795 -0.00042151968
000170 4d 2b 9a b9 65 22 15 3c 9a 33 44 3b ab 90 38 39
       -0.0002940543 0.009102439 0.0029937983 0.000176015
000180 46 94 2d bb 42 3e 89 3a ab 1d 14 3c 54 5f 8a 3b
       -0.0026486083 0.0010470825 0.0090402765 0.00422279
000190 d1 7e 2e bc 20 84 98 3b d0 46 82 39 d2 af dd 3a
       -0.010650353 0.0046544224 0.00024848292 0.001691336
0001a0 6c 56 8e bb 19 6d 64 bb 7d 31 49 bb c5 dc 88 bb
       -0.0043437984 -0.0034855066 -0.0030699663 -0.0041767084
0001b0 d9 6b 36 3b ed c7 6d ba 53 fa c8 bb f2 c0 a9 3c
       0.0027835278 -0.0009070624 -0.0061333566 0.020721886
0001c0 59 10 c5 3b e4 e4 d6 ba 11 64 88 3a c6 22 d9 3b
       0.0060139117 -0.0016395119 0.0010405799 0.00662646
0001d0 24 82 68 bc 39 86 c4 ba 7e 3a 86 3c 92 19 c6 b9
       -0.014191184 -0.0014993615 0.016385313 -0.00037784554
0001e0 2c b2 55 3a 22 72 d2 3b cc f3 bc bb a9 06 41 3b
       0.0008151855 0.006422297 -0.0057663675 0.0029453433
0001f0 49 9d 6d 3c 07 cb 1b 3c c9 40 15 bb 79 25 c2 3b
       0.014502832 0.009508855 -0.002277421 0.0059248772
000200 f0 c5 57 3c 28 c5 11 bc 0b 13 86 3c 3e a0 bf 3b
       0.013169751 -0.008897103 0.016366502 0.00584796
000210 27 af 17 bc f2 b9 ca 39 ad 23 01 3c 97 99 29 bc
       -0.009258068 0.00038666982 0.007882041 -0.01035156
000220 3a dc 39 3c 6e cc 54 3c 4d 9c 15 bc af 87 15 3b
       0.01134401 0.012988193 -0.009131503 0.002281647
000230 fd a1 06 3c c3 6d 93 ba 35 18 92 3b 3b 84 95 bb
       0.008217332 -0.0011247922 0.004458452 -0.0045628822
000240 72 c3 a4 3b 10 94 02 3c ef 7f dc 39 01 51 9b 3a
       0.0050281817 0.007969871 0.00042056988 0.0011849703
000250 90 58 88 3b 0d e1 7c 3b fe 25 77 3b 5c 60 35 bb
       0.004160948 0.003858629 0.0037711854 -0.0027675843
000260 68 f4 95 bb 86 17 e4 b9 3c 1a c7 bb ce 67 4d 3a
       -0.0045762546 -0.00043505075 -0.0060761254 0.00078355975
000270 82 0a ba 3b 10 74 c8 bb 9c 02 99 3b 84 2d fb 3a
       0.005677522 -0.0061173514 0.0046695005 0.0019163345
000280 62 45 cf bc d8 b5 56 3c c8 47 a6 3b b7 99 12 bb
       -0.025301639 0.013104878 0.005074475 -0.0022369453
000290 88 a5 b8 3a 30 27 97 bb 3d f2 34 bb cc 7e c7 3b
       0.0014087418 -0.004612826 -0.0027610206 0.0060881134
0002a0 a5 e6 92 3a fc d6 b2 3a 51 d9 73 bb 7b 85 09 bc
       0.0011207653 0.0013644393 -0.0037208388 -0.008393641
0002b0 77 7d 79 39 59 41 1c 3c ec a3 18 3b 93 f7 41 bb
       0.0002379323 0.0095370645 0.0023291064 -0.0029597029
0002c0 3a b0 00 3b e5 ae 56 ba 58 15 2b 3b f0 fb b8 3b
       0.001963629 -0.00081895135 0.002610525 0.0056452677
0002d0 99 d0 3b 3b f4 84 70 bb f8 d7 42 3c b0 72 1d bb
       0.002865827 -0.003670034 0.011892311 -0.0024024658
0002e0 c8 5e ca 3b 7b aa 58 bc 88 09 64 bb f7 98 ab 3b
       0.0061758496 -0.013224239 -0.003479572 0.0052367407
0002f0 dd 2c 18 bc 95 09 a9 bb 13 67 ef bb 3e ac f3 bb
       -0.00928804 -0.005158613 -0.0073059886 -0.0074363044
000300 15 b3 5e bb 86 c8 76 3b fc 02 cd 3a c8 da b9 3a
       -0.0033981253 0.0037656142 0.0015641148 0.0014179582
000310 2b d7 37 3c c8 3e 95 3a 4a 6e 64 bb 65 5f 1f bb
       0.011220734 0.0011386508 -0.0034855776 -0.0024318334
000320 45 51 c7 bb 02 93 e4 ba c3 61 c1 3b 16 7d 16 3b
       -0.006082686 -0.0017438831 0.0059015467 0.002296274
000330 1d 10 3a 3c a1 9f a2 bb 6b 16 f3 ba 21 db 2f bb
       0.011356381 -0.004962877 -0.001854611 -0.0026833492
000340 79 9d 52 3b d3 e8 28 b9 12 fe a8 3a 5a 49 4e 3a
       0.0032137318 -0.00016108462 0.0012893102 0.00078692066
000350 02 c8 2c bc 30 7a 16 3c 46 28 38 3b a9 8a 7c bb
       -0.010545732 0.009184405 0.0028100177 -0.0038534796
000360 25 7b 27 bb 6f e8 9a bb be 8a 60 bb ee 47 ea 3b
       -0.0025555578 -0.0047274153 -0.0034262384 0.007149688
000370 7f 2f 22 bb e6 56 ef ba 24 de ab bb b2 8a e3 ba
       -0.0024747548 -0.0018260151 -0.005244987 -0.001736006
000380 c8 16 9f ba d4 24 b8 3a 48 20 11 bb 26 bc 84 3b
       -0.0012137527 0.0014049062 -0.0022144485 0.0040507494
000390 83 4e 10 3a 7e 54 2d bb ed 0d 20 bc 3c 8b 04 bb
       0.0005504863 -0.0026448066 -0.009768945 -0.0020224592
0003a0 a1 13 d7 bb 0c 10 40 3b 40 cd e0 bb f3 f4 fe 3b
       -0.0065636192 0.002930644 -0.006860405 0.007780665
0003b0 fc c2 d6 3b 09 f5 4d 3a 2e 5a c4 bb bd 63 4b 3b
       0.0065540057 0.00078566425 -0.0059921956 0.003103479
0003c0 d4 3f a2 bb 63 5f 87 3b 42 a8 1e 3b 09 80 b8 3a
       -0.0049514566 0.004131244 0.0024209176 0.0014076243
0003d0 5f a7 05 3c 76 7c b2 3a 6b e7 c3 bb ce d1 29 3b
       0.00815758 0.0013617415 -0.005978515 0.0025912407
0003e0 1b 39 e6 bb 5c 9e 05 bc a0 a2 d4 3a 36 39 8a 3b
       -0.0070258505 -0.008155432 0.0016222782 0.004218246
0003f0 62 b7 cf b9 f6 e6 0d bc 83 8d a4 3b bf ab 18 3b
       -0.00039618748 -0.008661022 0.0050217523 0.0023295728

cls_head.weight f4 [7, 2304]
000000 fa e0 4a 3d 83 da 30 be 95 13 48 be c2 ff 2e 3d
       0.04953096 -0.17270856 -0.1953872 0.04272438
000010 37 08 90 3b 89 47 05 3c c3 01 89 3b 6c 77 3f 3e
       0.0043955105 0.008134731 0.004181118 0.186979
000020 fd 65 dc 3b b4 79 22 3d 98 e1 db bc 74 64 6e bd
       0.006726025 0.039666846 -0.02684097 -0.05820127
000030 3e 9b b4 bd 82 b3 dc bd e5 11 8e 3d 63 9d 38 bd
       -0.088186726 -0.10776426 0.06937007 -0.04507197
000040 4c 57 05 bd 50 b3 ca 3d 74 08 78 3e ab 2f 1a bd
       -0.032553956 0.098974824 0.24221975 -0.037643116
000050 14 c5 c9 3d e7 3c cd 3d b3 13 da 3d 04 b0 12 3c
       0.09852043 0.10021382 0.106482886 0.008953098
000060 ed 70 7f be ca 8c 34 bc 9c f2 59 3e 96 1e e9 3d
       -0.24945422 -0.011019895 0.21283954 0.11382787
000070 ba 6c ff 3d 45 07 84 bd fd d0 14 be 09 2b 9d 3c
       0.1247191 -0.06446699 -0.14532848 0.01918556
000080 03 41 98 bd 71 dc 64 3e f2 b1 92 3a bd 51 fd bd
       -0.07434275 0.22349717 0.0011191948 -0.12369106
000090 b4 c0 a7 bb 71 a3 59 3e b6 22 74 3e ff 74 8f bd
       -0.0051194075 0.21253754 0.23841366 -0.07004737
0000a0 e9 94 38 bc ed 88 cb bd d9 3d ec 3d 90 55 5d 3d
       -0.011265972 -0.09938226 0.11535234 0.054036677
0000b0 02 f6 67 bd 8e 61 f1 bd 5c b6 8c bd 9e a8 90 3d
       -0.056631096 -0.11786185 -0.0687072 0.07063411
0000c0 1d fd b9 3d 88 95 19 be 5f 93 70 bd 21 d4 8c 3d
       0.09081481 -0.14998448 -0.058734294 0.06876398
0000d0 c8 4e 8f 3d a4 a2 25 bc 18 98 c9 bd 0a 60 d4 3d
       0.06997448 -0.010109577 -0.09843463 0.103698805
0000e0 e1 24 85 be 71 8b 0b 3e ac fd 38 3e a1 e9 89 3d
       -0.260047 0.13627411 0.18065518 0.06734014
0000f0 96 cb 42 bd 6a 93 58 3e 4d 3f 72 3d 86 df b1 3d
       -0.047557436 0.21149984 0.0591424 0.08685212
000100 24 a1 a6 3d 72 be 98 bd 02 3c 5d bd 14 be 8e bd
       0.08136204 -0.074581996 -0.054012306 -0.06969848
000110 cd 4f 6e bd 97 0a 2f 3d 2c f1 8f 3c 91 28 24 3c
       -0.058181573 0.04273471 0.017571054 0.010019437
000120 53 ca b8 3d 3d 3e bd 3b d4 f0 dd bd 4a 1e 05 ba
       0.09022965 0.0057752416 -0.1083695 -0.0005078061
000130 95 7e dc 3c 64 d4 c3 3d 5b 3e d4 bd 47 9d 0c be
       0.026915828 0.09561995 -0.10363456 -0.13731872
000140 36 f9 83 be d9 ec 83 be 32 8b 81 be 5b 1f 45 bd
       -0.2577607 -0.25766638 -0.2530151 -0.048125606
000150 f7 2c 1e be 91 80 62 bd b1 76 e8 bd 9a 5f 82 bc
       -0.1544684 -0.05529839 -0.113507636 -0.015914727
000160 83 c7 c8 3c a9 a9 51 3d c4 45 c4 3d 39 3a 64 be
       0.024509197 0.05118719 0.09583619 -0.22287835
000170 83 cc 2e be a9 84 85 3e ea e6 5b 3e 2e d4 99 3d
       -0.17070203 0.26077774 0.21474805 0.07511173
000180 06 c0 c8 bc 10 eb 23 be a9 d7 3a bd eb ff 4f 3e
       -0.024505626 -0.16007638 -0.045615826 0.20312469
000190 22 f8 47 3d 3b f1 c7 bc 1c cd 9d bb d0 4b d2 bc
       0.048820622 -0.02440702 -0.0048157107 -0.025670916
0001a0 e7 17 82 3d 7a dd 07 3d 9d 69 e2 3d 03 72 9b 3d
       0.06352215 0.0331702 0.110553004 0.075901054
0001b0 29 34 fb 3b 98 da 10 3e 45 41 37 ba 45 69 d4 bc
       0.00766613 0.14145887 -0.0006990622 -0.025929103
0001c0 b8 4c 83 bb 82 f4 46 3d 1d 24 2b 3d f6 09 c7 bd
       -0.0040069483 0.048573025 0.041782487 -0.09718697
0001d0 9c 2c ea bd 7d 6c 07 3e 28 02 d8 3c 6c e5 01 bd
       -0.1143429 0.13224979 0.026368216 -0.031712934
0001e0 6c e6 41 3d 31 b6 83 3d da b3 c6 3d a8 2d 97 be
       0.047338888 0.06431235 0.09702273 -0.2952702
0001f0 a9 da 55 3d 38 25 dc 3d b1 98 a3 bd 71 94 ad 3d
       0.052210484 0.107492864 -0.07988108 0.084755786
000200 06 53 86 3d 7d 45 b3 3c d5 e1 f9 bc d0 35 b8 3d
       0.06558804 0.02188372 -0.030503193 0.08994639
000210 70 24 0a bd f9 f0 fb 3d a3 04 e4 3d 79 51 2a be
       -0.033726156 0.12301821 0.11133697 -0.16632642
000220 8d f5 f9 3d 6a 1a 3e bd 83 96 85 3d 37 0e 31 bd
       0.12205038 -0.04641191 0.065228485 -0.043226447
000230 88 35 89 bd de 78 60 3c 63 d3 a5 bd bf 48 07 be
       -0.066996634 0.013700692 -0.080969594 -0.13211344
000240 59 b5 c9 bc 67 15 d4 3d 56 10 9b 3d c7 6a 09 be
       -0.024622606 0.10355645 0.07571475 -0.13419639
000250 86 e0 83 bd 9f b6 6e 3d d5 4b 38 bc d8 1a 09 3d
       -0.06439309 0.05827963 -0.0112485485 0.033472866
000260 e9 b2 09 be 56 40 fb bd 6e 8f a1 bd 4c 61 c2 3d
       -0.13447155 -0.122681305 -0.07888685 0.09491214
000270 c3 d2 48 3d 7e ee 05 3c 7b c1 96 bd 54 01 e2 bd
       0.049029123 0.008174537 -0.07361122 -0.110354096
000280 8a 1f aa be c8 a2 7a 3c c6 37 d0 3b ef 97 ff 3d
       -0.33227187 0.015297599 0.006354305 0.12480151
000290 87 e0 c2 3c e8 60 02 3e 20 9f e4 bc 2e 21 89 3c
       0.023788704 0.1273228 -0.027907908 0.016739454
0002a0 54 a1 79 bd f6 d0 a2 bd bc ee d7 bc dd 5f 05 3d
       -0.06094487 -0.079500124 -0.026358955 0.032562125
0002b0 d4 c9 4e 3e 35 d7 84 bd 0b 52 f1 bd 13 53 14 3d
       0.20194179 -0.0648636 -0.117832266 0.03621204
0002c0 9e 13 62 be c5 46 81 3e ad 4e 3e bc 82 45 09 be
       -0.22077796 0.25249305 -0.011615437 -0.13405421
0002d0 4b 9d 86 bd 10 fe 23 3d 3a e0 06 bd e0 34 8f bd
       -0.0657297 0.040037215 -0.032928683 -0.06992507
0002e0 f2 6b 44 bc 96 61 88 3d 30 50 25 3e 6b 7a c3 bd
       -0.011988627 0.06659238 0.1614387 -0.09544834
0002f0 25 db a6 bd 6a 89 5d 3e e8 21 6c be 9a 06 f7 bc
       -0.08147267 0.2163445 -0.23059809 -0.030154515
000300 df ce de bd de 56 1f 3d eb 87 cf 3d 36 a3 17 be
       -0.10879301 0.038901202 0.10133346 -0.14808354
000310 84 9e 19 bd 05 b9 ae 3c a1 51 f3 bd 5f 17 4d bc
       -0.037504688 0.021328459 -0.11880804 -0.012517779
000320 d6 78 1d 3e a3 3f a8 bd 38 e5 04 3e 7e bb d4 bc
       0.15378127 -0.08215263 0.12978065 -0.02596831
000330 1c d9 ac bd 11 f6 23 3e 6a 1d 4d bc 7d 59 e7 bd
       -0.08439848 0.16011836 -0.01251922 -0.112963654
000340 d4 f1 32 bd 14 0a 77 3e 23 c2 3c be 26 50 63 3e
       -0.043687657 0.24124938 -0.18433432 0.22198543
000350 8d 7e 6f be c9 4f 89 bc a2 e1 49 3e d0 80 ba 3d
       -0.23388119 -0.016761677 0.19714978 0.091066
000360 a9 b1 de 3b 63 5e 7e 3d d0 e6 4e bd 6f af 9c be
       0.006796081 0.062101733 -0.05051309 -0.30602595
000370 ba a9 2e 3e d6 b5 02 bd 92 9d 6d 3d a7 e4 d9 bd
       0.17056933 -0.031911694 0.0580116 -0.10639315
000380 52 76 88 be 9f 60 0a be 81 77 84 bc 76 ab b1 3d
       -0.2665277 -0.1351342 -0.016170265 0.08675282
000390 b5 9f 63 3c b8 30 45 3d 4a 8d e7 3d 76 d3 bd 3d
       0.013893058 0.048142165 0.113062456 0.092688486
0003a0 b8 5e 2f 3d 39 5f cd bb 9a af 03 3d b0 12 2f bd
       0.04281494 -0.006267455 0.03214989 -0.04274243
0003b0 e5 b6 dc 3d 3a 23 b9 3d 01 55 3c 3e 0b ca f7 3c
       0.10777072 0.09039922 0.18391801 0.030247709
0003c0 83 e3 be bd dc f4 50 be 22 84 ac bc 5b cc c0 3d
       -0.09320738 -0.20405906 -0.0210591 0.09413978
0003d0 06 43 34 3e 13 04 90 3d 08 c3 b7 3d 73 c8 a6 3d
       0.17603692 0.07032027 0.08972746 0.081437014
0003e0 9e 9f 2c be ea 6c a4 bd b6 9a 23 3d 91 88 84 3d
       -0.16857764 -0.08028586 0.039942466 0.064713605
0003f0 7c f3 8d 3d b0 5b 6d 3d 3e fb ea 3d e0 b5 6d 3e
       0.069312066 0.05794877 0.11473702 0.23213911

cls_head.bias f4 [7]
000000 61 18 29 bc 58 0d 23 bd ae c9 9b bc 94 7f b3 3c
       -0.010320754 -0.039807647 -0.019017067 0.02191142
000010 22 26 0e bc 22 bc 9a 3c 77 21 e0 3b
       -0.008676084 0.018888537 0.006839927
