src/facexpr/cGen+cDis/Version 1.7Final/weight/disc_ep190.pth (torch, 247605 bytes, 17 tensors)

conv.0.weight f4 [16, 1, 4, 4]
00000000: 7801 733e e581 8c3e d149 6d3e e224 edbd
00000010: ea52 94bd e2cc 35be c0b8 01bd 3139 173c
00000020: 92d3 95bd af78 923c e7b2 3abd b674 15bd
00000030: e203 83be 7a19 71bd 4c8c 803d 936b cebd
00000040: 770f 1c3e a288 52be ec93 5cbe 2e8e 82be
00000050: 1873 81be 33c1 973e 1a81 203e 9477 733e
00000060: 98f7 223e 0f88 cf3d 5d5d 47bd b446 4f3e
00000070: 532e bd3c 3a6e ddbd d3cb 1cbe 9268 a8bd
00000080: bf29 56be 7e0b de3d 3473 fb3c 948b b13d
00000090: 0bec 17be 96d9 05be 9ddc 11bd 0437 0f3e
000000a0: f8bb 1c3d f837 3d3d 164a 863d e17e 0e3e
000000b0: 4dd1 16bc 3957 fb3d d6f2 7d3b 3522 0d3d
000000c0: b226 5f3d 1576 323e dcc6 713d e9e8 91bb
000000d0: 878f b83e 79bb 41be 60e1 84be 21d3 153c
000000e0: acf5 42be 7b7b dabe 3493 053e 4481 a4bd
000000f0: 6077 d4bc 383d 063e 8fce 563e c5b9 723d
00000100: 771b 963d 2731 d13c 9178 fdbd aa77 083d
00000110: 26b1 783c 6c5a 013e 7570 7ebb efc9 20bc
00000120: cbcc 6f3e 98b9 b83d 3ded 81be f6b5 f0bd
00000130: 7929 423e 2805 7abe 47de 4bbe 553e 303e
00000140: 0d6d f5bc 1ecc 05be e065 913d d9da 233e
00000150: 0711 203e 8e23 123d a41d c5bc a515 943e
00000160: fc58 81be 146e 55be 164e a2bd bfad d03d
00000170: debc 623e e627 70be 99f3 c4bd 1846 16bd
00000180: e4b4 b23d dd17 bd3d 30ec 14be 5de6 0c3e
00000190: 8f1b 3cbd fde7 13bd 9ec1 44be c532 293e
000001a0: 7cb4 61bd 32c7 c63d 2263 d43c 30a7 333d
000001b0: 429c f1bd ce96 373e 20f6 34be 3343 27be
000001c0: 0e00 6d3c 6d7f ec3b 7980 36be 09a6 c9bb
000001d0: 6246 8d3e 88c6 1dbe b342 8ebe 20c5 75b7
000001e0: 0600 6c3e e46d 393e 2670 a3bc 5288 8ebe
000001f0: dabc c23d 9d41 373e 0200 7bbd b2c8 9b3c
00000200: 9c80 de3c 58c1 0f3d 0266 813e dcbf 1cbe
00000210: dee1 cf3d 4764 9ebd fc03 ce3d f7f2 68be
00000220: 8dd7 41be e5ce 203e e496 513e a56a b23d
00000230: 1952 5fbc b50a f33d a519 433e 83bd 9f3c
00000240: 7922 843c ca18 9c3d f600 c1bd c904 bebd
00000250: 8b3b 0abc fb49 45be 979e 53be 0425 9ebe
00000260: 11b6 b6bd bc8c d83d c433 183e fce4 c23d
00000270: 0d92 933d f439 963d 9521 793e 5e85 2b3e
00000280: 37ee 433e 6aae 423e 6804 3bbe 994b 9bbe
00000290: 1763 5dbe c548 88bc f925 92be 7274 8fbd
000002a0: 0daf 3b3e 6357 943d 9503 3a3e 56ad 86be
000002b0: fff0 d63c b42a 0c3e 02c4 de3d def3 583e
000002c0: 2215 413c 3853 213d 6f00 003e a0de 31be
000002d0: 7466 a83d bb1e 3e3e 08f6 b93c 2230 8f3a
000002e0: b0a0 ee3d 1d6e 883e ab86 9ebd eced 52be
000002f0: 32da 0fbd 2ddb d43d 09af 67be 9e80 75be
00000300: 8689 d6bd 7559 85be 54ba a0be a1aa 913c
00000310: 6e17 4bbe b27c 023b b3ff 7b3e 398c efbc
00000320: 11b1 113e 1543 553e d24e 4d3e a482 a93d
00000330: 64b0 c8bd bee6 b83d 4c3f c2bc 27c7 013d
00000340: 7b23 f7bd 5cd3 12bd 3605 ecbd 7745 c0bc
00000350: f166 953d 5b44 3abe 63a6 1e3d 3267 0dbe
00000360: 2f6f c13c 1262 d5bb 6726 e1ba 4a5e 17bd
00000370: 1ff6 853d 9d2c 373d d755 973d c153 cfbd
00000380: b75f 07bd 00ec 25bd cd8f 3ebd 9963 453c
00000390: 7721 12bd 0d58 f13d 487e cabd 6c75 8ebd
000003a0: 6aa7 c23d 840e 21be 6fd3 06bc 8cb8 d4bd
000003b0: dcfe e3bd 019d 093d dad0 94bd a165 563e
000003c0: eb0b 743d f058 943d e217 383d 1c22 40bd
000003d0: 5754 043e 1d6b d13d 3886 183e 7f4d 123e
000003e0: 101b 043c 1e52 a5bb e18c 61bd b503 fbbd
000003f0: 1215 0cbe 9014 08be bbdc 1ebd 56ee e63c
0.23731029 0.27442852 0.2317269 -0.115793005 -0.07242377 -0.17753938 -0.031670332 0.009229944
-0.073157445 0.017879812 -0.04558077 -0.036488257 -0.255889 -0.058862187 0.062767595 -0.10079112
0.15240274 -0.20559934 -0.21540803 -0.254991 -0.25283122 0.29639587 0.15674248 0.23776084
0.15914762 0.10133373 -0.048673023 0.20241815 0.023093378 -0.1081204 -0.15312128 -0.0822307
-0.20914362 0.10842036 0.030694582 0.086692005 -0.14836137 -0.13071284 -0.035610784 0.1398583
0.0382652 0.046195954 0.065570995 0.13915588 -0.009205175 0.12272496 0.0038749478 0.03445645
0.054480262 0.17427857 0.059027538 -0.004452814 0.36047003 -0.18919171 -0.25953197 0.009144575
-0.19039029 -0.42672333 0.13044435 -0.08032468 -0.025935829 0.1310929 0.20977233 0.059259195
0.07329457 0.025536133 -0.12376512 0.033317246 0.015178954 0.1263215 -0.0038824354 -0.00981377
0.23417966 0.09019774 -0.2537631 -0.11753456 0.18961133 -0.2441603 -0.19909011 0.17211278
-0.029959226 -0.13066146 0.07099509 0.16001453 0.15631495 0.03567844 -0.024061985 0.28922763
-0.25263202 -0.20842773 -0.0792505 0.101893894 0.2214236 -0.2345272 -0.09616775 -0.03668794
0.087259084 0.09233067 -0.14543223 0.13759752 -0.04592472 -0.036109913 -0.19214484 0.16523273
-0.055103764 0.09705962 0.025926176 0.043860614 -0.11797382 0.17928621 -0.17672014 -0.16334228
0.014465345 0.007217339 -0.17822446 -0.006153826 0.2759276 -0.15407765 -0.27785262 -1.4649035e-05
0.23046884 0.18108326 -0.019950937 -0.2783838 0.09508677 0.17896123 -0.061279304 0.019016597
0.027160935 0.035096496 0.25273138 -0.15307564 0.101505026 -0.0773397 0.10059354 -0.22748934
-0.18929882 0.15703924 0.20467716 0.08711747 -0.013630413 0.118672766 0.19052751 0.019499546
0.01612972 0.07621916 -0.094240114 -0.092782564 -0.008437048 -0.19266503 -0.20665966 -0.30887616
-0.08921445 0.10573718 0.14863497 0.095163316 0.07205591 0.073352724 0.24329217 0.16750094
0.1913384 0.19011846 -0.182634 -0.30331114 -0.21619831 -0.016636262 -0.28544596 -0.07004632
0.18328495 0.0724323 0.18165429 -0.2630412 0.026237963 0.13688165 0.10877229 0.21186778
0.011784824 0.039386004 0.12500165 -0.17370081 0.082226664 0.1856641 0.022700325 0.0010924379
0.116517425 0.2664651 -0.077405296 -0.20598572 -0.035120197 0.10393367 -0.22625364 -0.23974845
-0.10475449 -0.26044813 -0.31392157 0.017781558 -0.19833156 0.001991075 0.2460926 -0.029241668
0.14227702 0.20826371 0.20049599 0.08276871 -0.09799269 0.090283856 -0.023711823 0.031684067
-0.12067314 -0.0358461 -0.115244314 -0.023470623 0.07295025 -0.18190138 0.038732897 -0.13808897
0.023612587 -0.006511935 -0.0017177582 -0.036955155 0.065410845 0.04472028 0.073894195 -0.10123397
-0.033050265 -0.04050827 -0.046523858 0.012047672 -0.035676446 0.117843725 -0.098873675 -0.0695599
0.09504588 -0.15728194 -0.008229121 -0.10386762 -0.11132595 0.033596996 -0.07266398 0.20937206
0.05958168 0.07243526 0.04494465 -0.04690753 0.12922798 0.10225508 0.1489495 0.14287375
0.008063093 -0.0050451895 -0.055065993 -0.122565664 -0.13679913 -0.13289094 -0.038784724 0.02818982

conv.0.bias f4 [16]
00000000: 2929 c7bd fcd4 d8ba 28f8 ea3d bd60 88bb
00000010: f507 11bc 2167 6ebd 06e8 783d 5e44 c6bc
00000020: dc79 a3be 2f18 e5ba d723 60be 5152 7539
00000030: 8df9 8cbb 3315 70bd 44f0 8b3d 8f47 ee3d
-0.097246476 -0.0016542966 0.11473113 -0.0041619227 -0.008851995 -0.05820382 0.06076815 -0.024202522
-0.3192891 -0.0017478521 -0.21888672 0.00023395686 -0.0043022097 -0.058613967 0.068329364 0.116347425

conv.2.weight f4 [32, 16, 4, 4]
00000000: 03d0 46bd 691a 91bd 42a2 03be 4fbf 953b
00000010: e7c7 6bbd 20e5 1ebe 896a d3bd d437 ecbd
00000020: 18ef 60bd 378a dabd 83de 08bd 91a9 9ebd
00000030: 0594 823d 83c8 1ebd fffe e7bd abf6 01bd
00000040: ac1b 91bd 4968 15bd c20e 843d 4a17 0f3d
00000050: 26f1 71bd 668c 13bd c1de f8bb 7f46 b93d
00000060: aec6 08bd fc91 4b3d 9e55 eb3c 1886 aa3d
00000070: fac4 a3bc aca5 583d ca1a 1dbc bf17 d93c
00000080: 49e8 503d cdd7 8abc 1336 e63c 94ed 81bd
00000090: b7ed 283d 6ca1 9e3d b581 ea3c 6172 343d
000000a0: 5efe c2bc 8045 cbbb 4356 c1bc 8ef3 a43c
000000b0: 1582 dfbd 8328 3ebd 2815 2dbb 8495 43bd
000000c0: 119f 463d 32f3 8a3d 12c6 953d 9bd9 963d
000000d0: ca70 523d 7854 f93d 0fa3 843d 836b f63d
000000e0: 16c4 b13c 7b8b d93d 38cc 373d d43b ed3c
000000f0: bcff 6c3d 1b14 f93d aebb a03d d3ca 663d
00000100: 6718 e73c a7fe 83bd 0ee6 afbc 18d5 5bb9
00000110: 413b f5ba 815b 9d3b 1724 873c 0718 8b3c
00000120: 23b2 b93d 7ba9 ab3c d788 c63d c723 4a3c
00000130: e198 6e3d b6b9 063d 0aaf 143d a2f0 5d3d
00000140: 2013 83bd f51a 76bd 1ab0 c5bd c0af febd
00000150: 9a37 4cbc b54b d6bd 9acd fabd 50db 4bbd
00000160: c7e2 ec3b 486c 0bbe 01f6 98bc f1d9 09bd
00000170: d10f 37be a513 a9bd 52b8 c2bc 1331 f3ba
00000180: a4b7 823d bd53 9d3c 02cb 80bc dce1 0b3c
00000190: d337 31bd a842 f6bc b427 943d 9f69 a33d
000001a0: 2bca 7c3c 8346 8e3d 1f31 273c 0c2c f3bc
000001b0: d047 92bd ab2c fe3d 67ef e53d 8ecc 493d
000001c0: ce56 8ebd 85b2 70bd ec6c adbc d845 b3bd
000001d0: a91c 9cbb 3a34 7bbd 8178 52bd 229a 0eba
000001e0: 159e 9abd 3ced 8ebd 63c4 153d b94b aabb
000001f0: 4891 2ebe b535 b5bd 38c6 a0bd 51f9 c4bc
00000200: 60aa 133d dae7 f33b 39e1 cd3c 103b a4bd
00000210: 875e c83d def6 d13c defa ba3c d0cb 3c3d
00000220: cddf 9c3c 372a 01bd 212a 4a3d c40e 143d
00000230: 3d6e 8f3b c5fd 37bc e573 2ebd 5264 d2bb
00000240: 8fed 2ebd a7bd a1bc c906 183d 3b03 1c3d
00000250: abbd e6bd 27b3 95bd 6328 d0bb c972 023d
00000260: 7153 8abd 1c14 a23d b966 6d3d 0ddd f73c
00000270: 5772 22bd 4edd 4a3d c477 293e d194 173d
00000280: 5a44 27bd 5871 81bd 0039 d0bc 0ebf 26bc
00000290: 3deb ae3c 9c95 073c 3caf ddbd 111d 02bd
000002a0: fced 94bd efac 34bd c2ae a8bc f8d7 593d
000002b0: 5484 5fbd e729 a13d 190f fe3c 1195 16bd
000002c0: 8dec 343c 9721 b0bc 321e abbd 8e50 79bc
000002d0: d927 1b3d 5022 3e3d 53e0 e53c 7bd0 49bd
000002e0: 1f47 513d 1de5 d53b c9b6 9bbd 23d0 2c3d
000002f0: cf47 8c3d 4cc2 803d 3a27 6d3d a229 60bc
00000300: 4266 a9bd 79f0 4e3d ba43 743d 5588 dc3c
00000310: 2a54 a4bd 3bb9 683c 8320 cd3d 25dc 3d3d
00000320: 0728 a63b e609 bdbc 88b2 58bd 922b 1cbd
00000330: 9c16 593d 556c 763c aae2 66bc e81f f4bc
00000340: 4a5a 883d 540a 36bd 1fda 7abd 1dba 9abc
00000350: cd96 03bd b496 40bd 4798 6b3c 4925 8c3d
00000360: d263 bf3c cd2c 2fba 16a7 4b3d 42cb ab3d
00000370: 0c26 973d acd9 1bbd 1902 683b 7aaf 99bd
00000380: 2b6f 883d 973b 92bd d149 f73c 92ff 56bd
00000390: b9a6 83bc 8184 b23c 5fea 58bc 92b9 c0bc
000003a0: 0a95 62bc b2c6 a33d 28c4 d1bd 414f b7bc
000003b0: 8445 393d a38e c5bd 2753 503c 37e4 39bd
000003c0: dcac 5cbd 4264 1fbc 1268 673d 716b 8d3d
000003d0: 5eaf 6abd 6c0d 7e3d 7ebc 8bbd f13c 96bd
000003e0: 2fb5 09bc d419 bfbc c9b2 57bc e257 99bd
000003f0: 1015 9dbd 3d56 923d 1918 9cbd af95 5ebd
-0.04853822 -0.070851155 -0.12854865 0.004569925 -0.05756369 -0.15517092 -0.10323054 -0.11534086
-0.054915518 -0.10670894 -0.03341533 -0.07747186 0.06375889 -0.03876544 -0.113279335 -0.03172938
-0.07085356 -0.036476407 0.06448127 0.03493432 -0.059067868 -0.036022566 -0.0075949137 0.09046649
-0.0333926 0.04969977 0.028727349 0.083263576 -0.019991387 0.052892372 -0.009588907 0.02650058
0.051002774 -0.016948605 0.028101956 -0.063441426 0.041242328 0.077456325 0.028626302 0.044054393
-0.023802932 -0.0062033534 -0.023600703 0.020135667 -0.10913483 -0.046425354 -0.0026410315 -0.04775001
0.04849154 0.06784667 0.073131695 0.07365724 0.051377095 0.12174314 0.064764135 0.12032225
0.021699946 0.10622307 0.044872493 0.028959192 0.057861075 0.12162038 0.07848297 0.056345772
0.028209878 -0.064450555 -0.021472003 -0.00020964851 -0.0018709676 0.004802168 0.016496701 0.01697923
0.0906718 0.020954838 0.09694069 0.012337632 0.058251265 0.03289195 0.036299743 0.054184563
-0.06400132 -0.060084302 -0.09652729 -0.124358654 -0.012464428 -0.10463659 -0.12246247 -0.0497697
0.0072291824 -0.13615525 -0.018671991 -0.03365511 -0.17877127 -0.082557 -0.023769531 -0.0018554054
0.06382683 0.019204969 -0.015721802 0.008537736 -0.04326613 -0.030061081 0.07234135 0.0797913
0.01542906 0.06947043 0.0102045825 -0.02968409 -0.071426034 0.124108635 0.11227303 0.049267344
-0.069501504 -0.058764 -0.021170102 -0.08753556 -0.0047641587 -0.061329104 -0.051384453 -0.00054398377
-0.07549683 -0.069788426 0.036564242 -0.005197015 -0.17047608 -0.088481344 -0.07850307 -0.024044665
0.036051154 0.0074434103 0.025131809 -0.08019078 0.09783655 0.02563041 0.0228247 0.04609281
0.019149685 -0.0315344 0.049356584 0.036146894 0.004377155 -0.011229937 -0.042590994 -0.0064206505
-0.042707022 -0.019743754 0.037115846 0.03808902 -0.11266645 -0.07309561 -0.0063524707 0.03184775
-0.067541964 0.07913992 0.057959292 0.030256772 -0.039659824 0.04952746 0.16549593 0.037007157
-0.04083667 -0.06320447 -0.025417805 -0.010177387 0.021352405 0.008275416 -0.10824439 -0.031766
-0.072719544 -0.044110235 -0.020591144 0.05318448 -0.054569557 0.0786932 0.031013058 -0.036763255
0.011042726 -0.021500392 -0.08355369 -0.01521696 0.0378798 0.04641944 0.028061068 -0.049271088
0.051093217 0.0065275566 -0.07603223 0.042190682 0.06849634 0.06287059 0.057898737 -0.013681801
-0.08271457 0.0505223 0.0596349 0.026920477 -0.080238655 0.014204319 0.10015967 0.046352524
0.0050706896 -0.023076009 -0.052904636 -0.03812749 0.053000078 0.015040477 -0.014092127 -0.02980037
0.06657846 -0.044443443 -0.061243173 -0.018887574 -0.032126237 -0.04701872 0.0143795675 0.06843049
0.023363028 -0.0006682396 0.049719892 0.08388378 0.07380304 -0.038049385 0.003540164 -0.075041726
0.066618286 -0.07140272 0.030186566 -0.052489825 -0.01607071 0.021791698 -0.013239472 -0.023525987
-0.013829479 0.079968825 -0.10242492 -0.022376658 0.04523231 -0.096463464 0.012715138 -0.04538366
-0.05387579 -0.009728493 0.056495734 0.069052584 -0.05729615 0.06202452 -0.068230614 -0.073358424
-0.008405014 -0.023327745 -0.013165184 -0.074874654 -0.07670033 0.07145355 -0.07621784 -0.05434197

conv.2.bias f4 [32]
00000000: 590c 583d 7a62 963d 1824 d73d b263 d8bc
00000010: 2211 143c 33b9 5abc 2675 96bc c5f9 f73c
00000020: 3dfd 8cbb cbc4 da3c 2059 4dba 1e45 2a3e
00000030: b3b3 553a df9c 503d 9aa9 053d d195 633c
00000040: 7df0 773b fd3f 9bbd 9057 09bd 9b02 02bc
00000050: 7453 103c ba10 fbbc f206 b8bd c8b9 5a3b
00000060: 58d1 0cbd 5818 243c fe01 583d ea5d 41bd
00000070: 69d5 533d 60da 9fbd 8a06 71bc ee18 b23c
0.05274615 0.07343002 0.10504931 -0.026414726 0.009037288 -0.013349819 -0.018366408 0.030270467
-0.0043026493 0.026705166 -0.000783341 0.16627929 0.00081520824 0.050930854 0.032632448 0.0138906995
0.0037832551 -0.07580564 -0.03353077 -0.0079351915 0.008808959 -0.030647624 -0.089857 0.0033374894
-0.034379333 0.01001557 0.052736275 -0.047208704 0.051717196 -0.078053236 -0.014711032 0.021740403

conv.3.weight f4 [32]
00000000: 92a5 773f 162b 723f 2389 803f 68c2 893f
00000010: 2101 803f 9e42 623f b957 8c3f c48e 7a3f
00000020: 8925 873f de75 983f a6ec 833f fd91 6b3f
00000030: bb12 753f 9adc 803f 74ce 6b3f 32a1 693f
00000040: c51d 8e3f 77e8 8f3f cc20 883f f38f 6c3f
00000050: 6498 5f3f 07b1 8e3f dbb3 653f ad9c 803f
00000060: a541 6b3f b7ac 553f 6c50 703f 8f86 6c3f
00000070: 4c9e 703f 7467 743f ba05 423f fcae 803f
0.96737015 0.94596994 1.0041851 1.0762453 1.0000345 0.883829 1.0964271 0.97874093
1.055833 1.191097 1.0306594 0.92019635 0.95731705 1.0067322 0.921119 0.9126159
1.1102835 1.1242818 1.0635009 0.9240715 0.87341905 1.1147774 0.8972756 1.0047814
0.9189704 0.83466667 0.93872714 0.9239282 0.9399154 0.95470357 0.7578999 1.0053401

conv.3.bias f4 [32]
00000000: b674 fdbd 4cdc a2be df43 54be 1359 97be
00000010: e9ef 88be d5bb 2cbe 3541 25be f6af 99be
00000020: 12c3 f8bd 3705 86be 761d 88be 452b 11be
00000030: 4a27 84be 287d 2dbe c65b 80be a796 4dbe
00000040: 2a57 81be c0c2 3bbe e0f5 ffbd d644 22be
00000050: 4693 3ebe 1cae 38be ec47 52be 7ba0 05be
00000060: 7c0c ddbd d8b0 6ebd ea3c 55be c65b 84be
00000070: 7adb 9fbe 878d 34be 8b6a 853a 4b6b 8ebd
-0.123757765 -0.31808698 -0.20729016 -0.29560146 -0.26745537 -0.16868527 -0.16138156 -0.3001706
-0.12146582 -0.26175854 -0.26584977 -0.14176662 -0.25811225 -0.16942275 -0.25070018 -0.20077
-0.25261813 -0.1833601 -0.12498069 -0.15846571 -0.18610868 -0.18035167 -0.20535249 -0.130495
-0.10793397 -0.05827412 -0.20824018 -0.25851268 -0.31222135 -0.17632113 0.0010178847 -0.06954058

conv.3.running_mean f4 [32]
00000000: 4b0b 013d 0812 113e 4580 f03d f3c3 f7bd
00000010: 0518 5bbd da75 d63c 764c 4abe bead 293d
00000020: 0367 c6bd 466b d6bd 6cec 32bd f6d5 533e
00000030: deea da3d 6ac0 af3d fc13 273d 145a e5bb
00000040: 48c9 83bc 5948 5ebe 2dea 46be 63c8 043d
00000050: c78c a7bd 9103 24bd ac5e 09bd fc29 04bc
00000060: 6606 a8bd 9d59 4abe 2533 6cbd 639e 95bd
00000070: 0994 143d 1950 d5bd fe16 edbb dce7 85bd
0.03150491 0.14167035 0.117432155 -0.12097921 -0.053489704 0.026179243 -0.1975573 0.04142546
-0.09687617 -0.104696795 -0.0436825 0.20687088 0.106893286 0.08581622 0.040790543 -0.0069992635
-0.01608719 -0.21707286 -0.19425268 0.032417666 -0.08181148 -0.040042464 -0.03353755 -0.0080666505
-0.082043454 -0.19760747 -0.057665963 -0.073056005 0.03627399 -0.10415668 -0.007235407 -0.06538364

conv.3.running_var f4 [32]
00000000: 2672 a43b 8d74 113c eec7 fa3b cee8 153c
00000010: 7dde b03b 30d9 0e3c fdb8 ee3b 0f83 083c
00000020: 788b 183c 1be6 203c a62a 013c 5a8c 073c
00000030: ecfe 433c e344 183c 2843 193c dcf6 893b
00000040: d28b be3b cb9b 173c 3a1b 323c a301 d13b
00000050: db5f 523b 882a cf3b d58c f23b a2f2 193c
00000060: 20e8 bd3b 0636 383b 8bd9 ec3b 9205 9d3b
00000070: 540a e33b 2254 cc3b 5033 ef3a 5bcf d13b
0.0050184904 0.0088778855 0.007653228 0.009149743 0.0053976164 0.008718774 0.007285236 0.008332028
0.009310596 0.009820486 0.007883703 0.0082732085 0.011962634 0.009293768 0.00935439 0.004210336
0.0058150077 0.0092534525 0.010870749 0.006378369 0.0032100591 0.006322209 0.0074020424 0.009396227
0.0057954937 0.0028108372 0.0072280816 0.004791924 0.0069287214 0.0062356154 0.0018249545 0.0064028925

conv.5.weight f4 [64, 32, 4, 4]
00000000: 4f60 1b3c 7e05 6cbd a5a5 fa3b 42cd 04bd
00000010: e0e5 56bd 81ee d6bd 8202 cbbb bdd2 193d
00000020: 7313 ae3d df0f 95bb 2fda 57bd d7f7 3c3c
00000030: e71d 3c3d 1932 d2bb 17e8 583d 5f0e 493c
00000040: d96a f2bc aee0 ac3c 3a39 c33c 9b10 cc3b
00000050: 279a c9bb 514f 5ebd d676 cbbc 22cb c3bc
00000060: aeeb 0ebd a3e1 013d e375 fc3c 8ba2 a6bd
00000070: a94a f2bc 883a ee3c a96c 923b c7e1 893d
00000080: db0b 41bd 550c 273d c2fc 35bd ffcd c43d
00000090: 7095 cdbc 666c 92bd 9079 313b 7123 a0bc
000000a0: a32e 72bd 304e 7dbc 12f2 a6bc a85c 403d
000000b0: 738e 80bd 4d40 aabd 17a3 143d 499d 35bb
000000c0: c641 443d aea7 843c aed2 233d e548 02be
000000d0: 21cf 6e3d d788 563d 5d43 b7bc ad1b 5abb
000000e0: ef69 1e3d 425b 7b3c 533b 353d f085 e2bd
000000f0: 343d 4c3d 5e25 0e3d e393 55bc 4e66 b73c
00000100: c5f8 91bd de22 c93d a737 9f3b 9008 243d
00000110: 03c4 53bd 9518 4abb f00c 383c 4a04 d23d
00000120: 1a89 443d 7542 36bd 0a6f 9bbc 7c33 9b3c
00000130: af49 51bc 2cf3 1dbd a087 083d 2a99 793c
00000140: b773 753a bf4a 26bb bca0 35bd a2d5 bebc
00000150: 95c5 d73c d9a7 27bd 8226 963b 6b82 08bd
00000160: 8b87 a8bc 408c c0b6 21c5 0ebd 4d67 243c
00000170: 2205 21bd 5920 c4bc dcdc 743d 95db 423d
00000180: 5a1f 70bc a372 2ebd 3e78 e93d 9596 983d
00000190: 7fd8 98bd ecb1 163d 6487 a93c 4864 98bc
000001a0: 6956 4fbd c1e1 c2bc 105e 8d3d 8bb2 c23a
000001b0: 649f b0bd cacd 293d e262 b43a a620 cfbd
000001c0: 1902 023d dbd7 8bbd 569a d63c 28c5 ce3c
000001d0: c45b 973d cc6c 913c f3f3 89bd 98c9 9ebd
000001e0: a82e 5e3d 1c4b 3a3d b3ff 6b3d 1e80 b43d
000001f0: 0df4 bb3d 35cb ca3d 0f68 5a3d b2e7 fdbc
00000200: 13ea 30bc 4889 3dbc 44b1 bbbc 396a 173d
00000210: dd94 003c 2a41 80bb 337b 773d a2f2 673d
00000220: 5d89 c6bd 0c9f 0dbd 95af ef3d e969 033b
00000230: 8213 113c be69 533c 397c 74bd 2921 90bd
00000240: ce3a d23c 951f 313d 2866 1ebc dada 75bb
00000250: 5298 49bd 2472 c23c 098c 293d fbfe 9bbc
00000260: d6d8 54bd fabe 93bd 83b8 863d 032a 39bd
00000270: 7e44 89bc 44a4 873d 949f ac3d 0bd5 ca3b
00000280: 4bde f63d 122f 92bc 298a 463c 8764 a63d
00000290: 9d97 6a3d 34cc 6cbd e045 c6ba 4bdf 3cbd
000002a0: 7566 1bbc c8a9 9ebd adbd 96bd b3e5 52bc
000002b0: 9d60 253b 4cb9 4abd c770 14bb 212d 6e3d
000002c0: 61f8 30bc 0d49 82bb 4c9d 883c 4af6 04bd
000002d0: de22 333d 6d15 f13d 7d2b ccbd 656b 01bd
000002e0: f4b8 d83c b371 9cbc 88c9 8fbc 12d6 9d3c
000002f0: 0860 e43c eba9 7c3d 6529 bd3b 3bdb 74bd
00000300: 91bc ffbc 8a1f b53c 1296 413d 4086 853d
00000310: ba61 a9bd 52c9 b23c 9a17 b83b c818 253d
00000320: 72b7 15bd 6c7c 19bd ff0f 7d3d e55b 46bb
00000330: 8b44 ba3c cba9 3abd d7ec a5bc 9de7 7e3d
00000340: 8377 4f3d 982e 46bd 4505 cb3c 8e8f d23d
00000350: 8ca1 973c 987d ae3d 42b6 ae3d c6be fa3c
00000360: 8ac4 a53c d221 16bd e1f5 c83b 820c 543d
00000370: 75a1 15bd 897d b83b 7290 8a3b 3e87 393c
00000380: a4cc 263d 36c4 05bd e9f0 183b 8b6c b03d
00000390: 889a c4bd dc31 843d 3385 c1bc e9e9 223c
000003a0: e9f0 24bc 1029 623c 57a6 4ebd 7e71 a4bd
000003b0: 795a 0b3c b3f9 3b3c bb96 bfbd b14d 703c
000003c0: 03ac 90ba 2772 de3c 284b 94bd 8838 b5bd
000003d0: 4e29 743d c825 a2bc 7b62 793d ddb1 493d
000003e0: 0230 13bb 0b36 0abd 0efd 5a3d 7b9a 8dbd
000003f0: 52f6 1ebc 166c 9fbc 08bc da3c b5e9 073d
0.009483411 -0.057622425 0.007649141 -0.03242231 -0.05246532 -0.1049471 -0.0061953673 0.03755449
0.084998034 -0.004549011 -0.05269831 0.011533699 0.045926955 -0.0064146635 0.052955713 0.012271493
-0.029591965 0.02110323 0.023830999 0.0062275655 -0.0061524096 -0.05427486 -0.024836939 -0.023900572
-0.03489273 0.031709325 0.030817932 -0.08136471 -0.029576616 0.029080644 0.0044685197 0.06732517
-0.047130447 0.040783245 -0.0444305 0.09609603 -0.025095671 -0.071495816 0.0027080514 -0.01954815
-0.059126507 -0.015460536 -0.0203791 0.046963364 -0.0627717 -0.08313046 0.036288347 -0.0027712157
0.04791429 0.016193237 0.03999584 -0.1272312 0.058303002 0.052376594 -0.022370989 -0.0033280656
0.038675245 0.015341582 0.04424603 -0.11060703 0.049863055 0.034703605 -0.013035747 0.02238765
-0.07127527 0.098211035 0.004858929 0.04004723 -0.051700603 -0.0030837406 0.011233553 0.10254724
0.047982313 -0.044496972 -0.018973846 0.018945448 -0.012773915 -0.038561985 0.033332467 0.015234271
0.0009363251 -0.0025374142 -0.04434274 -0.023295227 0.026339332 -0.040931556 0.004582227 -0.0333275
-0.020572444 -5.738373e-06 -0.034855966 0.010034394 -0.039311536 -0.023941206 0.05978094 0.04757269
-0.014655912 -0.042589795 0.113998875 0.07450596 -0.07463168 0.036790773 0.020694442 -0.018602505
-0.050619517 -0.023789288 0.069027066 0.0014854235 -0.08624151 0.04145602 0.001376238 -0.10113649
0.03174028 -0.068282805 0.02619664 0.025240496 0.0739055 0.017752074 -0.06735983 -0.07753295
0.054243714 0.045481786 0.0576169 0.08813499 0.09177408 0.0990204 0.053321894 -0.03099427
-0.010797995 -0.011568375 -0.022911675 0.036966536 0.007847992 -0.003914018 0.060420226 0.056627877
-0.09694169 -0.034575507 0.117034115 0.002005214 0.008854749 0.012903629 -0.05968878 -0.07037575
0.025662806 0.04324301 -0.009667911 -0.003751448 -0.04921753 0.023736067 0.041393314 -0.019042483
-0.051964603 -0.0721416 0.065781616 -0.04520608 -0.016756292 0.06623128 0.084288746 0.0061899475
0.12054118 -0.01784471 0.012117901 0.08124643 0.057273496 -0.05781193 -0.0015127026 -0.046111386
-0.009484877 -0.07747227 -0.073603965 -0.012872147 0.0025234588 -0.04949312 -0.0022650228 0.058148507
-0.010801406 -0.0039759935 0.016676567 -0.032461442 0.043734424 0.11771665 -0.09969232 -0.03159656
0.02645538 -0.019097185 -0.017552152 0.019267116 0.027877823 0.061685484 0.005772757 -0.059779387
-0.031217845 0.022109766 0.04726226 0.06519747 -0.08270593 0.021824513 0.005618048 0.040306836
-0.0365519 -0.037472174 0.061782833 -0.0030267176 0.022737762 -0.045572083 -0.020254536 0.062232602
0.050651085 -0.04838428 0.024782786 0.10281287 0.018509649 0.08520049 0.08530857 0.030608546
0.020235319 -0.036653347 0.0061328267 0.05176974 -0.03653093 0.0056301993 0.004228645 0.011323748
0.040722504 -0.032657824 0.0023336953 0.08614453 -0.09599787 0.064548224 -0.023623085 0.009943464
-0.010067203 0.013803735 -0.050451603 -0.080294594 0.008505457 0.011473107 -0.093549214 0.014666961
-0.0011037592 0.027154041 -0.072408974 -0.08848673 0.059609704 -0.019793406 0.060884934 0.04924189
-0.0022459035 -0.033742946 0.053463988 -0.069142304 -0.009702282 -0.01946072 0.026700988 0.033181865

conv.5.bias f4 [64]
00000000: 9749 a23d 1900 7a3b 39a2 99bd fe48 56bd
00000010: e714 913d d45c e23b 107b cdbd 367e debb
00000020: 9ac5 a33d 2dd2 de3c 6e95 e0bc 5efa b2bb
00000030: a80a 9a3d 16fb 5fbc 7a9e 9bbd 1b1e 7a3c
00000040: 7aef ee3c da88 debb a254 dbba 550e 9dbc
00000050: 2c2b 873d 61cd 013c 4e8e 4a3d 921d f8bc
00000060: cf1d 693d c03b 913d cc06 b4bc 323e 32bd
00000070: d9e3 3e3d 8fda 133d a8b5 773d 57aa fe3c
00000080: f7d8 d3bd a785 c03c 0673 1c3d 4e5e 19bd
00000090: 5d45 713c 1782 443b 5f74 13bd 776e ceba
000000a0: f830 f43c 7dd3 113d 5e51 05bc 0973 1a3d
000000b0: 5aa9 8cbd be8f 95bd 7237 36bd f8bc 923d
000000c0: 4885 27bc 941c 733d 32af 623c 88d0 493c
000000d0: 3f1d b5bc 2f8a 12bd 8e28 1bbd 903a 24bc
000000e0: 22b0 4dbd 8cb6 44bd 46c4 a4bd ee06 723d
000000f0: b644 e73c 82ee 74bd ddaa 6abd 20ab 233d
0.079241924 0.003814703 -0.07501645 -0.052315705 0.07084065 0.0069080386 -0.10033238 -0.006789948
0.07996674 0.027199829 -0.027415004 -0.005461975 0.07521564 -0.013670703 -0.075985864 0.015265967
0.029166926 -0.0067912163 -0.0016733597 -0.019171873 0.06600031 0.007922501 0.04945212 -0.030287538
0.056913193 0.070914745 -0.021975897 -0.043516345 0.04660401 0.036097106 0.060475975 0.031087084
-0.10344117 0.02350123 0.038195632 -0.03744345 0.01472601 0.0029984766 -0.035999652 -0.0015749474
0.029808506 0.03560208 -0.008137075 0.037707362 -0.06868239 -0.07302807 -0.04448647 0.07164949
-0.010224648 0.059353426 0.013835715 0.012317784 -0.022108672 -0.035776313 -0.037880473 -0.010023728
-0.0502168 -0.048025653 -0.08045249 0.05908864 0.028231006 -0.05979777 -0.057291854 0.03995812

conv.6.weight f4 [64]
00000000: 1036 0540 54a1 ea3f e4f3 f43f 6013 d73f
00000010: 4d70 d53f a57f fe3f f9c2 0240 412f ec3f
00000020: 397b f13f c065 f83f 3df9 f53f ad0e e23f
00000030: 2d51 f13f d42d e03f c040 ed3f cf91 e93f
00000040: 8ad0 ee3f ae4f d63f 9c64 e53f e305 f93f
00000050: cb45 ee3f 079d f53f 2977 e43f 03a3 0140
00000060: d986 dd3f b3ee eb3f 31a8 0440 a8ee fc3f
00000070: 71c8 dd3f 2f95 fe3f 479d e13f 5007 dc3f
00000080: b7e3 f83f 6d7d f63f d096 f23f ac9c f83f
00000090: c26e ea3f f166 d03f 6e3a e03f d0cf f13f
000000a0: 1117 f93f 6486 e43f c83c e33f 6a91 ed3f
000000b0: 70e2 f93f 96a2 f93f bcd1 eb3f a93f f23f
000000c0: 564e f53f 8f7e 0440 ab72 ee3f c86a 0040
000000d0: 8999 da3f 1339 f03f 170d ff3f f8f2 e23f
000000e0: dbfd f03f 1578 f23f fee0 fa3f 3eba ee3f
000000f0: 107f f73f 4869 0340 de9c ec3f e7a2 fe3f
2.0814247 1.8330483 1.913693 1.6802788 1.6674896 1.9882704 2.0431502 1.8451921
1.886573 1.9406052 1.9216686 1.7660729 1.8852898 1.7513986 1.8535385 1.8247622
1.8657391 1.6743066 1.7921329 1.9454921 1.8615049 1.9188546 1.7848865 2.0255744
1.7306777 1.843222 2.0727656 1.9760332 1.7326795 1.9889277 1.7626122 1.7189732
1.9444493 1.9257027 1.8952274 1.9422812 1.8315051 1.6281415 1.7517831 1.8891544
1.9460164 1.7853513 1.7752924 1.8560002 1.9522228 1.9502742 1.8423381 1.8925678
1.9164531 2.0702245 1.8628744 2.0065174 1.7078105 1.8767418 1.992587 1.7730398
1.882747 1.8942896 1.9599912 1.8650587 1.9335651 2.0533009 1.8485372 1.9893464

conv.6.bias f4 [64]
00000000: 83c7 52be 5cfd 6ebd f174 cdbd e29f 43bc
00000010: 94b0 1d3e 194f aebd f1e4 bdbd 9b2a 34be
00000020: 7460 3bbe f1a5 c2bd 8210 85bd 3bac c6bd
00000030: 6be0 e8bd 78d7 febd ed1d 57be 3b18 eebd
00000040: 6a53 ccbd 9868 89bd 97ca 50be 8d5c 49be
00000050: 9b40 90bd 81ef e2bd ea31 88be b815 b2bd
00000060: 52bc 5abd 731f 1ebe 1fee 00be 0a51 e8bd
00000070: 429b 75bd ef9c 3ebd a30e 15bd afb7 76be
00000080: d735 bb3d 425a 0fbe e987 12be 7bce 91bd
00000090: e3f8 42be 6a31 d6bd bc9f c5bd a738 dfbd
000000a0: 6cc8 89bd 2f09 1d3d 70bb 8bbd ddda d2bd
000000b0: 957c 48be aa4a 27be c63a 26bd 99e3 1ebd
000000c0: a7fb 48be 148b f3bd 4d6a e33b 7498 5bbd
000000d0: 4037 dbbe e8b0 1e3d 71a4 ffbd 89ce 3fbe
000000e0: f800 b8bd acda b2bc 68da 05be 394f 08be
000000f0: 9030 09be a5e0 05be 8145 0bbe a9c1 8abd
-0.2058392 -0.05834709 -0.100320704 -0.0119399745 0.1539939 -0.085111804 -0.09272183 -0.17594378
-0.18298513 -0.09504307 -0.06497289 -0.09700819 -0.11370929 -0.12443441 -0.2100751 -0.11625715
-0.099768475 -0.06709403 -0.20389782 -0.19664212 -0.070435725 -0.11080838 -0.2660058 -0.08695549
-0.053402252 -0.15441684 -0.12590836 -0.11343582 -0.05996252 -0.046536382 -0.03639091 -0.24093507
0.091411285 -0.13999274 -0.14309658 -0.07119461 -0.19040255 -0.10458644 -0.096496075 -0.108994775
-0.067276806 0.038338836 -0.0682286 -0.10295651 -0.19578774 -0.16337076 -0.040583394 -0.038791273
-0.19627248 -0.118917614 0.0069401623 -0.053612188 -0.4281559 0.03874293 -0.124825366 -0.1873113
-0.0898456 -0.021832787 -0.13071597 -0.13311471 -0.13397431 -0.13073976 -0.13600732 -0.06775219

conv.6.running_mean f4 [64]
00000000: 8295 7e3e 41f9 dabd 200a 38be e3c6 883d
00000010: 0567 223e 93d5 4cbd f5df 8cbc b535 dbbd
00000020: 1ee2 193e 5334 ac3d be76 42be 6530 ef3e
00000030: a4b2 45be 62cf f43e 51f5 88bd fb56 40bf
00000040: e059 9a3d 4ed1 8cbe b20f 9bbe 1f36 4f3c
00000050: 5afa a8bd 1b01 28be ba28 c43c 02fb 19bf
00000060: 8622 d13d e94d 383e 9e06 1ebd eed9 983e
00000070: 4a2d 1d3e 2aa3 213e e074 413e a589 463f
00000080: 4c88 7dbe 7f56 a63c 3f09 933e 7921 d5be
00000090: 69f5 62bd 8c8d 4f3f a8b2 673e ab72 cabd
000000a0: 6501 633e 995c 14bc a6dc 95bd ecb8 2a3e
000000b0: 6808 07bf 3b93 a9be 1fae 0a3e 5a52 63bc
000000c0: e758 6d3e d1c4 e5bc 95d0 debd 5b48 26be
000000d0: d098 bd3e e85e 23be 9f6a 903d 2381 943e
000000e0: 93f4 ba3d bc5b 56bc 61dc 13bf 8ac6 6b3c
000000f0: 6b0b 133e 4b71 863d 4e6e 8abd 2a9f e7be
0.2486172 -0.10692073 -0.17972612 0.0667856 0.15859611 -0.050008368 -0.017196635 -0.10703603
0.15027663 0.084084176 -0.18990609 0.4671661 -0.19306427 0.4781447 -0.066874154 -0.7513272
0.075366735 -0.27503437 -0.30285412 0.012647181 -0.08250876 -0.16406672 0.023945201 -0.6014863
0.10211663 0.1799847 -0.03858053 0.29853767 0.15349308 0.15784898 0.1889224 0.7755378
-0.24759024 0.020304916 0.28717992 -0.416271 -0.055409823 0.8107536 0.22626746 -0.098851524
0.221685 -0.00905528 -0.07317476 0.16672105 -0.527472 -0.3312014 0.13542984 -0.013874615
0.23178445 -0.028047951 -0.108796276 -0.16238539 0.3703065 -0.15954173 0.07051586 0.29004773
0.0912868 -0.013083395 -0.57758147 0.014390597 0.14359824 0.06564578 -0.0675932 -0.4523862

conv.6.running_var f4 [64]
00000000: a340 343e 7252 193e 031a 563e 6bda b03e
00000010: cde5 6b3e 83af 4a3e d529 473e f5d1 2d3e
00000020: f499 313e 917e 463e f11a 2f3e a321 293e
00000030: cb16 5b3e 148a 6c3e 3435 8b3e 6fd3 2e3e
00000040: ed8f 393e eb6e 7f3e ea30 163e c493 323e
00000050: 5339 413e 92b7 4e3e 7ea5 303e 0553 4c3e
00000060: 4077 6a3e 9d35 253e 37e9 273e ffa4 153e
00000070: 5545 4a3e b116 353e 4d39 063e 1ce1 743e
00000080: d9fe 3a3e 7405 443e c507 673e 0ae7 403e
00000090: 9ed0 3c3e 8259 663e dd9c 3c3e bf23 273e
000000a0: e37e 3b3e dffe 253e 20f2 633e a46b 203e
000000b0: 192b 273e 733e 253e 4095 8e3e c0ec 183e
000000c0: 7380 263e 54fe 383e c853 2f3e 7f97 443e
000000d0: 0e17 9c3e 21a9 3e3e 8287 363e bfb1 233e
000000e0: fcfa 0f3e b7a8 3b3e 34e6 2f3e 1dd2 213e
000000f0: 250e 1e3e 3e47 3a3e 265d 333e a71a 403e
0.17602782 0.14972857 0.2090836 0.3454164 0.23036881 0.19793515 0.19449551 0.16974624
0.17343885 0.19384219 0.17100121 0.16516738 0.21395414 0.23099548 0.27189028 0.17072843
0.1812131 0.24944656 0.14667097 0.1743918 0.18869524 0.20187214 0.1725063 0.19953544
0.22897053 0.16133733 0.16397558 0.14613722 0.1975301 0.17684437 0.13107796 0.23913997
0.18261279 0.19142705 0.22561558 0.18838134 0.18438956 0.22495082 0.18419214 0.1632223
0.18310122 0.16210507 0.22260332 0.15666062 0.16325034 0.16137104 0.27848244 0.14934063
0.16259937 0.18065768 0.17121804 0.19198416 0.3048634 0.18619205 0.1782513 0.15985774
0.14060587 0.18326078 0.1717766 0.15802808 0.15435083 0.18191239 0.17516002 0.18760167

adv_head.weight f4 [1, 2304]
00000000: 6716 febb 8c24 ceb9 d685 113b 79a2 04bc
00000010: c220 de39 554a 223c 4fea 4dbc 8604 99bb
00000020: f0a3 053a 6a84 123b 9ca5 6bbb b130 0bba
00000030: f9a8 89bb 1fce fbbb dd74 323a 3dd5 c13b
00000040: 3506 293b ab79 793b 542f 8f3b 905c 4cbb
00000050: 4514 d93a 38fc 3abc a70b b9bb 2d0c acbb
00000060: e149 293b 1e49 bdba 062c 343c e050 553b
00000070: e923 cd3b 376c 203b 4bc4 153c f6ee ebbb
00000080: 2c55 4cbc 57f1 56bb 1bc0 0b3b 50f4 8bbb
00000090: ff11 11bc 7885 3abb 8565 9e3b 352b 3ebc
000000a0: 63cd 303b b236 4bba f812 0cbc dede 123b
000000b0: eaf7 fd39 39c8 53bc 020d 23bb ae7d 003c
000000c0: f4de e93b b97e 463c 342e 32bc fb02 303b
000000d0: 6e8e 36bc 2530 51bb 73c1 d6bb 71e1 a83b
000000e0: dcb7 c23b 4319 71ba 2569 d03b 31e1 08bc
000000f0: 4d69 4d3b 40fb b13b c339 afb9 a8f0 67ba
00000100: 8d22 b33b 8b38 c0bb ac16 86bb e008 983b
00000110: 53d8 a3ba a99c c8ba 61b5 ed3a d137 e5bb
00000120: 3f48 f4bb 9cbc fbba 64e1 93bb be96 e4bb
00000130: 384f 62bb 6880 d8ba 1f12 19bb 6bf5 e23a
00000140: 9b36 8cbb 1d0d 6d38 391d 60bb 59b9 b3ba
00000150: 2223 6d3b f4cf a33a 9620 e5ba 550c f0bb
00000160: 8e4a ceba 50da f1ba d324 46bc acb1 46bb
00000170: 8cd8 5f3a c11b 2ebc 1a2d b7ba daf3 b0bc
00000180: f844 a73a 9415 eabb dc4d 873b 4e3e a93b
00000190: ac78 e83b cdf6 adbb 8d30 c23b 68bb 153b
000001a0: 0bc0 1dbb 7c6b 313c 4a6d 7d3c 6035 f53b
000001b0: 2fd6 f6bb 09a2 84b9 10c2 9b3c 290a 8abc
000001c0: 21f1 7a3c 44b4 0d3a 9df0 15bc 52de 0838
000001d0: 1f05 a83c 97b6 bbbb 8eb4 6eba 7490 603a
000001e0: 7e7e 1bbc df2d 7a3b 0d0f c9bb 80d3 413b
000001f0: 3661 343b 6e1c 5d3c e02e 14bc 54ed 5b3a
00000200: 9c5d 553c ada3 123c 3e69 8eba c27f c0bb
00000210: a533 6cbb 9937 fc3a f386 453b 4ef7 413c
00000220: b6d6 c8bb 43f6 e53b ac50 a83a 495e e13b
00000230: 0c2c aa3b 2a04 523a ad12 593c 7e88 14bc
00000240: b1ce 883b 0e64 093c e669 903b 4e09 e33b
00000250: 7023 06bc bf11 303c 11fa ac3b 1e55 60ba
00000260: 8d3b 85ba 3e36 853a 10b7 7fb7 d0a1 94b7
00000270: a37a 4d3b 79f7 74ba 2bde 14bb 8d63 1d3a
00000280: f6ba fabb 238d 253b bd3d 93bb 08fe 4d3b
00000290: 6356 7dba cc4b 39bc 1aa4 23bc c851 5ebb
000002a0: 0426 3f3b 2e90 9e3b e4b4 50bb 30d6 84bb
000002b0: 6f11 24b9 70fb 70bb 40c8 ac3b b0e5 f03b
000002c0: eb8d 543b 1c3f 56bb aa01 88bb b7a0 dbba
000002d0: d7c5 9d3b f0b3 5d3b 66e4 3e3c 32ae 9c3b
000002e0: d54d 153c 7ee4 2abc f47c 15bc 79be eebb
000002f0: 5f44 ebba 5e0c d3ba ab9b fcbb b516 1fbc
00000300: d9fe c03b 400d 71b9 0b43 2f3b 34ab 78bc
00000310: 8907 40bb 0a53 d5b8 0800 913b 3d85 a8bb
00000320: 389a 69ba 7624 c5bb 6e6d 693a c52b d03b
00000330: 71a5 a03b e55e bc3b 4a0b 0f3b d074 bb3b
00000340: 9290 903b 1824 0f3a c107 8fba 49aa 2dbc
00000350: bced 493b 5fbe 58bc 7929 02bb a888 44bc
00000360: d855 38bc 1442 603b 2557 a639 3a99 ef39
00000370: 5b2b 493a 4e60 f2ba feb0 bdbb fdde 87bc
00000380: 6471 4fba 5130 a0b9 7c71 7a3b a97d ad3b
00000390: 80a2 e4bb da11 1b3b 19d1 acbb fea4 a2bb
000003a0: 8e2e 503a 1b29 f73b bfa0 04bc 800a e53a
000003b0: 22a8 d3ba adc2 3d3b dcd4 d1bb f438 e939
000003c0: 3e09 353b f169 54b9 7f54 f3bb af36 16bb
000003d0: ef23 9eba 0263 363a 8ac6 723b c2b3 54bb
000003e0: 78e2 943b 446d 7ebb ba45 623b 96bc d9ba
000003f0: c4b1 a1bb 4142 9fbb f5d4 ecbb 73cf e8bb
-0.0077541354 -0.0003931861 0.0022205017 -0.008095377 0.00042367546 0.009905417 -0.012568071 -0.0046697287
0.0005097976 0.0022356757 -0.0035956865 -0.0005309685 -0.0042010513 -0.0076844837 0.0006807575 0.0059153126
0.0025791053 0.0038066905 0.0043696556 -0.0031183101 0.0016561827 -0.011412673 -0.005647141 -0.005250475
0.0025831389 -0.0014441346 0.010996824 0.0032549426 0.0062603843 0.0024478564 0.009141038 -0.007200117
-0.012471478 -0.0032797658 0.002132422 -0.0042710677 -0.008854388 -0.0028460901 0.0048338794 -0.011606981
0.0026977889 -0.00077519857 -0.008549444 0.0022410671 0.0004844063 -0.012926155 -0.002487958 0.007842464
0.007137174 0.012115174 -0.0108752735 0.0026857245 -0.011142356 -0.0031919566 -0.0065538227 0.005153828
0.005942328 -0.00091971847 0.0063601905 -0.008354471 0.0031343282 0.0054315627 -0.00033421637 -0.0008847811
0.0054667653 -0.0058661154 -0.004092058 0.00463973 -0.0012500383 -0.0015305477 0.001813572 -0.006995179
-0.0074549015 -0.001920599 -0.0045129526 -0.0069759777 -0.0034532081 -0.001651776 -0.0023356748 0.0017315572
-0.0042789704 5.6517416e-05 -0.0034197106 -0.0013711854 0.003618427 0.0012497888 -0.0017481025 -0.007325689
-0.0015738772 -0.0018451903 -0.0120937405 -0.0030318303 0.0008539043 -0.010626734 -0.0013975233 -0.021600652
0.0012761643 -0.0071436856 0.0041291546 0.005164898 0.0070944633 -0.005308962 0.005926198 0.0022847299
-0.0024070765 0.010828849 0.015467951 0.0074831694 -0.007532857 -0.00025297728 0.019013435 -0.016850548
0.015316279 0.0005405585 -0.009151605 3.263198e-05 0.020510254 -0.0057285535 -0.0009105884 0.0008566447
-0.009490607 0.0038174314 -0.0061358274 0.0029575527 0.0027523763 0.013495548 -0.009044379 0.00083895517
0.0130228065 0.008950156 -0.0010865105 -0.005874605 -0.0036041525 0.0019242644 0.003014025 0.011838747
-0.006129111 0.007017882 0.0012841425 0.0068776947 0.005193239 0.0008011485 0.013249082 -0.009065745
0.00417503 0.008385671 0.0044071553 0.0069285994 -0.00818716 0.0107464185 0.0052788337 -0.00085576053
-0.0010164842 0.001016326 -1.5241807e-05 -1.7718325e-05 0.0031353615 -0.00093447376 -0.002271543 0.0006003909
-0.007651682 0.0025261126 -0.0044934438 0.0031431932 -0.00096640567 -0.011309575 -0.009987855 -0.0033923257
0.0029166946 0.004838965 -0.00318461 -0.0040538535 -0.00015646753 -0.0036770962 0.005272895 0.0073515996
0.0032433223 -0.0032691425 -0.004150589 -0.0016756271 0.004814844 0.0033829175 0.011651134 0.004781508
0.009112795 -0.010430453 -0.009124029 -0.0072858897 -0.0017949453 -0.0016101708 -0.0077089868 -0.009710004
0.005889755 -0.00022988487 0.0026742842 -0.015177537 -0.0029301366 -0.00010172099 0.0044250526 -0.0051428364
-0.0008911225 -0.0060163094 0.0008904551 0.006352874 0.0049025347 0.005748617 0.0021826797 0.0057207122
0.0044117654 0.00054603955 -0.0010912345 -0.010599681 0.0030811867 -0.013228982 -0.0019861145 -0.011995472
-0.0112509355 0.0034219073 0.00031726915 0.00045699795 0.0007674002 -0.0018491836 -0.0057889214 -0.016585821
-0.000791332 -0.00030553577 0.0038214615 0.005294521 -0.0069773793 0.0023661763 -0.00527395 -0.0049635163
0.00079415075 0.007542742 -0.0080949655 0.0017474443 -0.001614813 0.0028955147 -0.0064035486 0.00044483657
0.0027623917 -0.00020257362 -0.007425844 -0.0022920778 -0.0012065152 0.00069575023 0.0037044608 -0.0032455777
0.0045435987 -0.0038822452 0.0034526424 -0.0016611989 -0.0049345214 -0.004860193 -0.007227535 -0.007104808

cls_head.weight f4 [7, 2304]
00000000: 8d69 583d 4e96 40be d7bd 48be 5abf 373d
00000010: e208 a93b 645d e13b b983 b73b 0ab2 4a3e
00000020: 7b8e 623b 46e8 103d 6c1f e9bc e839 65bd
00000030: c740 b8bd 57bf dbbd 0f68 993d af40 36bd
00000040: d4ee febc d177 d03d 128a 7d3e eedf 02bd
00000050: 5546 e13d 4aa2 d13d 44fd df3d 0eb8 263c
00000060: b47a 8abe c2f1 70bc aa87 6f3e 6032 de3d
00000070: 137c 023e 2705 88bd 351a 1bbe 551a 783c
00000080: 9a81 9cbd c5b6 663e 64aa d93a 7cea 04be
00000090: 2589 92bb 77aa 643e 1dcd 7d3e fa10 73bd
000000a0: fe2e 67bc 0790 d6bd 46b5 fe3d f23b 4c3d
000000b0: cc89 70bd 2dba f4bd 7e31 80bd b2fd 9d3d
000000c0: abec bd3d 990a 20be 26f3 6dbd ab42 8e3d
000000d0: cbb9 953d 26b8 2dbc aff2 debd 6bc9 d63d
000000e0: b191 8abe 10b2 0e3e 79f0 3e3e 715b 8d3d
000000f0: 1076 5ebd 1a66 623e a080 683d 9763 b53d
00000100: 99c8 983d 51d8 9bbd b8b7 68bd d4fc 88bd
00000110: 2f1e 75bd f63a 4a3d d77f 753c c1a4 8d3c
00000120: 4000 b73d efd5 ef3b fa1c f2bd a67e 6f3b
00000130: f678 f83c f1dd d13d cd41 e5bd e528 17be
00000140: 8883 87be 3943 87be b177 85be b752 44bd
00000150: c29f 25be 1b26 4fbd 8ea1 f8bd c758 40bc
00000160: 7fa9 d93c 2333 423d b917 c83d d2e8 6fbe
00000170: 7125 35be e94a 873e fafc 643e 65c2 843d
00000180: d6d3 8fbc bc98 23be 1682 35bd 462c 563e
00000190: c90b 693d 3377 f1bc 61c6 b8ba 0dea 00bd
000001a0: 47f6 883d 2d96 123d 23ad ea3d 4a2c b13d
000001b0: 7aca 173c d0c4 1a3e 30ad 20bc b4a5 14bd
000001c0: def5 173b 27ad 4c3d 1502 2c3d 7cf0 c4bd
000001d0: 659c ffbd 8c4e 0a3e b3c1 b93c cef4 1fbd
000001e0: 3912 433d b8b4 6d3d 6b47 d13d 01f3 96be
000001f0: af8c 713d 28cc e03d 8fc8 afbd 5016 aa3d
00000200: 68e7 933d 5a75 a13c f4d3 06bd 27b7 a03d
00000210: 002b 12bd 6edd fe3d 6db9 f23d b25f 2cbe
00000220: dd4c 043e f7be 38bd d9ff 8f3d 5407 3abd
00000230: 326b 8bbd c74c ef3c 9ce1 9cbd a7a0 03be
00000240: 21e9 b4bc 1d09 e33d 9e6a a33d ee2b 09be
00000250: 6146 88bd b826 813d f480 dbbb fe0f 003d
00000260: 147e 08be 8392 00be 690c a5bd b8ca be3d
00000270: ee65 483d 6188 c63b 7822 87bd b401 d9bd
00000280: 5e0e aebe bf74 e83b 093c 2d3c 9c4c 043e
00000290: 76d0 9a3c 753f 073e a4ce 34bd 142a 843c
000002a0: 0855 80bd c293 bcbd 88a3 0abd 194e 183d
000002b0: 9d9a 5b3e b52d 93bd 61a4 ffbd c6cb 253d
000002c0: 4e1f 6dbe e162 853e 037e 9dbc 4947 0bbe
000002d0: 7395 9cbd ce17 333d c004 d4bc 62d4 9cbd
000002e0: a922 0fbc 5872 913d 9fff 2f3e 6c18 c7bd
000002f0: 3db9 a9bd dd32 673e 52ad 75be b704 0fbd
00000300: d4e8 d8bd 0e2d 393d 1e0f c73d a06a 15be
00000310: d2ee 1abd 7ccc 9a3c c2f3 e9bd 3e35 5ebc
00000320: 2957 273e 5cc6 babd 7b49 0c3e 5bc2 eabc
00000330: f678 b4bd 124d 243e 1288 59bc 5716 f2bd
00000340: 070a 37bd 6985 7e3e a60b 44be 6a39 723e
00000350: 2bbe 73be 34d4 63bc 5722 4f3e a1b5 bb3d
00000360: c992 dc3b aa5e 833d c0ad 3bbd 7914 a1be
00000370: 5b8f 313e 73c4 02bd c5ef 803d 1e84 e8bd
00000380: 98cc 8ebe 5474 0bbe 8034 8cbc d4a2 b03d
00000390: d777 ad3c b4eb 3b3d 0d22 e23d 691a c23d
000003a0: e72d 253d abb9 95bb 54ff 293d 90ca 36bd
000003b0: 3374 e13d 6a04 c13d 07b8 3e3e 8b5c 133d
000003c0: 1733 c2bd eaa5 59be 92f3 a8bc 7c1f ca3d
000003d0: 55b0 3b3e 06eb 9c3d 7883 c43d dc2f b03d
000003e0: ad7c 2bbe 4414 b3bd 0638 233d ec5f 863d
000003f0: e12a aa3d 8de0 823d cea7 e53d c24c 763e
0.052835036 -0.18807337 -0.19603668 0.04486022 0.0051585296 0.006877588 0.0056004194 0.19794479
0.0034569788 0.035377763 -0.028457366 -0.055963427 -0.0899673 -0.107298546 0.07490551 -0.04449528
-0.031119741 0.10179103 0.24759701 -0.031951837 0.10999743 0.10236032 0.109369785 0.010175718
-0.2704674 -0.014706077 0.23391595 0.10849452 0.12742643 -0.06641608 -0.15146716 0.015142997
-0.07641907 0.22530659 0.0016606566 -0.12980074 -0.0044719153 0.22330652 0.24785276 -0.059342362
-0.014110325 -0.1047669 0.12436919 0.049861856 -0.058725163 -0.11949573 -0.0625944 0.07714404
0.092736565 -0.15629043 -0.058093213 0.0694631 0.07310828 -0.010602986 -0.10886132 0.10487636
-0.2706428 0.13935113 0.1864642 0.06902207 -0.054311812 0.22109261 0.05676329 0.08856886
0.07460136 -0.076096185 -0.056815833 -0.06688848 -0.05984324 0.049372636 0.014984093 0.017290475
0.089355946 0.007319204 -0.11821933 0.0036543994 0.030331116 0.1024741 -0.11194191 -0.14761694
-0.26467538 -0.26418474 -0.2606788 -0.047930446 -0.16174224 -0.05057345 -0.12140189 -0.011739916
0.02657008 0.04741205 0.0977015 -0.23428658 -0.17690064 0.2642434 0.22362128 0.0648239
-0.017557066 -0.15976232 -0.044313513 0.20915326 0.056896005 -0.029475784 -0.0014097207 -0.03147321
0.06687599 0.03578775 0.114588045 0.086510256 0.009264583 0.1511414 -0.009806916 -0.03629084
0.002318732 0.04996982 0.041994173 -0.09616181 -0.12481002 0.13506526 0.02267537 -0.039051823
0.0476248 0.058033675 0.102187 -0.29482272 0.058972057 0.1097644 -0.085831754 0.08305037
0.072218716 0.019709278 -0.032916978 0.078474335 -0.03568554 0.12444578 0.118517734 -0.1683338
0.12919946 -0.045103993 0.07031221 -0.045417145 -0.06807555 0.029211415 -0.07660219 -0.12854253
-0.02208382 0.110857226 0.0797932 -0.13395664 -0.06654049 0.06306213 -0.006698722 0.03126525
-0.13329345 -0.1255589 -0.08059008 0.09316009 0.048925333 0.006058738 -0.06598371 -0.10596028
-0.33995336 0.0070939953 0.0105733955 0.12919849 0.01889823 0.132078 -0.04414238 0.016133346
-0.062662184 -0.0920787 -0.03384736 0.037183855 0.21445699 -0.07186452 -0.12482525 0.040477537
-0.23156473 0.26052 -0.019225126 -0.13601412 -0.07645693 0.043723874 -0.025881171 -0.07657696
-0.008736291 0.071018875 0.17187355 -0.09721455 -0.082872845 0.22577997 -0.23991898 -0.034916606
-0.105912834 0.045208983 0.0971968 -0.14591455 -0.037825413 0.018896334 -0.11423446 -0.013562499
0.16341843 -0.09119865 0.13699906 -0.028657129 -0.08812134 0.16045025 -0.013277071 -0.11820667
-0.044687297 0.2485558 -0.19145069 0.23654714 -0.23803012 -0.013905574 0.20227943 0.09165502
0.0067313653 0.0641454 -0.045819998 -0.31460932 0.17339842 -0.03192563 0.062957324 -0.11353324
-0.27890468 -0.13618594 -0.017114878 0.08624807 0.021175308 0.04587908 0.11041651 0.094776936
0.04032698 -0.0045692525 0.041503266 -0.044626772 0.11008491 0.0942467 0.18624888 0.035976928
-0.09482401 -0.21254697 -0.020623956 0.098692864 0.18328984 0.07662015 0.09595388 0.086028785
-0.16746779 -0.087441 0.03984835 0.065612644 0.0830896 0.06390486 0.11213647 0.24052718

cls_head.bias f4 [7]
00000000: 2414 28bc ff1f 27bd 243a 99bc cef9 b73c
00000010: e2a3 14bc 0110 a63c eab3 c03b
-0.010258708 -0.040802 -0.018704481 0.022457983 -0.009072276 0.020271303 0.0058808224
