src/facexpr/cGen+cDis/Version 1.7Final/weight/disc_ep150.pth (torch, 247605 bytes, 17 tensors)

conv.0.weight f4 [16, 1, 4, 4]
00000000: ed1a 713e 1857 8a3e b096 693e 4e93 e4bd
00000010: 8994 98bd 3c76 32be 5507 0cbd 75ae 363c
00000020: 965a 92bd df86 983c 2ef4 34bd 938f 1fbd
00000030: 47d8 80be 62ff 75bd 4f25 743d 6eea ccbd
00000040: 1a9b 203e 4e66 54be 34c7 58be fa0f 7fbe
00000050: 7600 80be 7666 953e e8b7 1f3e 6b6a 6e3e
00000060: 64b8 213e a791 cf3d 0c78 61bd 2bca 4c3e
00000070: ee9a d33c 4838 dcbd b575 1ebe 6436 aebd
00000080: 5967 52be a83f dc3d dc1b 0a3d f680 b43d
00000090: c666 18be 243a 08be 5f0e 11bd 54ea 113e
000000a0: 3c5d 0d3d 68ef 3d3d e31b 863d 41c8 0f3e
000000b0: f795 a2bb 94f3 ec3d 7c9a df3b 36a1 fd3c
000000c0: f8d5 623d 6236 2c3e 700f 723d fa38 3ebb
000000d0: 8827 b63e 813a 48be b4da 82be 3458 333c
000000e0: 2570 41be de2e d7be 586c 083e 8d53 b6bd
000000f0: 9355 f5bc 2a3b 083e add8 4f3e 6c7b 843d
00000100: 7ee6 a33d cc95 c03c c638 04be 27c1 ff3c
00000110: 9f24 573c 7fb4 f53d 6009 f9b9 5ee0 21bc
00000120: 2807 6d3e 95de be3d dcbc 80be 3070 edbd
00000130: 595f 3e3e e158 73be e886 49be 2abb 2c3e
00000140: 2d67 09bd 9812 01be 77b5 863d f949 213e
00000150: 1c2c 213e dbd3 1e3d 3dd6 c5bc 94f6 913e
00000160: e1f2 80be c4d2 4ebe 3b0f a5bd e8ee d63d
00000170: 4ead 613e 1b1f 6bbe fe9b c4bd a433 17bd
00000180: 95f0 b23d b1a9 b53d fbb8 10be fe49 0a3e
00000190: 6503 45bd 277c f8bc 31af 3fbe e078 283e
000001a0: bb2e 4cbd ff19 c73d 0bf5 d03c bd28 283d
000001b0: fe1d e4bd a583 373e 1ec5 3abe a5ab 25be
000001c0: a7ea 703c 9cb5 3b3c 5611 36be 79f9 89bc
000001d0: 45e9 8b3e 6dba 1fbe 8fea 8bbe e87e 36b9
000001e0: 5d5b 6d3e eb4f 353e 9536 8fbc aad9 8ebe
000001f0: ac19 cd3d de77 333e 306d 81bd 863c b63c
00000200: 82b6 e13c a06f 153d 5037 7a3e 309e 20be
00000210: 95cc c93d d7dc 97bd 1208 db3d 40e1 69be
00000220: bbb9 41be 153c 1d3e f123 583e c379 b73d
00000230: a3d8 3cbc 7adf fa3d 4dd8 3c3e 3166 a23c
00000240: e283 663c 84a7 973d 111c bebd f62d c5bd
00000250: fd1d b4bb 29ef 3ebe 346c 50be 4897 9cbe
00000260: 62d2 b2bd 394d cd3d 0392 183e 3eb3 b63d
00000270: 5038 943d 7ff2 933d 9a2b 763e c5db 2c3e
00000280: 86c1 3d3e 2c0c 423e 1135 38be 4c7a 95be
00000290: 5884 61be 8725 90bc f68d 90be 92fd 81bd
000002a0: 299b 3f3e 155e 9a3d 4678 3c3e bb62 87be
000002b0: adf2 c33c 57fe 0e3e e0a7 d73d e8e6 523e
000002c0: 41bb 823c 26be 253d 3193 f63d 17a9 31be
000002d0: 7ca3 a83d 2ee5 373e 372f bc3c 7cc1 6f3b
000002e0: 2b93 ec3d 3fea 873e 75b6 a0bd 822c 4dbe
000002f0: 243f f2bc 68d0 d63d fdf5 67be 772f 7bbe
00000300: 4b76 c7bd 3b24 87be efcd 9dbe 792a a73c
00000310: 176f 52be 9ec9 353b 9c46 783e 937a 07bd
00000320: 8238 193e 0a6c 593e 6770 493e 3307 b13d
00000330: 7f5a d1bd 75c8 b93d c8ee c9bc 523b 113d
00000340: eb14 f8bd b9c9 0dbd d28a e8bd 4f61 e8bc
00000350: b0f9 8b3d 929e 38be 3f3c 143d 2dcb 06be
00000360: 17aa a83c e5a9 f5bb 71da 8ab9 bbe7 03bd
00000370: c521 843d 4c15 473d 7707 913d 64da cfbd
00000380: afb8 f5bc bc32 35bd b6cc 31bd c788 493c
00000390: b4dd 22bd bbcf eb3d d1ea c6bd 5746 94bd
000003a0: 21d9 c63d 4df4 24be 0766 52bc 56b5 d1bd
000003b0: 16c2 dfbd ea27 123d 7091 97bd 40ff 4e3e
000003c0: b80d 733d 1b51 8f3d 9eb5 263d cc91 42bd
000003d0: cbb7 043e c747 da3d d95a 1c3e d0f7 1c3e
000003e0: c3d3 a93b 1328 55bb e2d5 4cbd c53a 02be
000003f0: bf7c 0dbe 7285 04be dc80 36bd 4a91 e63c
0.23545428 0.27019572 0.22811389 -0.11160909 -0.07450206 -0.17427915 -0.03418668 0.011149992
-0.07146184 0.018618999 -0.04417818 -0.038955282 -0.25165007 -0.060058005 0.059605893 -0.100056514
0.15684167 -0.20742151 -0.2116974 -0.24908438 -0.25000352 0.29179734 0.15597498 0.23282783
0.15792996 0.10135203 -0.055046126 0.19998996 0.025830712 -0.10752922 -0.15474589 -0.08506468
-0.20547237 0.10754329 0.033717975 0.0881366 -0.14882955 -0.13303429 -0.035414096 0.14249545
0.034512743 0.046370894 0.06548288 0.14041235 -0.004961725 0.11569896 0.006823836 0.03096066
0.055379838 0.1681762 0.059096754 -0.002902566 0.35577035 -0.19553567 -0.25557482 0.010946322
-0.18890436 -0.42027944 0.1332258 -0.08902655 -0.029948032 0.1330382 0.20297499 0.06468853
0.08002947 0.023508929 -0.12912282 0.031220032 0.01313129 0.119973175 -0.00047499966 -0.009880153
0.23147261 0.09319798 -0.25144088 -0.11593664 0.1859106 -0.23764373 -0.19680369 0.16868272
-0.03354566 -0.12604749 0.065775804 0.15750875 0.15739483 0.03877626 -0.024150008 0.28508437
-0.25185302 -0.20197588 -0.080595456 0.104947865 0.22038767 -0.22961085 -0.09600066 -0.036914483
0.08737294 0.08870257 -0.14133064 0.13504788 -0.04809894 -0.030332638 -0.18719174 0.1645236
-0.049849253 0.09721755 0.02550747 0.041054476 -0.11138533 0.17921312 -0.18239257 -0.16178758
0.014704383 0.011456873 -0.1778005 -0.01684259 0.27326408 -0.1559846 -0.27327392 -0.00017404149
0.23179384 0.17706268 -0.017482081 -0.2790044 0.10014662 0.17526194 -0.06319654 0.022245657
0.027552847 0.036483407 0.24435163 -0.15685344 0.09853474 -0.07415169 0.10694899 -0.22839832
-0.18918507 0.1535495 0.2110746 0.08958771 -0.01152626 0.12249656 0.18441887 0.01982412
0.014069529 0.07404998 -0.09282697 -0.09627907 -0.005496739 -0.1864592 -0.20353776 -0.30584168
-0.087315336 0.10024495 0.14899449 0.089209065 0.07237303 0.07223987 0.2404007 0.1688071
0.18530855 0.18949956 -0.17988993 -0.29194868 -0.22023141 -0.01759602 -0.28233308 -0.06347193
0.18711533 0.07537476 0.18405256 -0.26442513 0.023919428 0.1396421 0.105300665 0.20595896
0.01595843 0.040464543 0.12039793 -0.17349659 0.08234307 0.17958519 0.022971733 0.0036583832
0.115515076 0.26545903 -0.07847301 -0.2003651 -0.029571123 0.10488969 -0.22652431 -0.24529825
-0.097393595 -0.2639483 -0.30821177 0.020405995 -0.2055019 0.0027738581 0.24245685 -0.03307588
0.14962962 0.2123262 0.19671784 0.08643951 -0.10222339 0.09071437 -0.024649993 0.035456963
-0.12113365 -0.034616206 -0.11354603 -0.028366713 0.068347335 -0.1802924 0.036190268 -0.13163443
0.020588918 -0.0074970596 -0.00026484163 -0.032203417 0.064517535 0.048604295 0.07081502 -0.101490766
-0.02999529 -0.044237837 -0.04340812 0.012300677 -0.039762214 0.11514231 -0.097127564 -0.07239979
0.09709383 -0.16108818 -0.012841708 -0.10239665 -0.10925691 0.035682596 -0.07400787 0.20214558
0.059339255 0.069978915 0.040700547 -0.047502324 0.12960736 0.10658222 0.1526903 0.15328908
0.0051827147 -0.0032525107 -0.050008662 -0.12717731 -0.13817118 -0.1294153 -0.044556484 0.028145451

conv.0.bias f4 [16]
00000000: 5980 cabd 03f4 3cba 0f6a f43d fd98 c9bb
00000010: 19a7 cebb 40d0 6fbd 2f63 833d 8a3f b6bc
00000020: 4adf a2be d4bc adba 93c2 59be e46a 11b8
00000030: f1d2 ddba 06e9 6fbd 9b1a 9a3d 3268 f23d
-0.098877616 -0.00072079914 0.119342916 -0.006152271 -0.0063065407 -0.058548212 0.06415402 -0.022247095
-0.3181098 -0.0013255128 -0.2126563 -3.4670244e-05 -0.0016923827 -0.058571838 0.07524606 0.1183628

conv.2.weight f4 [32, 16, 4, 4]
00000000: ae9c e2bc 79ac 81bd b956 ebbd 0490 67bb
00000010: 32a3 78bd 2643 19be 3cba c8bd e14b e9bd
00000020: 79a3 80bd eda3 adbd 63c1 1cbd db1f 82bd
00000030: 32b9 533d d2e9 f8bc 3fb8 c8bd 1e9f aabc
00000040: 25dd 8bbd 154c eebc 980d 9a3d 5f4a ae3c
00000050: 352b 77bd e00e e8bc ce38 643c 117f a13d
00000060: 4a7a 2dbd 4869 213d 2890 f73c 117d 8b3d
00000070: 8de6 b7bb f363 3a3d 4d70 913a 4f4f 183d
00000080: 4e42 273d afec a1bc d8d5 b13c c9a0 5bbd
00000090: 249a 193d c220 9e3d 0fb5 d83c 21b3 173d
000000a0: 86a5 9fbc fc4e e1bb f1c5 a6bc b9c1 ce3c
000000b0: b16b c8bd 7b2b 28bd 62fa eaba 2632 42bd
000000c0: 33a8 3c3d df3e 913d ce6f 823d 2ce3 8e3d
000000d0: 6693 4f3d 4089 f33d 70db 5a3d c270 fa3d
000000e0: 2a58 be3c d04f cd3d 6c8b 513d 8412 003d
000000f0: 460c 4e3d 279c ff3d 2101 a23d 43c5 5b3d
00000100: 0877 533c bdf4 92bd 36c2 7abc 3c33 a53b
00000110: dd80 c93b 2924 113c 9584 a53c b1a0 853c
00000120: f041 b43d faeb b83c febb a23d de70 4e3c
00000130: f922 733d e2c4 a23c 6cfd 0f3d f31e 673d
00000140: 9689 75bd f81d 72bd 6be0 bdbd aa28 02be
00000150: dd91 9abb e4aa c6bd ec30 01be 7151 48bd
00000160: ad51 03bb ec28 09be d122 adbc fc61 00bd
00000170: fa15 39be 1d17 85bd 10e8 c2bc ebfb a0bb
00000180: ee61 4c3d f281 e83c ad71 a6bc cb70 343c
00000190: b92d 09bd 9686 a0bc b4bc 8e3d ed5f 813d
000001a0: ff57 283c 632e 8c3d 35c4 2c3c ac25 50bc
000001b0: 812d 55bd 9834 f93d 6637 bb3d bfce 553d
000001c0: b195 93bd 2779 76bd 46f8 08bd 5bee a6bd
000001d0: e58c 7dbc 1d05 4cbd ff79 5cbd c00b fb3b
000001e0: 9fcf a9bd d024 7dbd 4938 263d 16ae ac3b
000001f0: 3bb2 2bbe 8bcc afbd b670 99bd 4c78 16bd
00000200: d4c0 423d 7cc0 bb3b 3d63 da3c 088f 9dbd
00000210: 1cd4 c63d 217f b33c 0eed d73c 5ee2 1f3d
00000220: 5386 dc3c 0556 febc a4be 323d b8d7 0a3d
00000230: 1f90 4cbb 82a6 55bb 6fef 1cbd 09c1 c53b
00000240: 257b 20bd 80b1 92bc 73c2 fe3c c858 313d
00000250: 818a d6bd fa28 8bbd 7e41 fdbb 837b fa3c
00000260: 15f3 5fbd e10d 953d be37 6f3d 42b1 9d3c
00000270: ae74 1dbd 9676 6b3d e5e2 1c3e a2be 333d
00000280: ca57 14bd 2202 70bd 66f2 02bd 33e3 5dbc
00000290: 2c68 853c 7207 b5bb 62b2 bfbd 3810 bbbc
000002a0: 44ef 8dbd a0e2 1ebd d5b0 7fbc 5785 4e3d
000002b0: 2ce4 34bd f222 883d 0f64 293d b441 95bc
000002c0: 1c27 3e3b 7945 93bc 5f9a 9fbd 6085 4bbc
000002d0: 4ad4 2b3d 948f 4f3d 1474 e03c 1218 4fbd
000002e0: a3a6 493d c582 853c a82f 8dbd 244c 243d
000002f0: df56 863d 90f1 7f3d b9b9 793d 9a2d bbbc
00000300: 292b afbd 0a9d 413d 6a34 783d d7e5 013d
00000310: abb1 9bbd 5172 9c3c ad9a be3d 7418 353d
00000320: fdc9 db3b 008f d4bc a2ec 42bd d0ea fdbc
00000330: 83e2 523d ed69 3d3c 8e46 75bc f836 10bd
00000340: 5b17 793d e1de 1ebd 400a 80bd 37d6 78bc
00000350: 0006 9cbc 1e93 3fbd ca04 2d3c 938f 843d
00000360: 339a b23c d9bc 47bb 5e5c 513d f32b b23d
00000370: 3355 903d 8c2d 05bd c344 863a ac92 96bd
00000380: 5a95 773d 80da 7bbd ed32 ee3c ab9b 58bd
00000390: e1e7 b4bc 2637 a43c 17bf 8cbc d112 ecbc
000003a0: e9c4 7dbc 69c4 8a3d 6e53 b7bd b1da c8bc
000003b0: 2013 243d 17c3 b7bd fe54 293c eae5 6dbd
000003c0: 9313 2abd c2f6 0cbc e4bb 403d a4e8 843d
000003d0: 5605 4dbd 3862 623d 0af0 90bd 1488 8cbd
000003e0: 3b6b b2bb 20f8 e6bc b702 9bbc 399f 87bd
000003f0: 6db2 8bbd f611 823d 31ba 96bd 3ac0 6dbd
-0.027662601 -0.06331725 -0.114911504 -0.0035333643 -0.06070251 -0.14967021 -0.098011464 -0.11391426
-0.0628118 -0.08478532 -0.038270365 -0.06353732 0.051690288 -0.030384932 -0.09800767 -0.020827826
-0.06829289 -0.029089013 0.07522124 0.021275697 -0.06034394 -0.028327405 0.013929559 0.07885564
-0.042352952 0.039407045 0.030220106 0.06810964 -0.0056122006 0.045505475 0.001109609 0.03718501
0.040834717 -0.01976618 0.021708414 -0.053620134 0.037500516 0.07721092 0.026453523 0.037036065
-0.019488107 -0.0068758707 -0.020358058 0.025238859 -0.097861655 -0.04105709 -0.0017927403 -0.047411107
0.046058845 0.0709207 0.06368981 0.06976923 0.05067768 0.11891413 0.05343193 0.12228538
0.0232354 0.10024989 0.051158354 0.031267658 0.050304674 0.124809556 0.079103716 0.05365492
0.012906797 -0.071755864 -0.015305093 0.005041508 0.006149395 0.008858719 0.020204822 0.016311975
0.08801639 0.02257346 0.07946013 0.012600152 0.059359524 0.019869272 0.03515379 0.056426
-0.059945665 -0.05911061 -0.0927132 -0.12710825 -0.0047170953 -0.097005635 -0.12616318 -0.048905794
-0.0020037696 -0.13394517 -0.021134766 -0.031343445 -0.1807479 -0.06498549 -0.023792297 -0.0049128435
0.04989808 0.028382275 -0.020317877 0.01101322 -0.03349087 -0.019595426 0.06969586 0.063171245
0.010274886 0.06844785 0.010544826 -0.012704294 -0.05204535 0.121682346 0.09141426 0.05219912
-0.07206286 -0.060174134 -0.033439897 -0.081509314 -0.015475486 -0.049809564 -0.053827282 0.007661313
-0.08291554 -0.061802685 0.04058102 0.005269776 -0.16767208 -0.08583935 -0.07492201 -0.036735818
0.047547176 0.005729733 0.026658649 -0.07693297 0.097084254 0.021911206 0.026358154 0.03903424
0.02691952 -0.031046877 0.04363884 0.03389713 -0.0031213833 -0.0032600467 -0.03831428 0.0060349745
-0.03917994 -0.017906904 0.03109858 0.04329756 -0.10475636 -0.06794925 -0.0077287545 0.030576473
-0.05467518 0.07278038 0.05840277 0.019249562 -0.038441353 0.05748614 0.15320928 0.043882973
-0.036216535 -0.058595784 -0.03196945 -0.013542938 0.016285025 -0.005524569 -0.09360196 -0.022834882
-0.06930402 -0.038790345 -0.015606125 0.05042013 -0.044162914 0.0664729 0.04135519 -0.018219806
0.002901501 -0.017977463 -0.07793116 -0.012421936 0.0419505 0.050674036 0.0273991 -0.050560065
0.049231183 0.016297707 -0.06893855 0.040111676 0.06559538 0.06248623 0.060968135 -0.022848893
-0.08553154 0.047268905 0.06059686 0.031713333 -0.07602247 0.019097479 0.09306846 0.044212773
0.0067074285 -0.025947094 -0.047588952 -0.030995756 0.05148555 0.011560899 -0.014970435 -0.035208672
0.06081329 -0.038786773 -0.06251955 -0.015187792 -0.01904583 -0.04677116 0.010560224 0.06472697
0.021802044 -0.0030477552 0.05111348 0.08699789 0.070475005 -0.03251414 0.0010243881 -0.07352194
0.060445167 -0.061487675 0.029077018 -0.05288283 -0.022083225 0.020045828 -0.017180962 -0.028817566
-0.015488842 0.067757435 -0.0895146 -0.024518343 0.0400573 -0.08972757 0.010335205 -0.05808059
-0.041522574 -0.0086037535 0.047054186 0.06489685 -0.050053917 0.05526945 -0.07077034 -0.06861892
-0.005444912 -0.028194487 -0.018922193 -0.06622166 -0.068211414 0.06351082 -0.07359732 -0.05804465

conv.2.bias f4 [32]
00000000: a78c 4c3d 1803 663d 62e8 ba3d 5b76 12bd
00000010: d2a2 a83c 444d d53c d9c1 1dbc 23b2 593d
00000020: dee2 cc3c 4c0a a7bb f623 64b9 ecdc 233e
00000030: c66f d0bc 5730 003d c9f9 e53c 608b e53c
00000040: 112b 703a c5d5 c4bd e932 9abc ced4 cd3b
00000050: 1490 393c f06a 47bc 0d3f a5bd 6f35 223c
00000060: c49f abbc f8c0 b13c 533e 9c3d b930 8cbd
00000070: 984e cd3c 74a5 4ebd 1951 27bd 022d c73c
0.049938824 0.056155294 0.09126355 -0.035757404 0.020585451 0.02603782 -0.009628736 0.0531484
0.025010522 -0.005097663 -0.00021757171 0.16002244 -0.025443923 0.0312961 0.028073208 0.02802056
0.0009161691 -0.09611086 -0.018823104 0.006281472 0.011325855 -0.012171492 -0.080686666 0.009900435
-0.020950206 0.02169846 0.07629075 -0.068452306 0.02506189 -0.050450757 -0.040848825 0.024313454

conv.3.weight f4 [32]
00000000: 5077 773f e1e6 743f e7b8 813f 5e77 883f
00000010: fca7 7f3f f3ed 633f 3e98 8b3f e616 793f
00000020: ad53 863f 97be 963f 7735 833f 0a1d 6d3f
00000030: 0250 753f f4f0 803f ed09 6d3f 183c 6b3f
00000040: 985a 8c3f eede 8e3f 2fce 873f f2b8 6d3f
00000050: 8b2c 613f 560a 8e3f 548f 653f 2e31 803f
00000060: 44b2 6b3f 6a3f 5b3f 24c7 713f aef5 6e3f
00000070: c136 6f3f 789f 763f e9aa 483f b211 813f
0.9666643 0.95664793 1.0134553 1.0661428 0.998657 0.89034957 1.0905836 0.97300565
1.0494286 1.1776913 1.0250691 0.92622435 0.9582521 1.0073533 0.9259327 0.9188857
1.0965147 1.1161783 1.0609797 0.9286033 0.8795859 1.1096904 0.89671826 1.0015008
0.92068887 0.8564364 0.9444449 0.9334363 0.9344292 0.9633708 0.7838579 1.0083525

conv.3.bias f4 [32]
00000000: 6439 debd 6755 98be 1149 4ebe c518 94be
00000010: 4807 83be 7d01 3bbe 7dce 27be d84a 9bbe
00000020: 65c8 e2bd 61f8 7fbe 1e63 83be 633c ffbd
00000030: 1574 80be 3ee4 32be f015 70be cca8 40be
00000040: e557 7abe ec07 3bbe 0ca0 d9bd da34 13be
00000050: ef25 39be c48f 2ebe 538e 55be 9f2f 07be
00000060: 0fe6 edbd f1b8 87bd ab0e 40be 50b0 85be
00000070: ae7e 9ebe e70e 2cbe 916b d4bb 68ab 94bd
-0.1085079 -0.29752657 -0.2014506 -0.28925148 -0.25591493 -0.18262286 -0.16387363 -0.3033054
-0.110733785 -0.24997093 -0.25661558 -0.1246269 -0.25088564 -0.1746988 -0.23445868 -0.18814391
-0.24447592 -0.1826474 -0.1062623 -0.1437563 -0.18080877 -0.1704703 -0.20855074 -0.1320176
-0.11616146 -0.06627072 -0.18755595 -0.26111078 -0.30956024 -0.1680256 -0.0064825495 -0.07259256

conv.3.running_mean f4 [32]
00000000: 473d cb3c 9101 e73d 1de4 dd3d 788c fdbd
00000010: 9473 12bd 6722 903d cf05 3fbe 0f10 493d
00000020: f6f3 80bd ca09 16be d001 33bd b30f 493e
00000030: f168 b93d 5ac0 5e3d 51eb 223d 7b21 2a3c
00000040: 051a c6bc f07a 79be d07e 2cbe 0be0 303d
00000050: 218c a6bd aa1b acbc d248 1dbd a902 60b9
00000060: 61d5 61bd bac8 25be d1ba d5bc 446d bebd
00000070: 6763 673a 5b4f 98bd c246 f2bc 4744 79bd
0.024809493 0.11279596 0.10834525 -0.12380308 -0.035754755 0.07037812 -0.1865456 0.04908758
-0.06296532 -0.14652172 -0.0437029 0.19634895 0.09053219 0.05438266 0.039775196 0.010383959
-0.024182329 -0.24363303 -0.1684525 0.043182414 -0.08132196 -0.021009285 -0.038399525 -0.00021363296
-0.055135135 -0.16189852 -0.026090058 -0.092981845 0.0008826763 -0.07437011 -0.029574756 -0.06085613

conv.3.running_var f4 [32]
00000000: fed5 9e3b e3a5 093c 2f91 ff3b 7d5d 133c
00000010: bcac a83b 1d7f 1b3c f2e8 f93b cb18 073c
00000020: 9a7f 1a3c 9912 1a3c 9a9c 0b3c 4f04 033c
00000030: 9faf 4a3c b7b6 143c b1ca 143c 8893 8f3b
00000040: 5c61 c43b e168 1b3c 35ed 3e3c 55dc d93b
00000050: b8d1 593b 617d b73b b486 083c c44d 0f3c
00000060: 04b5 c73b b078 263b f850 df3b 4859 933b
00000070: 4a85 d33b b42d cd3b dc01 ea3a 3e24 e83b
0.004847287 0.008401367 0.0077992897 0.008994457 0.0051475447 0.009490755 0.007626646 0.008245657
0.009429837 0.009403848 0.008521223 0.007996633 0.012370973 0.009076766 0.0090815285 0.004381601
0.0059930515 0.009485454 0.011653234 0.00664858 0.0033236574 0.005599663 0.008332897 0.008746568
0.006094577 0.0025401525 0.006815072 0.004496727 0.0064550983 0.0062615518 0.0017853337 0.0070843985

conv.5.weight f4 [64, 32, 4, 4]
00000000: ba9e 2a3c fa07 11bd de6a a13c 857a 24bd
00000010: 7f5b 85bd e783 dfbd 90fb 83ba d068 063d
00000020: 170e 903d a621 7a3c df7a 50bd db36 843c
00000030: 01b4 313d a0b6 303c c808 e13c 3988 e03b
00000040: 0101 50bc 57b8 da3c baab 093c 9f03 273c
00000050: 5ee2 b9bb a160 51bd 115e cdbc 32ac 90bc
00000060: d329 13bd 7118 923c 02fb ec3c 2ca8 67bd
00000070: f66c 1cbd 0445 9e3c 288e 353c d034 853d
00000080: cf6f f9bc 62dd 293d 9928 efbc 1a34 b73d
00000090: 170a e2bc 55cc 83bd e5d2 f0bb 5f33 08bc
000000a0: 00ba 57bd c7a2 0bbc 07c2 afbc deb7 273d
000000b0: 1647 8bbd af09 95bd 7484 003d 87f1 03bc
000000c0: 3d80 283d bd89 b13c d744 333d 30e6 d0bd
000000d0: 2909 6b3d 20c1 353d cccf fcbc 0e54 dabb
000000e0: 81c0 db3c b965 953b d420 f53c 217d cebd
000000f0: 99c6 5b3d ecbb 2e3d 8613 01bc 8100 1d3d
00000100: 6b15 8cbd e9b5 973d 130d 5b3c 0016 3b3d
00000110: 3b9c 50bd 2a2c 9cbb 63c5 b23c 5dd2 c13d
00000120: d3e5 1e3d 31f5 47bd f583 aebc 77ea b03c
00000130: cf06 9abc 1d15 43bd 4972 b03c 9c6c 963c
00000140: 4006 093b ab90 42ba 679c 07bd 0740 c6bc
00000150: 34a2 e23c be80 24bd 978a 15bc 029e 12bd
00000160: bf4c e2bc e2c9 f7ba 3482 adbc 09b0 923b
00000170: f201 39bd 1221 32bd 6972 973d dca2 1f3d
00000180: 0af3 4bbc 095c 2fbd 9f48 d83d 424b 8b3d
00000190: 20a9 87bd 19b3 113d 92d0 c63c 7466 fdbb
000001a0: ed60 66bd 034b 01bb 7c3c 7a3d 5408 49ba
000001b0: 4002 98bd 5b1d e23c c41f fdba cf87 d9bd
000001c0: 9bd5 e23c a6b6 84bd 37db 0f3d 22bd 8b3c
000001d0: 5b3a 8e3d 39c5 133b 9c7f 80bd 5e25 70bd
000001e0: 7052 523d 72c2 f33c 5e7f 2f3d 99aa a93d
000001f0: dfa2 a83d 02cd c83d 485e 603d eb7f adbc
00000200: fd44 7fbb 1ad2 34bc 46db c4bb 5f63 ef3c
00000210: 140b a63b d33e c3bb 2475 463d 1daa 513d
00000220: 4892 8fbd db72 f3bc 7927 e63d cccc df3a
00000230: abec 5f3b 8114 333c 8e77 6cbd 11c9 8cbd
00000240: da65 db3c c056 3a3d 1b61 553a e673 63bb
00000250: 444d 6abd c221 fd3c 63ec 1d3d fa40 9fbc
00000260: 3571 1dbd 4c99 9dbd 2115 603d 837f 1cbd
00000270: c18b a2bb 2fb2 723d 0047 903d f81d ef3b
00000280: cca5 e23d 4c59 61bc 63ec 063a 4e07 913d
00000290: c92e 533d 21c5 78bd dc5e 2abc c8bc 14bd
000002a0: 9dcd fcbb 5363 8bbd cbfb 84bd 87b0 97b9
000002b0: d0de 0cbc e9e4 57bd 0a40 f0ba 08b5 773d
000002c0: e159 64bc 2705 d53b 4036 af3c 1178 ccbc
000002d0: 84b1 753d 0601 e23d 94a0 c4bd b96b f9bc
000002e0: 0e3c d63c bb7b c6bc a358 d2bb e965 2a3c
000002f0: 29fe b03c 22d4 3c3d 3f29 6abb cff6 54bd
00000300: fd47 c6bc d622 fa3c aec1 263d 3296 6f3d
00000310: 5b51 b3bd 0b7f 933c 19ed 9f3c e2ae 093d
00000320: 7373 14bd 7247 2bbd 48d8 633d f115 38bc
00000330: c804 c43c 9d8b 6fbd 860c 3abc a3d4 7c3d
00000340: f3c5 453d 5255 30bd feda ce3c 6e52 c63d
00000350: 8e79 be3a 7d33 bc3d a97b ba3d 666c 023d
00000360: a170 8e3c 39b3 ebbc 64d6 e23b 444e 383d
00000370: 10d3 21bd da7b 933c 32f2 d3bb b1f4 1f3c
00000380: 1b57 153d 109c ecbc 5289 fdbb 7f01 9d3d
00000390: a491 9fbd c802 973d 09f6 0ebd 0898 b23b
000003a0: 995a 1ebc d6f1 173d 8df4 72bd 0bcf 93bd
000003b0: 8e0b bd3b af56 383c c900 a3bd 8058 893b
000003c0: 0b9c 7f3c adcf 103d c2f0 88bd fd55 b2bd
000003d0: f642 2c3d e556 1cbc d339 583d b0a1 363d
000003e0: 7852 c6ba fd42 dbbc 5198 2a3d e6be 80bd
000003f0: 1e98 47bc cd06 a1bc 6b90 d83c 741a c13c
0.01041382 -0.035407998 0.019704279 -0.040155906 -0.06511592 -0.1091383 -0.0010069478 0.0328148
0.070339374 0.0152668115 -0.05089843 0.016139438 0.043384556 0.010785729 0.027470008 0.0068521765
-0.012695552 0.026699228 0.008402759 0.010193734 -0.005672737 -0.051117543 -0.025069268 -0.017660234
-0.03592856 0.01783392 0.028928284 -0.056556866 -0.03818985 0.019320019 0.011081256 0.06504214
-0.030448822 0.041470893 -0.029194163 0.089454845 -0.027592702 -0.064354576 -0.0073493593 -0.008313029
-0.052667618 -0.008522696 -0.021454824 0.040946834 -0.06800668 -0.072772376 0.031376317 -0.00805319
0.041137923 0.021672124 0.043766823 -0.10200155 0.057381783 0.04437363 -0.030860804 -0.006662852
0.026825191 0.0045592454 0.02992288 -0.1008246 0.053656194 0.042659685 -0.00787819 0.03833056
-0.06840023 0.074077435 0.013369816 0.045675278 -0.050930243 -0.004766007 0.021822637 0.09463952
0.038793396 -0.048817817 -0.021303156 0.021596177 -0.018802075 -0.047627557 0.02153887 0.018362336
0.0020908266 -0.000742207 -0.03310814 -0.024200452 0.027665235 -0.04016184 -0.009127281 -0.03579522
-0.027624486 -0.001890477 -0.02118025 0.0044765514 -0.04516787 -0.04348857 0.07394869 0.038973674
-0.012448082 -0.04281238 0.105607264 0.06801464 -0.06624055 0.03557119 0.024269376 -0.0077331606
-0.05624478 -0.0019728548 0.06109284 -0.00076687825 -0.07422304 0.027601888 -0.0019311835 -0.106216066
0.027689746 -0.0648015 0.03512117 0.017057959 0.06944724 0.0022547974 -0.062743396 -0.058629386
0.05134815 0.029755805 0.042846076 0.08284492 0.0823419 0.09804727 0.054777414 -0.02117916
-0.0038951032 -0.01103642 -0.0060075847 0.029222189 0.0050672386 -0.005958417 0.048451558 0.051187623
-0.07010323 -0.029717853 0.112379976 0.0017074584 0.0034168165 0.0109301815 -0.057731204 -0.06874288
0.026781965 0.045492887 0.0008139775 -0.0034706532 -0.057202592 0.030899886 0.038555514 -0.019440163
-0.03843804 -0.07695255 0.05470765 -0.038207542 -0.0049605076 0.05925196 0.07044792 0.0072972737
0.110667795 -0.0137542 0.00051469187 0.070814714 0.05155829 -0.06073487 -0.010398593 -0.03631285
-0.0077149407 -0.06806054 -0.06493338 -0.00028932487 -0.0085980445 -0.05270854 -0.0018329632 0.06047538
-0.013937444 0.0065008583 0.021388173 -0.024959596 0.059983745 0.110353515 -0.0960094 -0.030446874
0.026151683 -0.024228921 -0.0064192577 0.010400274 0.021605568 0.046100743 -0.003573015 -0.051993188
-0.024204249 0.03053419 0.04071205 0.058492847 -0.08755752 0.018004915 0.019522237 0.033614047
-0.036242913 -0.041816182 0.055626184 -0.0112357 0.023928061 -0.058482755 -0.011355525 0.061726224
0.048284482 -0.043050118 0.025250908 0.09683691 0.0014532076 0.09189508 0.091056176 0.031841658
0.01738769 -0.028771983 0.00692253 0.044996515 -0.039507926 0.018003393 -0.006468081 0.009762929
0.036460023 -0.02888301 -0.007737317 0.07666301 -0.077914506 0.07373577 -0.034902606 0.0054502524
-0.009665155 0.037095867 -0.059315253 -0.07217225 0.0057691997 0.011251136 -0.07959134 0.004191458
0.015601168 0.035354305 -0.06686546 -0.08707807 0.042056046 -0.009542202 0.05278952 0.04458779
-0.0015130779 -0.026765341 0.041649166 -0.06286411 -0.012182264 -0.019656563 0.026436051 0.023572184

conv.5.bias f4 [64]
00000000: f115 853d 4a0d 12bb 35aa 7bbd 9f9f 3dbd
00000010: 0efe 6d3d 1736 733c e055 c6bd abbe 19bd
00000020: 2e2b a63d cbf2 da3c bd0b 4ebd cf27 943b
00000030: 85ab 953d e9bd d7bb ccc1 8bbd 64ad a5bb
00000040: 53cf 303c 60da a4bc 7a7c e83b 3d0f a2bc
00000050: 4181 863d 5122 643a ce72 663d 28e8 37bd
00000060: 42d4 a53d d7dd 783d a067 66bc 8171 51bd
00000070: e276 093d 7cbd f63c 2d2b 153d 204d d73c
00000080: a4d3 bdbd b166 a03c c882 0f3d 3bb8 05bd
00000090: 77fb 5f3c 5b27 4d3c 3327 41bd eded 58bc
000000a0: 646b 393d dc45 383d 5057 cd3b d1d8 d93c
000000b0: caf8 89bd cd11 8fbd ba0b d4bc 2eb7 683d
000000c0: be98 d2bc dc93 653d 0cd7 7439 f3af da3a
000000d0: 1abd 8cbc 8db2 0abd b0f0 3ebd 64fd 49bb
000000e0: 0bfd 1fbd 9f1b 6bbd f964 96bd c46b 283d
000000f0: a0b4 c33c c7d6 82bd af28 58bd 8d56 713d
0.064983256 -0.0022285753 -0.06144162 -0.046294805 0.058103614 0.014844439 -0.09684348 -0.03753535
0.081137046 0.0267271 -0.050304163 0.004521347 0.073081054 -0.0065839184 -0.06824073 -0.00505607
0.010791617 -0.02012366 0.007094917 -0.019782657 0.06567622 0.00087026233 0.05626183 -0.044899136
0.080971256 0.060758438 -0.014062792 -0.051133636 0.03356064 0.03011965 0.03641813 0.026281893
-0.09268883 0.019580217 0.035036832 -0.0326464 0.013670794 0.01252159 -0.047156524 -0.01324032
0.04526843 0.044988498 0.006266512 0.026592644 -0.06736906 -0.06985817 -0.025884498 0.05681532
-0.025707599 0.056049213 0.00023349765 0.0016684517 -0.017180014 -0.033861686 -0.046616256 -0.0030821199
-0.03905968 -0.05739939 -0.07343478 0.0411184 0.02388984 -0.06388622 -0.052773174 0.058920432

conv.6.weight f4 [64]
00000000: 3613 f63f 988b d93f b389 e13f 0813 cb3f
00000010: 909f c63f 373d ec3f f5ff f23f f41c db3f
00000020: 6b57 de3f 15d8 e53f c8b7 e33f 6334 d13f
00000030: 17d2 df3f 11ce d03f 319d da3f 16d9 d33f
00000040: 7a9b de3f 1428 c73f ad0f d53f 6bca e63f
00000050: af41 db3f de70 e23f a5eb d33f 217c f23f
00000060: b776 cd3f df20 dc3f d2d9 f63f e037 ea3f
00000070: 42c6 cd3f 8134 ec3f 4c30 cf3f 1b75 cd3f
00000080: 925d e63f 416b e43f d5d0 df3f 76c5 e33f
00000090: 095d dc3f 76aa c23f 6747 cf3f cbd0 de3f
000000a0: a0bc e53f 676f d03f 82ba d53f 880f dc3f
000000b0: 3679 e63f 06aa e73f f9cf da3f 5f4a e23f
000000c0: a46c e13f 1ed6 f63f a03c db3f 8ce2 ea3f
000000d0: 3af7 cd3f 148c dd3f 9b9c eb3f 1745 d23f
000000e0: b83c e13f c920 e33f f143 e83f 48bc dd3f
000000f0: ff24 e23f cac7 f53f 4185 db3f 4611 ec3f
1.9224613 1.6995726 1.7620147 1.5865183 1.5517445 1.8456181 1.8984362 1.7118211
1.7370428 1.7956568 1.779046 1.6344112 1.7485989 1.6312886 1.7079221 1.6550624
1.7391198 1.5559106 1.6645409 1.8030523 1.712942 1.7690694 1.6556288 1.8944131
1.6051854 1.7197531 1.9285223 1.8298302 1.6076128 1.8453523 1.6186614 1.6051363
1.7997305 1.7845231 1.7485605 1.7794635 1.7215892 1.520827 1.6193665 1.7407469
1.7948189 1.6283997 1.6697543 1.719224 1.8005741 1.8098762 1.7094718 1.7678946
1.761128 1.9284093 1.7127876 1.8350387 1.6091073 1.7308373 1.8407167 1.6427335
1.7596655 1.774438 1.8145734 1.7323084 1.766754 1.9201596 1.7150041 1.8442771

conv.6.bias f4 [64]
00000000: 264e 35be 80ca aebc 710d 9ebd 8310 8b3c
00000010: 1cf3 1e3e 94a5 8dbd fd3f 82bd 1239 0bbe
00000020: 06ad 1dbe 32ea 3fbd 74c9 09bd 56c1 a0bd
00000030: d19c a6bd 629d b2bd 1baf 26be 786f 64bd
00000040: 3590 9fbd 8243 38bd 5dc8 21be 57e7 15be
00000050: 93fe 3cbd 6714 a4bd 6012 6dbe 15bd 84bd
00000060: 02af c8bc be6c fabd b8fe c4bd 9fd1 9bbd
00000070: 06bb 59bd 4d9b 01bd 8fc0 92bc 8101 59be
00000080: 8871 b43d 7df5 edbd fcd2 ebbd 6109 6dbd
00000090: 7ad6 26be a9f4 c7bd cf38 86bd 5632 5abd
000000a0: 8e0d 6cbd 9f35 5e3d 3ea5 57bd 90bf 92bd
000000b0: 4944 2cbe f7ee 09be ed7f 0ebd 4624 92b8
000000c0: 7e19 3cbe 5629 b2bd 48d6 9d3c 567c ccbc
000000d0: 8541 c3be 9ee3 893d 1741 debd 6a69 2bbe
000000e0: 473b 9cbd b66d 99bc e5bb bbbd 5788 d1bd
000000f0: fdf5 cebd 94f1 e0bd 59bb f5bd 9c50 35bd
-0.17705593 -0.021336794 -0.077174075 0.016975647 0.15522426 -0.06916347 -0.06359861 -0.1359599
-0.15398034 -0.046854205 -0.033639386 -0.07849376 -0.08135379 -0.08721425 -0.16277735 -0.055770367
-0.07791177 -0.044986255 -0.15799089 -0.1463903 -0.04614122 -0.08011704 -0.23151541 -0.06481377
-0.024497513 -0.12227772 -0.09618896 -0.076083414 -0.053156875 -0.031642247 -0.017914085 -0.2119198
0.08810717 -0.11619089 -0.115148515 -0.057870273 -0.16292754 -0.09763462 -0.06553804 -0.05327066
-0.057630114 0.054250356 -0.05264782 -0.07165444 -0.16822924 -0.13470064 -0.03478997 -6.968579e-05
-0.183691 -0.086992905 0.019267216 -0.024961632 -0.38135925 0.06732868 -0.10852259 -0.16739431
-0.07628494 -0.018729072 -0.091666974 -0.10231083 -0.10105512 -0.10983577 -0.11998624 -0.04426633

conv.6.running_mean f4 [64]
00000000: 9038 743e 9d0a e3bd 8548 e3bd 183c 8d3d
00000010: 14c7 fd3d 362e 1ebe d908 cf3c 84ff 26be
00000020: 3552 323e e6a5 243d 9d72 61be 3cf8 ea3e
00000030: 8e4b e4bd a9ca e33e 3260 b2bd c94c 43bf
00000040: fe5e 573b 8c57 3abe 1435 a5be 24c1 f43c
00000050: 7694 eebd ac7f 39be 86fe 183d 5da6 1bbf
00000060: 3289 ef3d 8655 293e 2e96 35bd 5caa 943e
00000070: bb57 f73d af42 123e 1647 fc3d 1099 373f
00000080: b583 93be 6a2a 033d f27a 893e 5631 c2be
00000090: 06f1 5fbd e4be 2b3f 9b5d 743e 74ce cebd
000000a0: 0e3d 7a3e daba 36bd 713d 4abd 0a4f 073e
000000b0: c238 03bf 43fe b0be 42f9 2c3e 3885 55bc
000000c0: bc90 593e e33a 6bbb 062c 9abd 368e 33be
000000d0: 692e 8a3e 3b7f 24be a496 aa3c 5b16 bb3e
000000e0: c128 bf3d aa4a 2bbc 48a8 04bf a285 7cbd
000000f0: 800c 6a3e ce69 9f3d 4b71 6bbd 8823 c6be
0.23849702 -0.11086009 -0.110978164 0.068962276 0.12391487 -0.15447316 0.025272774 -0.16308409
0.17414172 0.040197276 -0.22016378 0.45892513 -0.111472234 0.44490555 -0.08709754 -0.7628904
0.0032863016 -0.18197459 -0.32267058 0.029877253 -0.116494104 -0.18115109 0.037352107 -0.60800725
0.1169609 0.16536531 -0.044332676 0.29036224 0.1207728 0.1428325 0.12318246 0.7171793
-0.28811422 0.03202287 0.26851612 -0.37928265 -0.054673217 0.6708815 0.23863833 -0.100979716
0.24437353 -0.04461179 -0.049375 0.13213745 -0.5125848 -0.34568986 0.1689196 -0.01303225
0.21246618 -0.0035893254 -0.07527928 -0.17534718 0.26988533 -0.1606416 0.020823784 0.36540493
0.09333945 -0.010454813 -0.51819277 -0.06165088 0.22856331 0.077838525 -0.05748109 -0.38698983

conv.6.running_var f4 [64]
00000000: bab5 173e a1d9 0f3e beec 3c3e d9e1 803e
00000010: d9b7 4d3e c162 2c3e 5696 1a3e 6e7a 1d3e
00000020: f297 233e 9c74 283e 6ee6 143e e59d 173e
00000030: 42fc 323e e906 5d3e 64d5 813e 8b13 123e
00000040: 5f24 283e 8019 523e a128 083e 49fe 193e
00000050: d3ba 2c3e 50e2 2e3e 5b3d 2c3e 0806 3d3e
00000060: 9d72 3c3e 8f61 153e 4c14 103e 0161 f83d
00000070: cd9a 3b3e 5d49 203e b2a6 da3d f454 4b3e
00000080: 2fd6 2d3e 9769 2e3e 06ba 453e eb0a 243e
00000090: 4ccc 263e 5649 363e 3e93 1f3e 6fa2 023e
000000a0: 1c86 1f3e aa88 053e fbba 543e 55da 0e3e
000000b0: c710 143e bc42 123e 36de 6a3e 68ac 053e
000000c0: 6cbd 033e 78e5 273e f6fe 183e 0d73 2e3e
000000d0: b28d 6a3e 37e5 2d3e 390f 203e 54bb 123e
000000e0: 52b4 f83d ca84 203e 2b91 0a3e 86b0 103e
000000f0: 4046 f73d c30a 313e aedd 203e ccd4 1b3e
0.14815417 0.14047863 0.18449685 0.25172308 0.20089664 0.16834547 0.15096411 0.15378734
0.15975931 0.16450733 0.14541027 0.14806326 0.17479041 0.21584667 0.25358117 0.14265268
0.16420124 0.2051754 0.13296749 0.15038408 0.16868143 0.17078519 0.1682028 0.18459332
0.18403096 0.14587997 0.14070243 0.12127877 0.1832077 0.15652986 0.10676326 0.19856626
0.16976236 0.17032467 0.19309244 0.1601979 0.1628887 0.17801413 0.15583512 0.12757276
0.15578502 0.13040414 0.20774452 0.13950475 0.14459525 0.1428327 0.22936329 0.13054049
0.12865227 0.16396129 0.1494101 0.17036076 0.22905615 0.1698197 0.15630807 0.14329273
0.12143768 0.15675655 0.1353194 0.14129838 0.12073946 0.17289262 0.15709564 0.15217894

adv_head.weight f4 [1, 2304]
00000000: a549 09bb 1fb1 ee3a 26f2 8a3b 3627 ac3b
00000010: a139 ccbb 694d 2a3b 9e21 a8bb b49f b0bb
00000020: c888 a8bb 0430 2f3a d28a 3d3b a2af ba3a
00000030: 5cca 94bb 39dd 993b e6d2 a2bb d655 a3ba
00000040: c4ac 0a3b c606 acba 3a33 023c edf9 b5ba
00000050: 0c28 2cbc 6903 9abb 5c1a e9ba f8a0 9a3b
00000060: c1d7 6ab9 7cc7 333c 0c84 e8bb 39b0 78ba
00000070: 2907 e13b 76ee 183c 7935 de3a 1985 7fbb
00000080: 71c8 21bc 2471 08bc f960 57b8 17c6 dbbb
00000090: 61a2 98bb a7fd faba f397 f0bb 5ed7 40bc
000000a0: 2f73 07bc 1650 4f3c a010 b2bb ba8c 3139
000000b0: f700 b43a 84ef b7bb da32 0cbb 391c f93b
000000c0: 7613 4a3b 7590 fdbb 6199 89ba 44a3 28ba
000000d0: 844f 8d3a 9ae6 bcba af04 cd3b abaf 223c
000000e0: 2507 2cbb 5ea6 013b 861c f0bb 83a0 9cba
000000f0: 04eb a23b 4bd0 bc3b d60e cfba 2255 4a3c
00000100: 2324 88bb a839 b5bb 0150 2b3b 2fd5 90ba
00000110: c281 48bb 190c 6fbb 6a7d 353c ba6a 1c3a
00000120: c52d 7d3b 5b13 bb3b 63a8 b9bb 357c a4bb
00000130: 2388 8fbb fbac b0bb dc87 c9bb 0e12 9a3b
00000140: 0059 393b 4504 e3bb 82fe bfbb 9ef0 69bb
00000150: 3f4d 023c cf6b 16bb 3486 41bb 6715 92bb
00000160: 0fe5 193c 4659 89bb 1c69 9f3a b7da 0f3c
00000170: 1efb 77bb e146 c53b 3c09 90bb e568 5e3b
00000180: e956 feba 7d3f cf3b 7e2a 843b 2642 273b
00000190: 06bf cdba 8d1c 63bc 5848 6b3b 3b52 df3b
000001a0: 36a0 72bb 252b 10bc f3c5 46b9 9a6d 483c
000001b0: 68d8 523b aaf2 f7bb c567 27bb 4b2e ea3c
000001c0: c3a2 483c f2a4 a33b 2227 70bc f77d 903c
000001d0: 5bd9 25bc f5fe a53b c099 0fbc 9718 0c3c
000001e0: c2e4 b7bb d1d5 513c c907 1a3b 1c00 acba
000001f0: c8e6 a23c 22c4 bd3b 616d 5c3a 5da8 a6bb
00000200: eb34 6f3c 88c7 1bbb d369 213c b76b be3a
00000210: 1cff 1cbb 4112 063b 19f5 4f3c 699c d53b
00000220: a3e1 02bb e581 413c e6e7 74bc b812 4b3a
00000230: 9ed5 b43b 30b0 c5bb 566c 3ebb 38e1 b6ba
00000240: 6455 533b 756f 143c 3c0f 88b7 a42b adbb
00000250: 1d7d 4c39 4d51 8d3b 8349 873c 86b6 a23b
00000260: 22ce 10bc 948e 053b 9ad3 00bc 45b4 ffba
00000270: c0f3 d1ba f873 19bc 730d 14bc 46b2 5dbb
00000280: 85b6 e2ba 685b 543b dc5d f13b d16e 803a
00000290: 6749 07bc 0d71 aabb ed97 0dbc 9726 91bb
000002a0: fc03 f53b 0b56 abbb ae71 8a39 31ec a3bb
000002b0: 4774 e43b 6a9d 973b 59f7 433c 7cdb dbb9
000002c0: 40bc 6cbb 2af6 b7bb 5ded e6bb aaaf 85ba
000002d0: 1e4d 383c f7b4 ac3b 620c 343c 5968 223c
000002e0: fc62 403b 73e9 8d3b e5da a8bb b5de 173c
000002f0: b2e5 18bc 55f5 e4b9 c35d a63a a527 6bbc
00000300: 3e9c 46bc 3f5f 30bc bc35 6b3b b0db edb9
00000310: 729e d439 9644 a33b 7904 9b3b 368f 2ebc
00000320: 9b39 bfbb 9f1d e9ba dd00 1e3b dc2a a0bb
00000330: e65f 20bb 4254 52bb c269 96bb 1cff 913b
00000340: 8107 d53b 10c3 6bbb 82cd 0cba 8208 f4bb
00000350: 9e12 07bc 2e97 003a 9fd3 05bc 3f4f 13bc
00000360: 91b4 08bc 7563 a4bb 5677 73ba 283b 3e3c
00000370: 2ab6 a33b e9b4 b1ba ea22 8a3b f163 8a3c
00000380: 4829 833a 15b9 fd3b 21b1 a93b 520e 6e39
00000390: 6d31 3fbc 637c 1abc beac 01bb 6720 b5bb
000003a0: ae38 9a3b 1287 afba a1b3 c9bb 89bd b03a
000003b0: 1c6f 9cbb 23e7 06bc 613a 193b 97a4 053c
000003c0: 649c 0fbb 5448 00ba b183 d93b 07a1 30bb
000003d0: d693 e439 ff56 d63b 9d1f 5ebb 53c7 d13a
000003e0: b2f6 3c3b bdf5 2b3c 5016 e83b 4092 16ba
000003f0: eaf5 a6bb 868e 013b d544 68bb 4c59 0eb8
-0.0020948437 0.0018210745 0.004240292 0.0052536977 -0.006232456 0.0025986081 -0.0051309606 -0.005390132
-0.0051432587 0.0006682875 0.0028921855 0.0014243016 -0.0045407247 0.0046955612 -0.0049689887 -0.0012461494
0.0021160105 -0.0013124577 0.007946784 -0.0013883688 -0.010507595 -0.0047001136 -0.0017784345 0.004718896
-0.00022396354 0.010972854 -0.0070958193 -0.00094867084 0.0068673086 0.009334197 0.0016953192 -0.0038989244
-0.009874449 -0.008327756 -5.1350307e-05 -0.0067069638 -0.004658029 -0.0019149081 -0.0073423325 -0.011770098
-0.008267208 0.012653371 -0.0054341108 0.0001693246 0.0013733198 -0.0056132693 -0.0021392615 0.0076022414
0.0030834354 -0.007738168 -0.0010497981 -0.000643302 0.0010781144 -0.0014411986 0.006256662 0.009929578
-0.0026249376 0.0019783 -0.007327619 -0.0011949692 0.0049718637 0.005762135 -0.0015797268 0.012349399
-0.0041546985 -0.005530555 0.0026140215 -0.0011049862 -0.003059492 -0.0036475717 0.011077264 0.0005966831
0.0038632017 0.0057090945 -0.005665825 -0.0050196894 -0.0043802424 -0.0053917146 -0.006150229 0.0047018593
0.0028281808 -0.006927999 -0.005859197 -0.0035696398 0.007952987 -0.0022952443 -0.0029529454 -0.0044581178
0.009392991 -0.0041915504 0.0012162062 0.008780173 -0.0037838886 0.0060204123 -0.004395632 0.0033937034
-0.0019404563 0.006324707 0.004033386 0.0025521605 -0.0015697188 -0.0138617875 0.0035901275 0.0068152226
-0.0037021763 -0.008799349 -0.00018956493 0.012233162 0.0032172445 -0.0075667696 -0.002554403 0.028586527
0.012245837 0.0049940282 -0.0146577675 0.01763819 -0.010122622 0.0050657936 -0.008764684 0.008550785
-0.005611987 0.012807325 0.0023503175 -0.0013122591 0.019885436 0.005791203 0.0008408633 -0.0050859884
0.014600019 -0.0023770053 0.009851891 0.0014527951 -0.0023955768 0.0020457658 0.012692713 0.0065188897
-0.0019970916 0.011810754 -0.014947867 0.0007746625 0.005518629 -0.006032966 -0.0029056272 -0.0013952618
0.0032246942 0.009059777 -1.6219557e-05 -0.0052847434 0.00019501564 0.0043126703 0.016514545 0.004965606
-0.008838208 0.0020379173 -0.00786295 -0.001950868 -0.0016018078 -0.009366028 -0.00903641 -0.0033828183
-0.0017296827 0.0032403115 0.0073659252 0.0009798651 -0.008257247 -0.005201465 -0.008642179 -0.004429649
0.0074772816 -0.005228763 0.0002640611 -0.0050025214 0.006971869 0.0046269195 0.011960828 -0.00041934464
-0.0036122948 -0.005614062 -0.007047339 -0.0010199447 0.011248855 0.005270596 0.01098928 0.009912574
0.0029355874 0.004330808 -0.0051530474 0.009269406 -0.009332107 -0.00043670335 0.0012692738 -0.014352714
-0.012122212 -0.010764896 0.0035890182 -0.00045367843 0.00040553842 0.0049825413 0.004730758 -0.010654261
-0.0058357245 -0.0017785317 0.0024109401 -0.0048879217 -0.0024471222 -0.0032093679 -0.004590244 0.0044554602
0.0065011387 -0.003597442 -0.0005371199 -0.0074473033 -0.008244185 0.000490534 -0.00816813 -0.008991062
-0.008343832 -0.005016739 -0.0009287497 0.011610784 0.004996081 -0.0013557944 0.004215588 0.016893359
0.001000681 0.0077430108 0.005178586 0.00022702783 -0.011669499 -0.00942907 -0.00197868 -0.0055275443
0.004706464 -0.0013391695 -0.0061554466 0.001348422 -0.0047739875 -0.008233818 0.0023380744 0.008156917
-0.0021913284 -0.000489359 0.0066380133 -0.0026951449 0.00043597695 0.0065411325 -0.0033893355 0.0016004838
0.0028833565 0.0104956 0.007082738 -0.0005743839 -0.005095233 0.0019768788 -0.0035441418 -3.3938602e-05

cls_head.weight f4 [7, 2304]
00000000: b941 193d 7c62 1cbe aa17 2cbe 1b30 633d
00000010: 15c7 333b f4a7 24bc e4da 15bc ea31 253e
00000020: 57f8 d73b f77e 143d 63eb 03bd 6559 72bd
00000030: a593 acbd e9ac bebd 99da 573d 22c4 05bd
00000040: 3203 01bd ba59 9b3d e55e 5e3e d0d1 f1bc
00000050: 5bd6 a53d 04b7 ac3d a1e1 d83d beda 1e3c
00000060: aa6d 53be db95 70ba 431e 483e 8809 f03d
00000070: fb18 ce3d 8ef3 49bd bbdc 06be 4b81 8d3c
00000080: 9893 87bd b136 543e c842 f8bb 1724 fbbd
00000090: a00b 2bbb 7469 463e fbf3 523e 74fd 9abd
000000a0: 5177 a3bc fd06 a2bd 3da5 cb3d 1802 563d
000000b0: cc85 3cbd 24fb b5bd 176a 87bd e686 573d
000000c0: 0e48 ae3d 2441 05be ff37 6dbd 0d6a 5f3d
000000d0: 6480 703d c50e a2bc 1f59 a7bd 463f 623d
000000e0: c7aa 76be 8077 fa3d 386a 2e3e 1044 623d
000000f0: 8487 15bd fe70 4e3e b330 523d 48c4 a73d
00000100: 9325 a03d 7aed 9abd 8330 34bd 0f28 8abd
00000110: 59c4 74bd 98f6 f23c 4439 4d3c f21c 82bb
00000120: ce80 9d3d 5822 3e3c 0e6a b9bd eb5b c23b
00000130: 2ebe 7b3c 0d7b ba3d 7d98 a5bd e546 d7bd
00000140: 03d0 6abe 6186 63be 1914 63be 102c 0dbd
00000150: f403 06be a8a8 7abd b699 d2bd 498e bcbc
00000160: 4094 9f3c 17dc 6d3d 53bf 953d bb70 4cbe
00000170: 5635 05be 0a95 5b3e 93d7 4f3e 6536 a63d
00000180: 6783 29bd f501 09be 9cfe 1dbd 0573 373e
00000190: e557 1e3d 1376 25bd 8d9b 7abc a7fd 31bc
000001a0: b561 843d ac46 103d 2d0b c23d bdfe 8d3d
000001b0: 91f8 deba b00b ff3d 4b3e a0bb ef26 543c
000001c0: 7056 2d3b 4342 6e3d 9d18 233d 3898 95bd
000001d0: 1eef c2bd 986b f73d ad82 053d 34db a4bc
000001e0: 86df 383d 4530 703d e8b9 ba3d 6bb0 8ebe
000001f0: d953 123d bcaa b83d c0fc 8dbd d9a0 4f3d
00000200: 3070 533d bdc0 e93c a4be 1fbd 2196 b53d
00000210: bb48 dfbc dc09 e73d 313c c43d 4205 1fbe
00000220: 30dd e43d a9d9 14bd 2d4a 713d 8fe0 1abd
00000230: 3bef 70bd 3c36 693c b287 6cbd e7c1 f3bd
00000240: 8f0e ecbc b440 ab3d 7d9b 803d e0d9 f0bd
00000250: 7edc 60bd 3cb1 503d 4ba1 4fbc b841 c13c
00000260: b018 0bbe a879 eebd ea5b a2bd 79b8 9b3d
00000270: 5764 343d 70b6 13ba b2de 79bd 6279 b5bd
00000280: fd61 99be e49e 9c3c 84cb 643b 7a25 c73d
00000290: 84fd 883c c1da e93d f926 8abc 90c6 963a
000002a0: 3071 6abd c41f 71bd c29c 8cba 56ad 233d
000002b0: 128c 283e 2284 47bd 28db c6bd 5d6f 943c
000002c0: f311 4fbe fe8f 5a3e fc02 cb3b 58ee efbd
000002d0: c1e1 7abd 4184 183d c90c 25bd 789a 56bd
000002e0: a8fb 2fbc 0bfd 3d3d bc27 143e 4530 c7bd
000002f0: 38e7 a7bd aa20 543e 6e15 4dbe 504d f8bc
00000300: 47a9 b0bd 24c1 f73c 00ff e13d bc54 09be
00000310: 2624 1fbd 4a10 ca3c 2b19 d0bd 9252 f1bb
00000320: 9c25 093e 5f45 87bd 4460 d73d e95e 5bbc
00000330: d936 a0bd 50c5 073e cfc8 86bc a0d8 b7bd
00000340: 41ac 18bd 22aa 5b3e cace 2dbe f362 473e
00000350: 2006 5abe 312e e0bc 55a2 2e3e be8a 983d
00000360: 0a36 083c 54a1 5c3d d1d4 3ebd 3c61 8bbe
00000370: 4851 203e 6ae8 fdbc 51aa 513d fb08 bbbd
00000380: 420c 7bbe 90ae 0fbe edfb 95bc 912b 983d
00000390: dd24 29ba 1b5a 323d b665 d53d 07b8 9c3d
000003a0: 5eb3 5e3d 3bc0 81bb d198 d13c 331f 1ebd
000003b0: 93b7 e23d 1a73 a93d 06be 253e 0cfe ed3c
000003c0: b3a4 bdbd 167c 2ebe e2b0 83bc 870e a43d
000003d0: eed7 1d3e 4781 923d 7841 8d3d 267d 8a3d
000003e0: f798 0ebe 4437 8dbd 2fdd 1b3d 0c29 7d3d
000003f0: 1762 a33d bc77 733d 380b cc3d 46a3 533e
0.037416194 -0.15271944 -0.16805902 0.0554658 0.0027431895 -0.010049809 -0.009146426 0.16132322
0.0065908837 0.036253896 -0.032206904 -0.059167285 -0.084265985 -0.09310324 0.052698705 -0.03265775
-0.031497188 0.07585473 0.21715887 -0.029518992 0.08097526 0.08433345 0.1058991 0.009695707
-0.20647302 -0.00091776036 0.19542794 0.11720568 0.100633584 -0.049304537 -0.1317014 0.017273566
-0.06619948 0.20723988 -0.0075763203 -0.12262743 -0.0026099458 0.19376165 0.20600884 -0.075678736
-0.019954355 -0.07911489 0.09943626 0.05224809 -0.046026036 -0.08885792 -0.06612032 0.052618884
0.08509837 -0.1301313 -0.05791473 0.054544497 0.058716193 -0.019782433 -0.081712954 0.055236124
-0.24088584 0.12229824 0.17032707 0.05524069 -0.03650619 0.2016029 0.051315974 0.081917346
0.07819667 -0.07564826 -0.043991577 -0.06745922 -0.059757564 0.0296586 0.01252586 -0.0039707357
0.07690583 0.011604868 -0.090534315 0.0059313676 0.015365167 0.09105501 -0.080857255 -0.10511569
-0.22930913 -0.2221923 -0.22175635 -0.03446585 -0.13087445 -0.061196 -0.10283224 -0.023017066
0.01947987 0.058071222 0.07311883 -0.19964878 -0.13008627 0.21443573 0.20297079 0.08115844
-0.04138508 -0.13379653 -0.038572893 0.1791497 0.03865804 -0.040395807 -0.015295875 -0.010863698
0.06463949 0.035223648 0.09474788 0.06933353 -0.0017011334 0.12453401 -0.0048902384 0.012948736
0.0026449226 0.05816866 0.039818395 -0.07304424 -0.09518264 0.12081069 0.032595325 -0.020124055
0.045135044 0.058639783 0.0911749 -0.2786897 0.035724495 0.0901694 -0.06932974 0.050690506
0.051620662 0.028534288 -0.03900017 0.088665254 -0.02725636 0.112811774 0.09581793 -0.1552935
0.11175001 -0.03634039 0.05890863 -0.037811812 -0.058821898 0.014234122 -0.057746597 -0.11902218
-0.028815536 0.083619505 0.06279657 -0.11760306 -0.054897778 0.050950274 -0.012672733 0.023590907
-0.13583636 -0.11644298 -0.079276875 0.07603545 0.044041004 -0.000563479 -0.061003394 -0.088610426
-0.29957572 0.019118734 0.0034911344 0.09723945 0.016722448 0.11418677 -0.016864287 0.0011503268
-0.05723685 -0.058868185 -0.001072787 0.039960228 0.16459683 -0.048709996 -0.097097695 0.018119508
-0.20221691 0.21343991 0.006195424 -0.11715382 -0.061250452 0.037235502 -0.040295396 -0.052393407
-0.010741152 0.0463839 0.14468282 -0.097260036 -0.08198398 0.20715585 -0.20027706 -0.030310303
-0.08626037 0.030243464 0.110349655 -0.1341123 -0.038852833 0.02466597 -0.101610504 -0.0073645795
0.13393253 -0.06605028 0.10516408 -0.013389328 -0.07822961 0.13258862 -0.016453175 -0.08976865
-0.03727365 0.2145162 -0.16973415 0.1947134 -0.21291399 -0.027365776 0.17054112 0.07448338
0.008313665 0.053864792 -0.046589676 -0.2722262 0.15656006 -0.030994613 0.051187817 -0.09132572
-0.24516395 -0.14031434 -0.018308604 0.07430185 -0.00064523314 0.043542963 0.104197904 0.07652288
0.054370277 -0.0039596832 0.025585564 -0.038603973 0.1107017 0.08273907 0.1618577 0.029051803
-0.092599295 -0.17039523 -0.016075555 0.08010583 0.15414402 0.07153564 0.06897253 0.067621514
-0.13925539 -0.06895307 0.038052734 0.061806723 0.079776935 0.05944036 0.09963077 0.20667753

cls_head.bias f4 [7]
00000000: d171 3bbc 7f57 1abd 5541 9cbc 95a6 b33c
00000010: 5000 f5bb 6f45 8d3c 27c4 eb3b
-0.01144071 -0.0376811 -0.019074121 0.021930018 -0.007476844 0.017245023 0.007195014
