src/facexpr/cGen+cDis/Version 1.7Final/weight/disc_ep160.pth (torch, 247605 bytes, 17 tensors)

conv.0.weight f4 [16, 1, 4, 4]
00000000: 6d9f 733e 5305 8a3e 923f 6c3e ba94 e5bd
00000010: eb90 91bd f888 2fbe 4dc7 08bd 2761 393c
00000020: 4a0c 96bd 7f08 b03c 0d67 37bd 1de4 20bd
00000030: 14f7 80be 73aa 79bd 731e 793d 7681 c8bd
00000040: f129 1d3e 4e00 54be 83be 59be 7450 81be
00000050: 9fa4 80be c2a3 953e 5c2d 213e ddcd 723e
00000060: 61de 213e 92c5 cb3d 652b 5bbd e73c 4b3e
00000070: 433b d93c d2fd dcbd e454 1dbe e9cc a6bd
00000080: bddf 51be 26d0 dc3d aba9 023d 6c65 b03d
00000090: ae21 16be 0701 07be cc40 12bd b720 133e
000000a0: 3c70 0f3d 4497 453d 54d0 7c3d 768e 0e3e
000000b0: f5d3 c2bb 6169 f53d 3b86 d53b 0d41 123d
000000c0: 96a7 5c3d f374 2e3e f1d6 5f3d 26d6 30bb
000000d0: 0909 b73e 5fca 45be 694b 83be 687d 2f3c
000000e0: dbaa 42be 4a2c d8be 458a 053e 0e6c b1bd
000000f0: fd4b f5bc 345f 083e 7525 523e c8fc 813d
00000100: 210f a23d a2fd ce3c 092d 04be f98d 0a3d
00000110: 2479 733c 8b58 fa3d 27e5 11b9 940f 10bc
00000120: 7a5f 6b3e ced4 bd3d cf14 82be 9b0a eebd
00000130: b000 3d3e f732 75be f0d5 4abe 1bf4 2e3e
00000140: 1975 f6bc 4973 ffbd 8d04 863d 8511 223e
00000150: 0be2 203e d903 203d a97a c8bc 000e 923e
00000160: c6f9 80be a74c 50be 296f 9ebd 541e d73d
00000170: a834 623e 56b4 6cbe 0b89 cabd d3b2 19bd
00000180: 8f51 b53d 6dc9 b83d 315c 13be 951f 0b3e
00000190: f48d 3bbd 54d4 03bd 2385 40be aea2 263e
000001a0: bc09 52bd 211f c73d 5f81 d03c 2336 273d
000001b0: 66f6 e6bd 23d1 383e 4081 38be 3576 28be
000001c0: 09e5 873c 6a75 213c 1730 35be c70d 75bc
000001d0: a60d 8d3e 7d1c 1fbe d2ef 8cbe 9235 45ba
000001e0: 2ffc 6c3e d34b 353e 8c1e 8abc 3ba8 8fbe
000001f0: df6b ca3d b26b 323e 4a88 81bd 6244 b63c
00000200: fda2 e23c e845 193d 3b8c 7b3e d53d 1ebe
00000210: 19c2 cd3d 109a 96bd ca62 da3d 94a3 69be
00000220: beed 41be 5433 1e3e 4a0b 583e 629e b53d
00000230: 5e95 0bbc 0681 fa3d 7a47 3d3e 1d8a b63c
00000240: 956a 7e3c e200 9a3d c759 bdbd e5d2 c1bd
00000250: a555 c5bb 19bf 40be de16 51be 8dd7 9dbe
00000260: 17c3 b1bd 7ec0 cf3d badb 1a3e 9095 bc3d
00000270: f293 953d 5e02 963d 46d1 763e c741 2d3e
00000280: cd92 403e 64f5 403e aed7 39be c7b5 96be
00000290: 9dd8 5fbe dc45 92bc e8f7 90be 4e61 85bd
000002a0: 321b 443e 302b 9a3d 0d07 3e3e 876b 85be
000002b0: c852 b33c bd0f 0c3e f6bc d93d 2a07 513e
000002c0: 1b9e 653c a9aa 2d3d 6568 f63d 262b 31be
000002d0: 1a0e aa3d dd71 3b3e c6cd c53c dde5 9e3b
000002e0: cd34 ee3d 70f5 873e f03d 9fbd 8627 4dbe
000002f0: 1e0b 01bd 33c9 d83d 1e56 67be 8d62 78be
00000300: 311e c9bd ed31 87be d640 9ebe 430f ab3c
00000310: ade5 4fbe 827e 0d3b e51f 783e ad3b 02bd
00000320: 6b4a 193e d1fc 563e b055 4a3e 98dd af3d
00000330: cbae c9bd 203b bc3d acd1 c3bc 1864 0f3d
00000340: fef7 febd dd46 0ebd b6d4 e9bd 4072 e0bc
00000350: 355a 873d 6e91 3bbe a975 1b3d 004e 06be
00000360: 9160 b13c 6480 d1bb ffeb 233b 5296 10bd
00000370: d3a8 823d b3bf 3f3d 597f 8f3d 2c1c cebd
00000380: 1865 f9bc a7ca 2dbd 095d 2bbd 9e44 393c
00000390: 614f 27bd 778a f23d f7cf c6bd 5e79 8fbd
000003a0: 5ac2 c53d 0366 26be 8b4b 0cbc efaf d8bd
000003b0: 6f48 e2bd a295 183d 10c9 94bd 1c04 503e
000003c0: c815 793d d55b 8e3d 9474 303d a4b1 40bd
000003d0: ef0d 043e c776 db3d 1ac5 193e 4210 193e
000003e0: 255d cb3b ca38 66bb 8ce3 45bd f101 00be
000003f0: 1aaa 0cbe 684b 03be cbbb 35bd 9c55 e83c
0.23791285 0.26957187 0.23071125 -0.11210008 -0.07107719 -0.17142093 -0.033393193 0.011314667
-0.07326563 0.021488426 -0.04477601 -0.039280046 -0.25188506 -0.06095357 0.060820054 -0.09790318
0.1534803 -0.20703241 -0.2126408 -0.25256693 -0.25125596 0.292265 0.1573996 0.23711343
0.15807487 0.09949793 -0.05350818 0.19847451 0.026517516 -0.107906 -0.15364414 -0.08144552
-0.20495506 0.10781889 0.03190009 0.08613095 -0.14661285 -0.13183986 -0.035706326 0.14367948
0.035019144 0.04823996 0.061722115 0.13921532 -0.0059456774 0.1198299 0.0065162457 0.03570657
0.05387076 0.170368 0.054648343 -0.0026983111 0.3574908 -0.1931548 -0.2564347 0.0107110515
-0.19010489 -0.4222129 0.13041027 -0.08663188 -0.02994346 0.13317567 0.20522101 0.06347042
0.07913042 0.025267426 -0.12907805 0.033826802 0.014860425 0.122239195 -0.00013913643 -0.008792777
0.2298564 0.09269105 -0.254065 -0.116231166 0.18457294 -0.23945223 -0.19808173 0.17085306
-0.030085133 -0.12473161 0.06543837 0.15826996 0.15711229 0.03906617 -0.024472551 0.28526306
-0.25190562 -0.2034174 -0.07736046 0.105038315 0.220904 -0.23115668 -0.0988942 -0.037524056
0.08853447 0.09022794 -0.14390637 0.13586266 -0.045789674 -0.032184914 -0.18800788 0.16272995
-0.051278815 0.09722734 0.025452314 0.040823113 -0.112774655 0.1804853 -0.18018055 -0.16451342
0.016588705 0.009854654 -0.17694126 -0.014956898 0.27549475 -0.15538211 -0.27526718 -0.0007522936
0.23143075 0.17704706 -0.016860269 -0.28058037 0.09883856 0.17423895 -0.06324823 0.022249404
0.02766561 0.037420183 0.24565212 -0.15453275 0.10046787 -0.07353604 0.10663374 -0.22816306
-0.18938348 0.15449268 0.21098056 0.088681 -0.008519499 0.122316405 0.18484297 0.022282654
0.015528341 0.075197 -0.09245639 -0.09464053 -0.0060221725 -0.18822898 -0.2041888 -0.30828515
-0.086797886 0.10144137 0.15122882 0.09208214 0.07303609 0.0732467 0.24103269 0.16919623
0.18806 0.18843609 -0.18148682 -0.2943556 -0.21859975 -0.017855577 -0.28314137 -0.065127
0.19150999 0.075277686 0.18557377 -0.260586 0.02189006 0.13677879 0.106317446 0.20412889
0.014014746 0.042399082 0.120316304 -0.17301616 0.08303471 0.18305154 0.024145972 0.004849179
0.11631165 0.2655444 -0.077754855 -0.20034608 -0.031504743 0.10585251 -0.22591445 -0.24256344
-0.09820212 -0.26405278 -0.3090884 0.0208813 -0.20302458 0.0021590297 0.24230917 -0.031795193
0.14969794 0.2099488 0.1975925 0.085871875 -0.09847792 0.09190965 -0.02390369 0.035007566
-0.124496445 -0.03473555 -0.114175245 -0.027398229 0.066090025 -0.18317196 0.037954006 -0.13115692
0.021652492 -0.006393479 0.002501249 -0.035299607 0.06379857 0.046813678 0.070067115 -0.10063967
-0.030443713 -0.042429592 -0.041836772 0.0113078635 -0.040847186 0.11842816 -0.09707635 -0.07005571
0.0965621 -0.16249852 -0.008562933 -0.10580432 -0.11048972 0.037252076 -0.07264912 0.20314068
0.060811788 0.06951109 0.043079928 -0.04704441 0.1289594 0.10716014 0.15016595 0.14947608
0.006206172 -0.0035129064 -0.04831271 -0.1250074 -0.13736764 -0.12821734 -0.044368546 0.028361134

conv.0.bias f4 [16]
00000000: 7763 cabd 9419 23bb 2066 f33d 34ea c3bb
00000010: 7629 e8bb 601a 76bd 56ea 813d 4c0b acbc
00000020: d498 a2be e02a 093a f4cb 5bbe 47c4 deba
00000030: e3ce a3bb 9cab 6dbd 7fec 973d c8a2 ee3d
-0.09882253 -0.0024887072 0.11884713 -0.005978847 -0.0070850207 -0.060083747 0.06343524 -0.02100148
-0.31757224 0.0005232524 -0.2146452 -0.0016995751 -0.004999028 -0.058024988 0.07418155 0.11652142

conv.2.weight f4 [32, 16, 4, 4]
00000000: dbb8 1abd 4cd5 a1bd 16a3 f5bd 43b3 a83a
00000010: 4c47 6fbd fa11 1dbe 05f5 c6bd 4a37 e6bd
00000020: 0e59 7cbd 42ba c4bd e006 2abd 1c27 8bbd
00000030: 49d7 6c3d cb4d 03bd 463b ccbd 75e1 b6bc
00000040: fe9e 80bd 4ec7 dbbc 5719 933d 3010 953c
00000050: 7674 56bd 2086 14bd 3cba e73b 1c94 b13d
00000060: a2c9 1cbd f41c 283d ad75 113d 5df5 8c3d
00000070: 8547 56bc 9730 473d ea06 4cba 7720 2c3d
00000080: 9615 473d f0d8 b5bc 2311 f73c b033 63bd
00000090: e09f 1c3d b366 953d 7a5c 023d 18fc 1c3d
000000a0: d580 b2bc 71dc bebb 1f7f 9bbc 07f8 d93c
000000b0: cd3c cdbd 64dc 30bd a30f bbba 4267 35bd
000000c0: 0991 1f3d ec74 8c3d 37f8 913d 4560 983d
000000d0: b62d 383d eaa2 ff3d 9cc2 683d 3ec8 f23d
000000e0: b9a8 d13c c00e e13d 65dd 413d bd4d f83c
000000f0: 410c 633d 4913 083e 6e4b 9d3d 3c06 573d
00000100: 6421 c93c 1403 7cbd 305c 9ebc 7ab2 763b
00000110: 3646 2e3c 2012 063c 8627 563c 67e5 8d3c
00000120: e197 c33d dc9c 8a3c f08b a63d c52d 593c
00000130: 55a6 683d aef3 d83c 8056 163d f6f1 773d
00000140: ccfa 6cbd c251 76bd 3dab a9bd 1c74 03be
00000150: f4c2 25b9 13a6 ccbd e3d8 f9bd ec51 45bd
00000160: 4d36 ab3b 733a 01be 6955 a5bc 5990 eebc
00000170: d57f 31be 0f0c 8abd 91e3 92bc 8879 1b3b
00000180: 239d 6c3d 2f72 bc3c d233 54bc 1c8c c03b
00000190: 4adf 23bd 3f87 aabc e12d 993d 323d 8e3d
000001a0: 1bea 953c 2341 8f3d 47ad 9b3c 34c1 8fbc
000001b0: 4e2f 80bd 1aa4 f23d bf60 c83d 1bf5 483d
000001c0: 5cb9 90bd 68e3 6ebd da20 f5bc 1edb a6bd
000001d0: bf88 64bc 8f94 4fbd 63a8 5bbd a052 733b
000001e0: e89d 95bd f789 7abd 5dba 153d 00bc ca37
000001f0: 5aef 33be f64a afbd 9fcc 9ebd 37af fabc
00000200: 45c2 1b3d 36a3 ad3b c64f d33c 9fc6 a2bd
00000210: a2c3 c53d 426b e23c a972 cb3c 3b9c 353d
00000220: 0bf7 a63c 8a11 eebc 4b48 353d 662b 113d
00000230: 4365 393b 332d b6ba 42c0 18bd f6e9 073b
00000240: 88c0 2fbd d5ca 9ebc 73ff 063d 1ae8 243d
00000250: a7b8 d7bd d556 81bd e334 0bbc 0072 cf3c
00000260: 3960 7dbd 4362 963d 151a 603d a390 b53c
00000270: 550b 13bd df55 653d 0c9b 223e b624 1d3d
00000280: a64a febc d2e1 7fbd 4e84 d5bc fee2 34bc
00000290: ad93 8f3c ddaf d939 ed7d d4bd a77a c1bc
000002a0: c132 93bd e32a 22bd 4a33 abbc 17cf 513d
000002b0: ff98 3abd 9fb0 8c3d d483 023d fabd e6bc
000002c0: 1820 aeb8 08a5 97bc 2f7a a5bd afcf 3ebc
000002d0: ba48 143d eeaa 483d 98a6 de3c 9e53 4ebd
000002e0: 79cf 453d fa79 4c3c e987 8ebd 7095 1a3d
000002f0: 78dd 873d 4f25 813d 9991 7e3d 45aa 8dbc
00000300: 0dc3 afbd f1f7 423d 3d85 713d c9a4 003d
00000310: 06cb 94bd e06d 953c 182a c23d 46bc 3d3d
00000320: 89f0 de3b c5fa d8bc ce4b 39bd 0fa8 0cbd
00000330: 202e 573d 045e 293c 4ffd 9dbc 28c2 05bd
00000340: 1406 7a3d 9503 20bd c777 80bd f510 97bc
00000350: f38e bfbc ecdc 3cbd 4325 3f3c ce38 843d
00000360: cf09 aa3c d6e0 39bb 2060 4a3d 8a8c ae3d
00000370: 7a1d 923d c9a7 0cbd f58a 5739 4e48 93bd
00000380: fea6 7b3d 9e17 7cbd dc9d fe3c 50b3 4cbd
00000390: fbe5 bdbc 6f50 b53c f998 95bc b0d6 04bd
000003a0: f273 74bc b98b 9b3d 2c2b bbbd 1733 c5bc
000003b0: 87c2 2f3d af36 bbbd 5b15 143c f7e5 72bd
000003c0: 0f1a 33bd a127 40bc 476d 443d 187a 8f3d
000003d0: e414 53bd fe2e 6a3d 9716 98bd cb1d 8abd
000003e0: 6ad3 9bbb 7468 dcbc 69b8 a3bc 3df4 8fbd
000003f0: 1555 95bd 2797 883d 6e73 98bd 14a2 72bd
-0.03777395 -0.07902011 -0.11993997 0.0012870807 -0.058417603 -0.15338889 -0.097147025 -0.11241014
-0.061608367 -0.09605838 -0.041510463 -0.06794569 0.0578225 -0.03205661 -0.09972243 -0.022324303
-0.06280325 -0.026828434 0.071825676 0.018196195 -0.05235716 -0.036260724 0.0070717614 0.08670828
-0.03827823 0.041043237 0.035512615 0.06882737 -0.013078575 0.048630323 -0.00077830127 0.04202315
0.04860457 -0.02219817 0.030159539 -0.055469215 0.038238406 0.07294979 0.031826474 0.038326353
-0.021789948 -0.0058246185 -0.018981514 0.026607526 -0.100213625 -0.04317893 -0.0014271628 -0.044287927
0.038956676 0.068582386 0.07127421 0.07440237 0.04496547 0.12482245 0.05682622 0.118545994
0.025593149 0.109891415 0.04733028 0.030310506 0.055431608 0.13288607 0.07680403 0.05249618
0.024552055 -0.061526373 -0.019331068 0.0037643001 0.010636857 0.008183032 0.013070947 0.017321302
0.09550453 0.0169205 0.0813216 0.013255541 0.05679925 0.026483383 0.036703587 0.060533486
-0.057856366 -0.060136564 -0.08284614 -0.12837261 -0.00015808252 -0.09992614 -0.12199571 -0.04817383
0.005224979 -0.12619953 -0.020182328 -0.029121565 -0.1733392 -0.06740581 -0.017930778 0.0023723561
0.057767045 0.023003666 -0.012951808 0.0058760773 -0.040007867 -0.020816443 0.07479454 0.06945266
0.018300107 0.06994846 0.019003524 -0.017548181 -0.06259023 0.11847706 0.09784078 0.049061876
-0.070666045 -0.05832234 -0.029922891 -0.08147262 -0.013948618 -0.050678786 -0.053627383 0.0037128106
-0.07305509 -0.06116673 0.036554683 2.416782e-05 -0.17571774 -0.085592195 -0.07753872 -0.030601127
0.038027067 0.0052989973 0.025794875 -0.0794804 0.096564546 0.027639035 0.024834948 0.044338446
0.020381471 -0.029061098 0.044258397 0.03544178 0.0028289116 -0.0013898968 -0.037292726 0.0020738817
-0.04290822 -0.019383827 0.03295846 0.04026041 -0.105332665 -0.0631539 -0.008496496 0.025322914
-0.061859343 0.07342961 0.054712374 0.022163695 -0.03589948 0.055990096 0.15879458 0.03836509
-0.031041455 -0.06247122 -0.026064064 -0.011040447 0.017526472 0.00041520494 -0.10375581 -0.023618056
-0.07187415 -0.03959168 -0.02089848 0.051222887 -0.045556065 0.06869625 0.031864002 -0.02816676
-8.3029445e-05 -0.01851131 -0.08079945 -0.011646195 0.03620217 0.048991136 0.027179047 -0.050372712
0.048293564 0.012480253 -0.069595166 0.03774017 0.06634039 0.06305944 0.06215057 -0.017293105
-0.08582125 0.047599737 0.058964957 0.03140715 -0.07265286 0.018240869 0.09480685 0.04632213
0.0068035764 -0.026486764 -0.04523831 -0.03433996 0.052534223 0.0103373565 -0.019285826 -0.032655865
0.061040953 -0.039065916 -0.06272846 -0.018440703 -0.023383593 -0.046109125 0.011666599 0.06456147
0.02075663 -0.0028362772 0.04940808 0.085228994 0.071345285 -0.0343397 0.00020555763 -0.071915254
0.061438553 -0.06154596 0.031081133 -0.049975693 -0.023180952 0.02213308 -0.01826142 -0.032431304
-0.014920222 0.07595009 -0.09139094 -0.024072213 0.042910125 -0.091412894 0.009038295 -0.059301343
-0.043726023 -0.011728198 0.047955777 0.070057094 -0.051533595 0.05717372 -0.07426184 -0.06743964
-0.004755427 -0.026905276 -0.019985395 -0.07029007 -0.07291619 0.06669455 -0.074438915 -0.0592366

conv.2.bias f4 [32]
00000000: 4785 243d 592d 903d 6481 bb3d bf06 0ebd
00000010: 88eb 633c de0f c73c d188 6cbc 6199 673d
00000020: 0673 a13c 0660 04bc 0958 443c 41e0 313e
00000030: 0946 bbba de7b 3e3d b952 f43c acd7 9f3c
00000040: a895 f7bb c928 c9bd 1876 bbbc 71c4 03bb
00000050: 95e0 9d3c 0b46 09bc d47f 8fbd 1229 353c
00000060: 2195 c2bc ad7a 963c 04b5 9a3d 05a1 95bd
00000070: d91e 103d 329c 7fbd d4b8 27bd e3b1 7f3b
0.040166166 0.070398994 0.09155539 -0.034674402 0.0139111355 0.024299558 -0.014436916 0.056542758
0.019708168 -0.008079534 0.01198388 0.17370702 -0.001428784 0.046504848 0.029824601 0.01951202
-0.007555682 -0.09822232 -0.02288346 -0.0020106102 0.019272128 -0.008378516 -0.07006803 0.011057155
-0.02375275 0.018369043 0.07554057 -0.07306103 0.03518567 -0.06240482 -0.04094775 0.003901594

conv.3.weight f4 [32]
00000000: fb08 773f fd3f 743f b16c 813f f03a 893f
00000010: e4a7 803f ab4d 643f 21ba 8b3f 9497 793f
00000020: 4e8f 863f 98d2 963f f3fe 823f 4480 6c3f
00000030: 4796 753f a489 803f e342 6c3f efa0 6b3f
00000040: 134b 8c3f 84a0 8f3f 93fd 873f 3651 6c3f
00000050: eb62 603f 1808 8e3f b23b 653f 776c 803f
00000060: ceb5 6a3f fd00 5a3f 08f7 703f 00f0 6e3f
00000070: 2da7 6f3f 54a1 763f bcf3 473f 1ece 803f
0.9649808 0.9541014 1.0111295 1.0721111 1.0051236 0.8918101 1.0916177 0.97496915
1.0512483 1.1783018 1.0234054 0.9238322 0.9593243 1.0042005 0.9228956 0.9204244
1.0960411 1.122086 1.062426 0.9231142 0.87650937 1.109622 0.8954421 1.0033101
0.9168366 0.8515776 0.9412694 0.9333496 0.93614465 0.9633992 0.78106284 1.0062902

conv.3.bias f4 [32]
00000000: ef53 e8bd e829 9bbe 6e51 4dbe b5f1 94be
00000010: 7870 82be 0c82 38be 58bf 2cbe af16 9cbe
00000020: 5387 e1bd 709d 82be 1efc 83be cbaa 06be
00000030: f28c 82be e78e 33be 6cd9 74be d62f 40be
00000040: 8f1e 80be 8fb0 39be 6d93 eebd 9553 18be
00000050: 6350 3abe 61c2 32be 6589 53be 7029 05be
00000060: 714e eabd b8c2 87bd 8fb5 45be f35b 84be
00000070: 15c3 a0be b272 2abe 689d e4bb 1bd6 96bd
-0.11344134 -0.3030541 -0.20050594 -0.29090658 -0.25476432 -0.18018359 -0.16869867 -0.30486056
-0.11012139 -0.2551074 -0.25778288 -0.1315109 -0.25498158 -0.17534982 -0.23911065 -0.18768248
-0.25023314 -0.18133758 -0.11649213 -0.14875634 -0.18194728 -0.17456962 -0.2065788 -0.13004088
-0.11440743 -0.066289365 -0.1930754 -0.25851402 -0.31398836 -0.16645315 -0.006976772 -0.07365056

conv.3.running_mean f4 [32]
00000000: a02b ba3c b536 093e f53a ea3d 5ef7 00be
00000010: a469 36bd 5a17 763d 51e8 42be 650d 6f3d
00000020: aa9e 8abd 73b1 16be 546d dfbc dc65 5b3e
00000030: 2868 e53d abb2 9b3d 7cc3 393d 8b0c 16bb
00000040: 58f3 d9bc a116 80be 4f5d 30be ffb4 8a3c
00000050: 2a38 81bd ede4 80bc 1336 95bc f1e9 ae3b
00000060: 75a4 73bd 8756 25be cc94 f2bc 1bd8 bdbd
00000070: ded8 1e3c acf9 b1bd 392c 28bd db12 a9bd
0.02272588 0.13399775 0.114370264 -0.12594363 -0.04453434 0.060080864 -0.19033934 0.058362383
-0.06768544 -0.14716129 -0.027273811 0.21425575 0.11201507 0.076024376 0.045352444 -0.002289566
-0.026605293 -0.25017264 -0.17223094 0.016932009 -0.063095406 -0.01573416 -0.018214261 0.0053379466
-0.05948301 -0.16146289 -0.029611968 -0.092697345 0.00969526 -0.08690199 -0.0410578 -0.082555495

conv.3.running_var f4 [32]
00000000: 8fa8 973b 50c6 113c 0d0d 013c 32f5 1a3c
00000010: 12bb ac3b 78a2 0d3c bbd7 fb3b b4b3 0c3c
00000020: 5822 163c d742 1f3c c96b 053c 5a52 063c
00000030: c2da 393c fade 163c 5157 193c 6031 843b
00000040: e470 bc3b 3c6b 273c 9ec2 333c 08f5 d73b
00000050: 4ee0 3c3b c673 a83b 77f0 ef3b 8589 183c
00000060: e15c bc3b fea2 2f3b 8610 d03b cdd0 9d3b
00000070: f43d ce3b c5bc c53b 92c1 da3a 1883 d93b
0.004628248 0.008897379 0.007876647 0.009457873 0.005271324 0.008644693 0.007685629 0.008587766
0.009163462 0.009720526 0.008143374 0.008198345 0.01134366 0.009208435 0.009359197 0.0040342063
0.0057507623 0.010218438 0.010971693 0.0065904893 0.002882022 0.0051407544 0.007322367 0.009310131
0.0057483767 0.0026800032 0.006349626 0.0048161508 0.0062940065 0.006034466 0.0016689769 0.006637942

conv.5.weight f4 [64, 32, 4, 4]
00000000: 7555 0d3c 95aa 22bd 63b2 5a3c ee12 33bd
00000010: dc0c 6cbd 72b8 e5bd c93f 1bbb 5f6a 133d
00000020: 02f9 9c3d 39b1 253c 9995 61bd e5c5 943c
00000030: bedb 373d 741d 733b b853 343d f7fc dd3b
00000040: 0411 44bc 594b b43c dffd 713c 3292 0e3c
00000050: 50b6 7f38 bedd 50bd 4e85 c5bc 3aed c9bc
00000060: ca91 13bd 8366 cd3c c992 fa3c 999e 7bbd
00000070: e7b1 1dbd e1e4 d93c 01b6 d53b 3f6c 853d
00000080: 3779 2fbd b16f 283d 7425 16bd e2ea b73d
00000090: ac5f d7bc 88f7 89bd 9a0e c3bb 481a acbc
000000a0: 6e53 5abd 01ba 3abc b296 d5bc 0f03 203d
000000b0: 860f 82bd 7220 a5bd 2d60 2a3d 6640 69bb
000000c0: 9c49 403d fe26 c53c 5a88 293d b103 e2bd
000000d0: a9fc 723d dea5 383d 6211 febc e1da 4abc
000000e0: 8dd0 053d a4bc 2d3c e759 263d e42c dabd
000000f0: 6fff 683d 81bf 233d 2ab5 7abc 123d 023d
00000100: ac06 8dbd 6a00 a63d fedf af3b 7e5b 253d
00000110: 2585 5cbd a7d9 d1bb 8e54 8e3c 9bad c03d
00000120: c738 453d d2e6 40bd fd56 d3bc 75ed 9c3c
00000130: 1b52 97bc 287e 37bd 700b ce3c f87b c63c
00000140: 6fc5 bfba e6ad 60b9 ad0a 1ebd efaa a6bc
00000150: 65bd f43c 79e7 18bd 5e09 48bb 7ecd 18bd
00000160: 8722 b0bc 38a7 303b a835 cbbc f64e 773b
00000170: e5e3 46bd b327 2bbd 8444 843d 2278 253d
00000180: c5fe 7bbc fe56 48bd 1b46 d13d 9fd5 923d
00000190: 7d37 8abd 34db 243d b700 f43c cc9c 10bc
000001a0: b1a5 64bd 3a44 f5bb ee66 873d 47aa 453a
000001b0: 3e14 a3bd bd7b 0e3d 0408 dcba 1e31 dbbd
000001c0: c2fe 023d ca14 8fbd e698 f23c 65ad 9c3c
000001d0: 970d 963d e5c0 f83b 4baf 56bd 2ea1 87bd
000001e0: 1a58 5d3d 3b30 123d db72 3d3d 9052 ab3d
000001f0: 3b84 a73d 28f9 ca3d b872 373d 8f8e b3bc
00000200: cbc9 66ba 3a5e 4cbc ebd2 22bc 92ee 1e3d
00000210: 1fb7 eb3b 268d 92bb c2e6 5a3d c2f3 673d
00000220: 346c 9bbd 74e3 0fbd 242b e53d 33e5 003c
00000230: 0092 b43b 64d0 623c 82fd 89bd 0429 93bd
00000240: 81c0 c23c 8027 563d c865 bdbb 7c28 92bb
00000250: 3e45 56bd 8490 e63c c126 1c3d 6c85 bfbc
00000260: 0229 25bd 95e1 91bd bfc7 6c3d 2398 1ebd
00000270: 857f 8bbb fa1f 5f3d 22f6 9d3d 4ebc fe3b
00000280: 392e f13d 69a1 5abc d0ad 283a d0b5 933d
00000290: 2a38 673d 706b 7abd 6ce8 a8bb a586 1abd
000002a0: 48aa 1cbc 4fe3 8cbd 6281 8abd 9ed0 c5bb
000002b0: 60ff cfbb c56b 53bd f6fd 13bb a732 833d
000002c0: 24cd 16bc c48b 223b 1075 893c 40d3 02bd
000002d0: 5248 563d 1292 e43d 69e2 cabd ca04 e3bc
000002e0: e3f9 dd3c 6da6 9dbc e8f3 1bbc 9f10 153c
000002f0: e40a b33c 72d3 3e3d 682d 6bbb b63b 36bd
00000300: 75b1 91bc b67f ea3c 9c8b 253d e738 703d
00000310: 5588 a8bd 2032 723c 5cd6 763c a58c 183d
00000320: c228 0bbd 44f9 32bd 0621 6a3d 84df 48bc
00000330: b28f b23c 0446 57bd 0dff 84bc 3410 813d
00000340: 4abc 3f3d d4e9 4bbd 51bd a53c 8aef c23d
00000350: 068b 4d3c 59fe b23d 8041 b53d bf0e 033d
00000360: 5377 ae3c 529a 09bd 8de9 dcb9 85ed 453d
00000370: abb0 24bd 2442 a83c 933c 00ba 5d57 4c3c
00000380: 680e 163d c0e4 06bd 4cf3 a7bb 12ba a53d
00000390: 2fb0 b2bd bb27 9b3d 20e9 07bd 8fcb d8ba
000003a0: 3e0e cfbb 9074 e73c cf8c 4bbd 25fc a3bd
000003b0: bb83 3c3b b0a5 093c 73ad b1bd daea 4e3b
000003c0: a92f 643c 590e 073d 6efa 77bd 1781 b2bd
000003d0: f209 3f3d d434 59bc bcfe 793d 0103 353d
000003e0: 0c0b d5ba 3fc3 fcbc c48a 363d 6587 87bd
000003f0: dd30 88bc b079 a5bc e4e4 de3c deb2 ef3c
0.008626332 -0.03971346 0.013348195 -0.043719225 -0.05762945 -0.11216821 -0.0023689142 0.035990115
0.07664682 0.010113054 -0.055074308 0.01816077 0.044887297 0.0037096413 0.044025153 0.0067745405
-0.0119669475 0.022008585 0.01477 0.008701848 6.096653e-05 -0.05099272 -0.024111416 -0.024649251
-0.036027707 0.025073295 0.03058757 -0.061430547 -0.03849974 0.026598396 0.0065219407 0.06514787
-0.04284021 0.041122142 -0.03665681 0.08980347 -0.026290737 -0.06736666 -0.0059526684 -0.021008626
-0.05330222 -0.011396886 -0.026072834 0.039065417 -0.06350617 -0.08062829 0.041595627 -0.0035591363
0.0469452 0.024066444 0.0413898 -0.1103586 0.059322987 0.04508006 -0.031014148 -0.012381286
0.032669593 0.010604057 0.04061308 -0.106530935 0.056884225 0.039977554 -0.015301982 0.031796522
-0.06886038 0.08105548 0.005367278 0.040370457 -0.053837914 -0.00640412 0.017374303 0.094081126
0.04814985 -0.047095127 -0.025798315 0.019156197 -0.018471768 -0.044798046 0.025151938 0.024229035
-0.0014630983 -0.00021427087 -0.0385844 -0.02034518 0.029875467 -0.037330125 -0.0030523161 -0.037305348
-0.021500839 0.002695514 -0.024805859 0.0037736273 -0.04855718 -0.041785907 0.06458381 0.04039777
-0.015380566 -0.048911087 0.1021845 0.07169651 -0.06748865 0.04024811 0.029785497 -0.008826446
-0.05582208 -0.00748494 0.06611429 0.0007540327 -0.07962845 0.034785975 -0.0016787057 -0.10702728
0.031981237 -0.06986387 0.029613923 0.01912565 0.07326811 0.007591354 -0.052413266 -0.066225395
0.0540391 0.035690527 0.046252113 0.08365357 0.08179518 0.09910804 0.04478714 -0.021918563
-0.0008803873 -0.012473637 -0.009937982 0.038801737 0.0071934606 -0.0044723926 0.053442724 0.05662895
-0.075889975 -0.035129026 0.11189869 0.007867145 0.0055105686 0.0138436295 -0.06737806 -0.071855575
0.023773434 0.052283764 -0.0057799555 -0.0044603925 -0.05231213 0.028145082 0.038122896 -0.02337905
-0.04032231 -0.071231045 0.05780768 -0.038719308 -0.004257145 0.054473855 0.07712962 0.0077739125
0.117763944 -0.013344147 0.00064345915 0.07212412 0.056450047 -0.061137617 -0.00515466 -0.037726063
-0.009562083 -0.06879293 -0.06762959 -0.006036832 -0.0063475817 -0.05161645 -0.0022581792 0.064061455
-0.009204183 0.0024802545 0.016779453 -0.031939745 0.052315064 0.11160673 -0.099064656 -0.027712245
0.027096694 -0.019244397 -0.009518601 0.009098201 0.021855779 0.04658837 -0.0035885219 -0.04449054
-0.017784813 0.02862535 0.040416345 0.058648016 -0.08229128 0.014782459 0.015065756 0.037243504
-0.033974417 -0.04369475 0.0571604 -0.0122603215 0.021797035 -0.052557006 -0.016234899 0.063019186
0.046810426 -0.049783543 0.020231875 0.09518345 0.012545353 0.08739919 0.08850384 0.031996485
0.021297133 -0.033594437 -0.0004213568 0.04832222 -0.040207546 0.02053935 -0.0004891839 0.012472001
0.036634833 -0.032932997 -0.005125439 0.08092131 -0.087250106 0.07575937 -0.03318131 -0.0016540157
-0.0063188365 0.028253824 -0.049694832 -0.08007077 0.002876504 0.008401319 -0.08675661 0.0031573088
0.013927379 0.032972667 -0.060541563 -0.08716028 0.046640344 -0.013257224 0.06103395 0.044192318
-0.0016253903 -0.03085482 0.04456593 -0.06617621 -0.016624862 -0.020199627 0.027208753 0.029260095

conv.5.bias f4 [64]
00000000: c41f 893d f3c0 02bb f7a2 7abd 20c0 52bd
00000010: 8ba2 7b3d 5981 3c3c 2d79 d0bd bb19 dcbc
00000020: 56e5 b03d 376b d73c 4a09 51bd e65b d73b
00000030: 213f ab3d c37f 20bc d56a 8bbd 2ddf fd3b
00000040: 4fe4 823c cba9 81bc 0087 413c 4c54 b9bc
00000050: 57d3 933d d783 dd3b 7001 403d 6e03 34bd
00000060: c996 9f3d f2fa 833d 25bf 26bc d0fa 5dbd
00000070: cc6f 283d a139 e03c 5adf 4b3d a262 eb3c
00000080: 9891 b7bd 7892 f63c 4b69 433d 3390 11bd
00000090: 43c4 5d3c 9ef7 f23b 8e3b 02bd 31f4 1abc
000000a0: 83c4 273d c385 1d3d 1c66 0b39 ce31 e03c
000000b0: a16a 80bd 6dde 7abd 0755 12bd bf09 763d
000000c0: aa0c f3bc 79b9 483d 73b8 b63b a2ef f43b
000000d0: 8856 aabc 4c85 0cbd 1424 28bd 6e53 873a
000000e0: d46a 1fbd 7003 61bd 6d8b 97bd bf4a 4d3d
000000f0: a739 9e3c b0c2 8cbd 1909 3fbd 82ae 723d
0.06695512 -0.0019951432 -0.06119057 -0.051452756 0.06143431 0.011505448 -0.101793624 -0.026867738
0.08637492 0.026296241 -0.05103425 0.0065722344 0.0836165 -0.009796086 -0.06807486 0.007747552
0.015978007 -0.015828034 0.011811972 -0.022623204 0.07218044 0.0067601013 0.04687637 -0.043948583
0.07792432 0.064443484 -0.010177408 -0.05419427 0.041122243 0.02737123 0.04977355 0.028733555
-0.08963317 0.030099139 0.047707837 -0.03553791 0.013535562 0.007414772 -0.031795077 -0.009457634
0.040958893 0.038457643 0.00013294112 0.027367499 -0.06270338 -0.061247278 -0.03572562 0.06006789
-0.029669125 0.049005006 0.0055761873 0.0074748555 -0.020793214 -0.03430681 -0.04105003 0.0010324547
-0.03892024 -0.05493492 -0.0739964 0.05012011 0.0193146 -0.06873071 -0.046639536 0.059248455

conv.6.weight f4 [64]
00000000: 0477 fb3f 060d de3f 7b7e e73f a4e5 cf3f
00000010: eaa0 ca3f a805 f13f 540f f83f a4ff df3f
00000020: 8e31 e33f 2ab0 ea3f 1950 e93f 1574 d63f
00000030: f941 e53f 33d1 d53f aa29 e03f c821 da3f
00000040: 4514 e33f cfe5 cb3f 3b78 da3f a289 ec3f
00000050: 2b24 e03f b88e e73f 5c02 d93f 3597 f73f
00000060: b96d d23f d9aa e03f 2f1c fc3f 3a03 f03f
00000070: f972 d23f 8878 f13f 32b0 d43f a173 d23f
00000080: 3fd1 eb3f d83f e93f b36b e43f 0610 e93f
00000090: dd78 e03f 833a c73f 7715 d43f 9b7c e43f
000000a0: 0930 eb3f a268 d63f a9c0 d93f 9122 e13f
000000b0: 3206 ec3f c232 ed3f 9dd5 df3f 9f07 e73f
000000c0: b959 e73f cade fb3f 930b e13f 43d3 f03f
000000d0: 81c2 d23f 7316 e33f 5e9b f13f 6417 d73f
000000e0: aca8 e63f aa67 e73f 2756 ed3f 86b5 e23f
000000f0: 81aa e83f d5da fa3f 25e9 e03f d86d f13f
1.9645696 1.7347724 1.8085474 1.6241956 1.5830357 1.8829851 1.9379678 1.749989
1.7749498 1.8335011 1.8227569 1.6754175 1.7910758 1.6704468 1.7512715 1.7041559
1.7740561 1.5929507 1.7067941 1.8479502 1.7511038 1.8090429 1.6953845 1.934302
1.6439735 1.7552139 1.9696101 1.8750985 1.6441337 1.8864908 1.661627 1.6441537
1.8423232 1.8222609 1.7845367 1.8208015 1.7536885 1.5564731 1.656905 1.7850527
1.8374034 1.6750681 1.701192 1.7588674 1.8439391 1.8531115 1.7487065 1.8049201
1.8074256 1.9677365 1.7581657 1.8814472 1.6465608 1.7741226 1.8875539 1.6804013
1.8020225 1.8078511 1.8541917 1.7711647 1.8177034 1.9598032 1.757115 1.8861647

conv.6.bias f4 [64]
00000000: ac63 3fbe 9bcb b9bc b8eb a0bd 9e05 f63b
00000010: 90d2 1b3e 0240 8fbd 2d18 8dbd c93c 17be
00000020: 5928 2bbe 2a22 7ebd e63f 21bd 0245 a1bd
00000030: c990 acbd 5a7a cfbd 75da 35be 8a4e 8cbd
00000040: 0608 acbd 40d3 38bd 58b8 2fbe 9aef 22be
00000050: 1768 51bd 3cdd bdbd 09ad 74be 81de 89bd
00000060: 377f f7bc a319 08be 5751 cebd 136b a8bd
00000070: b58c 57bd 4183 05bd 3db5 acbc f105 5cbe
00000080: 6d7a b53d aa2b f6bd 0b9d f9bd 9b74 81bd
00000090: a835 2dbe 9335 c4bd de9a 92bd c358 81bd
000000a0: ab18 66bd 222a 3e3d 031e 6ebd 87ca a3bd
000000b0: 698d 31be 3589 11be ebf5 19bd ca61 22bc
000000c0: fdc5 39be a59e c1bd 6b21 533c b28a 01bd
000000d0: 54a1 c6be 2a4a 723d c47f e1bd 2f83 31be
000000e0: 447e a6bd 1df2 8dbc 945c d0bd 799c d9bd
000000f0: 6221 d4bd 56ba e9bd c6c9 fdbd 45e0 4ebd
-0.18690366 -0.022680094 -0.0785746 0.007507994 0.15217042 -0.069946304 -0.06889377 -0.14769281
-0.1671461 -0.0620443 -0.03936758 -0.0787449 -0.08426053 -0.101307586 -0.17759116 -0.06850918
-0.08399968 -0.04512334 -0.17160165 -0.15911713 -0.05112466 -0.09270713 -0.23894133 -0.067318924
-0.030212028 -0.1329103 -0.10074108 -0.08223548 -0.052624423 -0.032595877 -0.021082515 -0.21486641
0.088612415 -0.12020047 -0.12188157 -0.06321069 -0.16915 -0.09580531 -0.07158445 -0.06315758
-0.05617587 0.0464269 -0.05813409 -0.079976134 -0.173391 -0.14212497 -0.03758804 -0.00991101
-0.18141933 -0.09454087 0.012886385 -0.03162641 -0.3879496 0.05915276 -0.110106975 -0.17335199
-0.08129552 -0.017327363 -0.10173908 -0.10625548 -0.1035793 -0.11412494 -0.12392001 -0.05050685

conv.6.running_mean f4 [64]
00000000: fbc8 753e ce02 e8bd 657a f7bd c176 9d3d
00000010: 25f5 e73d 00c4 f9bd 729f 003c 69b2 f9bd
00000020: a0e6 4f3e 0c53 6f3d 2fbc 8cbe 6cf5 f23e
00000030: 9531 c1bd 960f fb3e 3e73 b0bd 9ede 44bf
00000040: 6312 bd3c 3c2c 46be cd61 9dbe d09d 873c
00000050: 25b0 03be b253 2bbe 9180 c73c 6028 22bf
00000060: ca5c d43d a262 1f3e c69b 85bd 9ae4 863e
00000070: 1e92 ef3d a99d e63d dbc5 153e 8e51 363f
00000080: d09e 87be 0b5b 5c3c afc1 8c3e 6bc1 b6be
00000090: 4d00 47bd 51c4 363f a23d 643e 69b9 e8bc
000000a0: db47 593e f332 d0bc dccc 34bd ee01 e93d
000000b0: 0111 f6be 100f 9ebe d70d c73d 08b8 1cbd
000000c0: 0701 4f3e b284 19bc f8d4 5dbd d6b4 36be
000000d0: 3c86 893e 68a3 56be 5de7 daba 18de 9e3e
000000e0: 5c98 fe3d bcd9 63bd 4288 09bf 4aef 4fbb
000000f0: a1d8 483e 509c 993d 84af a3bd 5b01 b2be
0.24002449 -0.1132866 -0.12083892 0.07688666 0.113260545 -0.12195587 0.007850515 -0.12192232
0.2030282 0.05842881 -0.27487323 0.47452867 -0.09433285 0.4903533 -0.08615731 -0.76902187
0.023080057 -0.19352812 -0.3073868 0.016554743 -0.12860163 -0.16731146 0.024353297 -0.6334286
0.103692606 0.15564969 -0.06523852 0.26346284 0.116977915 0.1126054 0.14626257 0.7121819
-0.26488352 0.013449441 0.2749152 -0.3569444 -0.04858427 0.71393305 0.22289136 -0.028408723
0.21218817 -0.02541492 -0.04414068 0.11377321 -0.48059848 -0.30870867 0.097194366 -0.038261443
0.20215236 -0.009370016 -0.05415818 -0.17842421 0.26860225 -0.20960772 -0.0016701032 0.3102882
0.12431404 -0.05562757 -0.5372354 -0.003172832 0.19613887 0.07500517 -0.07992461 -0.3476666

conv.6.running_var f4 [64]
00000000: ed19 273e d0b6 1b3e f13b 3d3e d814 873e
00000010: 07b2 443e ef97 323e 2976 263e d0d8 1e3e
00000020: 3f53 2b3e f609 253e e91e 1d3e 6d93 1d3e
00000030: 5885 293e 2fde 503e de29 853e ac13 1d3e
00000040: 6cff 373e aad9 4f3e 219a 083e 6349 1c3e
00000050: 9309 353e 0c4f 373e 73a8 363e d672 3f3e
00000060: 0eda 5a3e 0dc8 1f3e 1eba 123e 7ad3 fd3d
00000070: 2066 3f3e 7ee1 1c3e 9999 e53d df60 5e3e
00000080: 570c 343e 4a97 2a3e 36de 633e e16f 313e
00000090: f4f9 283e b947 4d3e 9c0d 303e b7af 0b3e
000000a0: eec3 333e 5a2f 093e 0763 563e 3ed2 193e
000000b0: 52ab 113e 302c 1e3e f889 743e 18d1 123e
000000c0: dad5 0a3e 50df 1f3e 683d 173e 58b1 4a3e
000000d0: 862b 913e 501b 253e 608a 1f3e 5d76 233e
000000e0: ecc4 043e e348 2d3e 3658 163e 1f73 143e
000000f0: 0c16 083e d07a 2e3e 4442 283e 413b 243e
0.16318484 0.15206456 0.18479897 0.2638309 0.19208537 0.1744077 0.16256012 0.15512395
0.16730975 0.16117081 0.15343823 0.1538827 0.16554773 0.20397256 0.26008505 0.15339535
0.1796853 0.20297876 0.13340046 0.1526237 0.17679434 0.17901248 0.17837696 0.1869615
0.21372244 0.15603657 0.1432881 0.123938516 0.18691301 0.15320393 0.11210937 0.21716641
0.17582832 0.16659275 0.22252735 0.17327835 0.165016 0.20046891 0.17192692 0.13641249
0.1755521 0.1339697 0.20936213 0.15021607 0.1422551 0.15446544 0.23880756 0.14337575
0.1355814 0.1561253 0.14769518 0.19794214 0.28353518 0.161237 0.1558013 0.15963121
0.12965745 0.16922335 0.14682087 0.1449704 0.1328966 0.17039037 0.16431528 0.16038229

adv_head.weight f4 [1, 2304]
00000000: aba4 25bc 5baa f6bb 460b a1bb c76f f3bb
00000010: 27a1 7cbc 635a 9439 fbd6 c6bb 302e 8d39
00000020: c8b1 7aba 40b6 eeba e6d5 09bb fe19 aa3b
00000030: 0a2e 993b 6e58 17bc 76e0 20bb a2c1 c63b
00000040: e33c 21bb a1e3 323c 5303 3cbb 053b d93a
00000050: ca95 2d3c a6b8 49bb 2577 afb9 5238 0dbc
00000060: 2376 2aba 42b4 b93b 5e8b bb3b 1e55 7a3b
00000070: 99f5 a2ba 779b 02bc 8828 d0bb 34df a03b
00000080: 07de 44ba 63b7 8a3b 9aaf a63a e30d 98ba
00000090: 9441 d0bb cab1 3c3b 4f78 69bb 83fc 753b
000000a0: 725c 94bb fe88 6f3b 4046 bd3b 8187 ccbb
000000b0: 2058 1e3c 6cba 533b 4f0d 04bb 78f0 f73a
000000c0: 9d57 063c 5339 c73a b230 07ba 7357 d43b
000000d0: 7f5d 2dba e925 a33b 0e63 383b b87f 673b
000000e0: 5c12 d839 1786 14bc 4050 a73b 283c cebb
000000f0: 32cc d93a ada3 4cbc 0802 cbba 828c c73a
00000100: 69b1 443b f2c7 3cbb 453c 5b3b 8ce2 b13b
00000110: eed4 e0bb 8ae4 93bb 268c 1539 b309 68bb
00000120: d7ac 71bb bec4 813b d630 bbba 95a6 0a3c
00000130: 6dc3 a2bb 7a0c afbb d557 babb 10c0 cdbb
00000140: fd93 233b 75e9 62ba 8b80 10bc 2a02 f1ba
00000150: 0373 943a 25a3 3cbc e87a 18bb f77a 993b
00000160: 175d 62bb 1e0e a1bb e129 c8bb b5c6 943b
00000170: e8b3 3c3b ec1f f83a d60a 5fba 55d3 d83b
00000180: 8923 89bb 235a c33b 216b 8dbb 4575 7c3b
00000190: ce39 b03b 2329 bcbb 82c2 8d3b d2bc 0fbb
000001a0: 789c 9abb 5632 2cbc 5b72 793b cd57 ef3b
000001b0: bbf1 b1bc 72df 363b 6282 a23c 1e4e e0bb
000001c0: 95dc 143c 8ddf 163c cdd4 f8b9 4d7a bd3b
000001d0: 18d2 1a3c 50a4 8c3b 393d a43b e524 783c
000001e0: ac93 023a f46c 503c 4c6a a8b9 ffbe eb3a
000001f0: 1d50 01bb a690 073c 053e f2bb 39ad 36bb
00000200: 0dcd 633c feda 73bb 8ef8 ed3a a93b 9d3c
00000210: 6ac4 88ba 0365 af3b 2c97 983b ec01 8fbc
00000220: 3f72 9c3a f88e dd3b 2164 1fbc 37aa 39bc
00000230: 5a66 823b da77 d13c d30f 833b 5b72 4d3b
00000240: d123 cbb9 2eac 2e3b 82b8 f1b9 82ef 20bc
00000250: a1b0 93bb 769d f5ba 6005 ec3b 4e24 373b
00000260: 5923 07bc f743 493b 74a5 8f3b 87e9 b0bb
00000270: 65b1 683b c1ca 22bb 8345 d6bb 5075 24bb
00000280: a264 b9ba 937d b03b a02f 26ba 4c02 44bc
00000290: 3a81 db3b 231f e03b d094 463b b761 f2bb
000002a0: 8549 06bc 8f28 28bc 120f b2b9 ddfc c7ba
000002b0: 5ab0 093c 3bcc 28bc ef97 00bb 0f2d 2b3c
000002c0: d093 8cba 62b1 d13b a342 d03a 5825 90ba
000002d0: 409f 853c 409b 903b af0c d5bb 77a3 b03a
000002e0: 7e9b fe3b fb3f 2b3c 2a01 ebbb 76d4 79ba
000002f0: 8806 8cba de71 30bb 8160 cbbb f853 fabb
00000300: a7f4 cb3b 65bd f7bb 7506 83bb 98af 0639
00000310: a66a a1ba 9c93 a13b 9c40 28bc 53b6 203a
00000320: f793 5cbb d4a2 b83a e06a bfb9 c5b0 cabb
00000330: 54ac c6bb 9d2d 463b 3955 c8ba 6bae 0ebc
00000340: 242f 18bc 1cef 8938 4fa2 3fbc ba7e 32ba
00000350: 6717 873b d56e 763a fd6c 033c 084e 2d3b
00000360: 09f0 c93b a1b0 683b 2384 9239 8300 1abb
00000370: fecb 60bb 6cda 16bb 9f61 373c ae41 8b3b
00000380: 79ef 96ba bd0c cd3b 2a42 093b 8ef4 463b
00000390: 393d 2b3c c4b8 12bb ab49 13bc 088e b53b
000003a0: a8bd e539 9cde e13b 8c94 a53a 27de d9bb
000003b0: 90fc a1bb 0077 abbb e16a 5fbb ddd6 14b9
000003c0: 5a75 0aba 8790 14bc 5bd0 1ebc fd28 a7ba
000003d0: 78d3 b2bb 7842 e93b 7f23 d83b 79a1 65bb
000003e0: f67a e23b 3da4 0ebc 1fbd ab3a fa39 b13b
000003f0: af41 09b9 b0c8 673b 2f75 b1bb c866 45bc
-0.010110061 -0.007527632 -0.004914674 -0.0074290964 -0.015419281 0.00028296103 -0.006068108 0.00026928028
-0.00095632346 -0.0018212274 -0.0021032034 0.005191087 0.0046746777 -0.009237392 -0.0024547852 0.0060655633
-0.0024602942 0.010918529 -0.0028688505 0.0016573375 0.0105947945 -0.0030780225 -0.0003346737 -0.008619385
-0.0006502589 0.0056672404 0.005723401 0.0038197706 -0.0012432813 -0.007971636 -0.006352488 0.0049094204
-0.00075098913 0.004233287 0.0012717128 -0.0011600818 -0.006355474 0.0028792494 -0.0035624688 0.0037534542
-0.004527622 0.003655016 0.0057761967 -0.0062417393 0.009664565 0.003230716 -0.0020149534 0.001891627
0.0081996 0.0015199579 -0.00051570975 0.0064801513 -0.0006613358 0.0049788845 0.0028135213 0.003532393
0.0004121241 -0.009065173 0.005106002 -0.0062937923 0.0016616641 -0.012490195 -0.0015488276 0.001522437
0.0030012971 -0.00288057 0.0033452671 0.005428618 -0.0068613207 -0.004513328 0.00014261957 -0.0035406172
-0.0036876702 0.003960221 -0.0014281522 0.008462568 -0.004967144 -0.0053420635 -0.00568674 -0.006278999
0.0024960034 -0.00086560036 -0.0088197095 -0.0018387486 0.001132578 -0.011513506 -0.0023266617 0.004683848
-0.003454035 -0.004915013 -0.006108508 0.0045402893 0.0028793756 0.0018930412 -0.00085083896 0.0066169896
-0.0041851443 0.005961673 -0.0043157493 0.0038522047 0.0053779846 -0.0057422086 0.0043261657 -0.0021932614
-0.0047183596 -0.010510048 0.0038062546 0.007304168 -0.021721711 0.002790418 0.019837562 -0.00684525
0.009085794 0.009208572 -0.00047460795 0.0057824017 0.009449504 0.0042920485 0.005012181 0.015145515
0.0004981111 0.012721289 -0.00032122654 0.0017985998 -0.001973159 0.008274233 -0.007392647 -0.0027874245
0.013903868 -0.0037209387 0.001815574 0.019193487 -0.0010434513 0.0053526177 0.004656693 -0.017456971
0.0011935903 0.006761428 -0.009728462 -0.011332086 0.0039794864 0.025569845 0.003999689 0.0031348679
-0.00038745863 0.002665292 -0.0004610457 -0.009822728 -0.00450714 -0.0018738944 0.007202789 0.0027945223
-0.008248174 0.0030710676 0.004383737 -0.0053989324 0.0035506126 -0.002484009 -0.006539048 -0.0025094338
-0.0014144371 0.0053860634 -0.0006339494 -0.011963438 0.0066987546 0.0068396493 0.0030301102 -0.0073969024
-0.008196239 -0.010263576 -0.00033962034 -0.0015257854 0.008403862 -0.010302599 -0.001962181 0.0104477545
-0.0010725204 0.0063993195 0.0015889 -0.0010997457 0.016311288 0.0044130385 -0.006501756 0.0013476451
0.007770001 0.010452266 -0.0071717696 -0.00095302553 -0.0010683099 -0.002692334 -0.0062065725 -0.0076394044
0.006224233 -0.0075604194 -0.0039985725 0.0001284465 -0.0012315109 0.0049309265 -0.01026931 0.0006130684
-0.003365753 0.0014086613 -0.00036509987 -0.0061856234 -0.0060630236 0.003023959 -0.0015284187 -0.008708577
-0.009288583 6.577207e-05 -0.011696412 -0.0006809045 0.004122663 0.00094006705 0.00802159 0.0026444215
0.0061626476 0.003550567 0.0002794574 -0.002349884 -0.0034301276 -0.0023018373 0.011192708 0.004249773
-0.001151546 0.006257622 0.0020943978 0.0030358168 0.010451608 -0.002238796 -0.008989732 0.005540613
0.0004381959 0.006892992 0.0012632771 -0.006648797 -0.004943438 -0.0052326918 -0.0034090804 -0.00014194423
-0.0005281769 -0.009067661 -0.0096932305 -0.0012753304 -0.005457338 0.0071185194 0.0065960283 -0.0035038872
0.0069116307 -0.00870615 0.0013102627 0.0054085227 -0.00013089807 0.0035367422 -0.0054155807 -0.012048431

cls_head.weight f4 [7, 2304]
00000000: 7e01 133d 6ccd 28be b7b7 34be 172c 393d
00000010: 2764 87ba 90fc 39bb e9b3 c7bb 042a 2d3e
00000020: d44c 053c 46ed 1c3d f540 03bd 3d02 78bd
00000030: f933 acbd ecda cbbd 1e52 6d3d 7404 12bd
00000040: 9fae 01bd 44c7 a63d c1e6 643e 599b d7bc
00000050: 007d a93d 64d7 bc3d cc86 d73d fab4 f53b
00000060: fecb 61be 2c1d 16bc 975b 523e 88c5 ef3d
00000070: 2a19 de3d e331 5bbd b57d 04be 935d 983c
00000080: be64 8cbd 4b50 603e 798f b1bb b1a3 03be
00000090: 516a bfbb afcb 4a3e ef44 593e 5ac8 8ebd
000000a0: 8cf0 4bbc b226 b5bd 2942 d23d 5a5c 5a3d
000000b0: 18db 52bd a63d c0bd 24c4 94bd ff0f 733d
000000c0: 1efd b03d 405d 0cbe e5c6 79bd d482 6d3d
000000d0: 1894 883d c707 92bc c88d b4bd 03ac 963d
000000e0: f14b 7cbe 2fbc 003e c4a2 353e 0fb4 7a3d
000000f0: 9834 35bd 7d5c 533e 0ac9 633d d073 ab3d
00000100: c24a a63d b2d3 9bbd 60d5 49bd 4648 89bd
00000110: 45a5 74bd de5e 153d faf8 5d3c 8eae 253b
00000120: f5d9 a23d e9b5 4e3c da1f c4bd 6e83 9b3b
00000130: 9449 9a3c 78b3 c33d 6d1f a9bd 2727 ebbd
00000140: 4cb6 76be 874b 71be 6633 70be ac59 33bd
00000150: f64b 0fbe ce92 75bd 1639 d4bd 2114 c7bc
00000160: 0f57 9a3c 1b21 743d e3e0 a13d 05d6 57be
00000170: 53e7 14be 5ef1 663e 3c64 553e c9c3 993d
00000180: 0ed6 05bd fb27 0bbe 1114 4bbd 2faa 403e
00000190: 070a 2f3d cd3c 0dbd 8726 7bbc 8bd9 86bc
000001a0: 28e7 8f3d b247 093d 3f87 d03d f0ca 9f3d
000001b0: 75ad 193b 189a 033e 4db9 3ebb d880 49ba
000001c0: 6bcd 2e3b e21f 6c3d 008f 293d 07f0 a2bd
000001d0: b322 c8bd 623e f93d 2f43 093d dc41 b9bc
000001e0: f11a 423d 5de8 8b3d a8c2 bc3d eb3d 90be
000001f0: bf9b 253d be76 c43d e9ed 92bd 9c0b 843d
00000200: c298 683d e9be fd3c cfe2 00bd ef12 b53d
00000210: 68d7 efbc 4157 f83d 9de7 d03d 4030 2abe
00000220: 84ca ec3d 3371 28bd ed0c 713d 53c6 21bd
00000230: fdab 84bd cfbe 063c 1e96 87bd c2a7 ecbd
00000240: 3ebd d4bc ed3b c13d 1960 883d 6397 fbbd
00000250: 9a9a 61bd 3795 673d cbd6 46bc ad59 d23c
00000260: 62d5 0cbe 6579 f4bd e391 9fbd 5f54 a43d
00000270: cfc2 303d d56b 4fbb 32d2 90bd c2d3 cbbd
00000280: f47d 9ebe 299a 9b3c a110 c23b 34f4 dc3d
00000290: 6b41 a73c 969d eb3d 2416 84bc 54a4 e03b
000002a0: 95be 71bd 7315 95bd 8884 2bbc 89ed 0e3d
000002b0: 1992 303e 3ff0 6abd c9d9 d1bd 3db3 fa3c
000002c0: 0667 57be a207 683e 473a 25bb 2ef8 f8bd
000002d0: 83fc 80bd e0ee 0f3d 2f37 20bd fe6b 64bd
000002e0: 94bb 4abc 1476 563d 4f37 203e 9cc1 bfbd
000002f0: 4735 a6bd dc16 563e a939 53be 2f1a 00bd
00000300: 68cb c2bd 0ac3 113d 145f e13d f7f4 11be
00000310: 9078 25bd da32 b53c 5870 d5bd 7951 15bc
00000320: 7359 133e 766a 8fbd c14a ed3d b068 82bc
00000330: 1a87 a4bd 273d 0f3e 2853 8abc ba9b c6bd
00000340: 3c66 2ebd aa96 623e e527 36be 53c3 573e
00000350: f039 5dbe 8814 e1bc 3070 3b3e ea5f a73d
00000360: 1cdb c83b 7312 663d 4f91 3dbd 7e13 92be
00000370: 2aa1 253e 1bfd f5bc ade8 583d 64dd b8bd
00000380: 1515 82be 2b81 09be 9eda a0bc 1f20 9e3d
00000390: 5ca7 ba3b c4c4 3c3d 1f68 e23d b166 b13d
000003a0: 0ab1 3b3d dc57 2cbb 2198 d43c 80dc 34bd
000003b0: e94d e83d 094d ac3d ffb7 2e3e 789e 003d
000003c0: eb74 bebd 7834 39be ee83 a6bc de32 a93d
000003d0: c8d5 233e 5469 933d e462 a13d 35e2 913d
000003e0: 06f0 1dbe 55e7 8bbd b740 243d ddf2 643d
000003f0: c032 9d3d 42ce 733d 7446 d03d 5005 5e3e
0.035890095 -0.16484612 -0.17648207 0.045208063 -0.001032953 -0.0028379299 -0.006094445 0.16910559
0.008135993 0.03831222 -0.03204437 -0.06054901 -0.084083505 -0.099538654 0.05793964 -0.035648778
-0.031660672 0.08143476 0.2235365 -0.026319193 0.08275795 0.0922077 0.10523757 0.0074983807
-0.22050473 -0.009162229 0.20542751 0.11707598 0.108446434 -0.053514373 -0.12938578 0.018599307
-0.068551525 0.2190563 -0.0054187146 -0.12855412 -0.0058415313 0.19804262 0.21217702 -0.06971808
-0.012447488 -0.08845271 0.10266525 0.05331073 -0.051478475 -0.093867585 -0.07263973 0.059341427
0.08642028 -0.13707447 -0.060980696 0.057986096 0.06668872 -0.017825974 -0.08816105 0.073570274
-0.24638344 0.12571786 0.17737871 0.061206874 -0.04423961 0.2064075 0.055611648 0.08371699
0.08119728 -0.07608737 -0.049275756 -0.06703238 -0.059727926 0.036467426 0.01354813 0.0025281045
0.07951728 0.012616613 -0.09576388 0.0047458922 0.018833913 0.09555715 -0.08257947 -0.11482077
-0.24092978 -0.23563968 -0.23457107 -0.04378669 -0.1399382 -0.059954457 -0.10362451 -0.02430159
0.01884034 0.059601884 0.07904222 -0.21077736 -0.14541368 0.22553012 0.20839018 0.07508046
-0.03267484 -0.1358947 -0.049579684 0.1881492 0.042734172 -0.034481812 -0.01532901 -0.016461154
0.070265114 0.03351564 0.10182046 0.07802379 0.0023449336 0.12851751 -0.0029102147 -0.0007686741
0.0026672732 0.057647593 0.04139614 -0.07955938 -0.09772243 0.12170102 0.033511337 -0.022614412
0.047388975 0.06831429 0.09216815 -0.2817224 0.040431734 0.09592961 -0.07174284 0.06447527
0.056786306 0.030974822 -0.0314663 0.08841502 -0.029277518 0.12126017 0.10200427 -0.16619968
0.11562064 -0.04112358 0.058850218 -0.039495777 -0.06478117 0.008224203 -0.066204295 -0.11555435
-0.025969144 0.09435258 0.06658954 -0.12284734 -0.05507908 0.056538787 -0.012136172 0.025677526
-0.13753274 -0.11937217 -0.077914976 0.08023905 0.043154534 -0.0031649966 -0.070713416 -0.09952499
-0.3095547 0.018994408 0.0059223925 0.107887655 0.020416936 0.115046665 -0.016123839 0.006855527
-0.059019644 -0.07279482 -0.01046861 0.0348945 0.17243232 -0.057358023 -0.10246617 0.030603046
-0.21035394 0.22659162 -0.0025211738 -0.121567115 -0.06298163 0.03513992 -0.039115127 -0.055767052
-0.012373824 0.0523587 0.15646099 -0.093631 -0.081156306 0.20907158 -0.20627464 -0.03127497
-0.09511453 0.035586394 0.11004463 -0.14253603 -0.04039818 0.022118974 -0.104218185 -0.009113663
0.14389591 -0.07002728 0.11586524 -0.01591906 -0.08033581 0.13988172 -0.016885355 -0.09697671
-0.042577967 0.22127786 -0.17788656 0.21070604 -0.21604133 -0.02747561 0.18304515 0.08172591
0.0061296355 0.05616994 -0.046281155 -0.28530496 0.1617476 -0.030027917 0.052956272 -0.09026602
-0.2540671 -0.1342818 -0.019635495 0.0772097 0.0056962203 0.046086088 0.11055016 0.08662165
0.045823134 -0.0026297485 0.025951447 -0.044155598 0.11342985 0.08413131 0.17062376 0.031401128
-0.09299644 -0.18086421 -0.02032658 0.08261655 0.1599952 0.07197824 0.0788019 0.07123224
-0.15423593 -0.068312325 0.04010078 0.055895675 0.076756954 0.059522875 0.10169688 0.21681714

cls_head.bias f4 [7]
00000000: ee03 34bc 4fc7 20bd 153c 9cbc 99c0 b63c
00000010: b2e7 02bc 92a7 903c 2af0 e73b
-0.010987265 -0.039252575 -0.019071618 0.022308635 -0.007989811 0.017658029 0.0070781903
