src/facexpr/cGen+cDis/Version 1.7Final/weight/disc_ep130.pth (torch, 247605 bytes, 17 tensors)

conv.0.weight f4 [16, 1, 4, 4]
0.23477618 0.26898566 0.23077857 -0.1117252 -0.07107504 -0.17552853 -0.034007378 0.01276482
-0.06636392 0.019995693 -0.044172566 -0.037971407 -0.24827304 -0.05902944 0.060272083 -0.10124425
0.15964842 -0.20783317 -0.2105605 -0.24744338 -0.249323 0.28937995 0.15506963 0.23000678
0.15853631 0.09960893 -0.059247755 0.19923848 0.028196476 -0.11035414 -0.15191822 -0.0858093
-0.20868984 0.10550785 0.038307387 0.08377599 -0.1505013 -0.13344228 -0.03720383 0.14557289
0.031670846 0.051596306 0.060844194 0.14231156 -0.004159882 0.117246315 0.005394207 0.0345617
0.055244334 0.1687481 0.05719835 -0.005889597 0.35592562 -0.19636713 -0.25118887 0.0135957375
-0.18923448 -0.41556844 0.13063017 -0.09195553 -0.03175513 0.13525835 0.20380655 0.066341944
0.08278381 0.025635278 -0.13297798 0.030114884 0.013875851 0.11595618 -0.00071315025 -0.0073126894
0.22709814 0.094977155 -0.25320926 -0.11586035 0.18386434 -0.23235495 -0.1969865 0.16777338
-0.035422355 -0.1241791 0.06338212 0.16082859 0.15854727 0.040576078 -0.024874669 0.2795266
-0.25129837 -0.19966654 -0.078177616 0.10494663 0.21797873 -0.22815609 -0.09391516 -0.039599877
0.08623068 0.08904135 -0.14271031 0.13230647 -0.05055913 -0.030773789 -0.18337783 0.16279702
-0.046659544 0.09715035 0.023908224 0.038478155 -0.11199349 0.18242137 -0.18165931 -0.16180125
0.019301662 0.013012873 -0.17423633 -0.021359274 0.2709546 -0.15645666 -0.2712722 -0.0010918836
0.23505095 0.17489463 -0.015946804 -0.2792455 0.10442956 0.17421962 -0.06799383 0.018914625
0.030238826 0.038601525 0.24208137 -0.15743177 0.09934781 -0.072878845 0.10730038 -0.22712795
-0.187177 0.15052529 0.21046276 0.09270026 -0.007947718 0.12541506 0.18187754 0.018150931
0.013561074 0.076857306 -0.09562604 -0.09684297 -0.008427356 -0.18277803 -0.2031842 -0.30650356
-0.08320908 0.09696902 0.14973475 0.08547762 0.070250995 0.068081744 0.23841968 0.1660696
0.1817675 0.18305835 -0.17898172 -0.28798166 -0.21429956 -0.016365658 -0.28151637 -0.0612506
0.18970945 0.08134022 0.18425742 -0.26479822 0.017929448 0.13993955 0.10339262 0.20129187
0.020161862 0.043723494 0.11559133 -0.17393064 0.08449376 0.17874017 0.024525566 0.003576126
0.11416986 0.26476264 -0.079255305 -0.19624983 -0.026782893 0.10531126 -0.22805399 -0.2473885
-0.09353513 -0.26457632 -0.3057757 0.01900101 -0.20887952 0.004943734 0.24131869 -0.033415064
0.15234125 0.21149941 0.1937409 0.087770596 -0.104004785 0.09233902 -0.024333565 0.03715658
-0.12171599 -0.032117028 -0.109590635 -0.029685812 0.06880492 -0.18006796 0.033536248 -0.1316247
0.01918241 -0.0049214726 0.002229026 -0.031509116 0.06593395 0.046659727 0.07107913 -0.09987399
-0.03395505 -0.044783495 -0.04560549 0.010197891 -0.038448963 0.1110316 -0.09470175 -0.07086267
0.09290642 -0.16153322 -0.016847499 -0.10027929 -0.10995982 0.038363323 -0.07331225 0.20402968
0.06618134 0.07120176 0.041756317 -0.044152442 0.12796621 0.10800301 0.15001485 0.15295695
0.0068142153 -0.001793201 -0.0482424 -0.125355 -0.13801932 -0.12864508 -0.042658765 0.026811626
00000000: 2b69 703e 7db8 893e 3851 6c3e 2fd0 e4bd
00000010: ca8f 91bd c0bd 33be 524b 0bbd 8923 513c
00000020: cfe9 87bd 02ce a33c 4bee 34bd e887 1bbd
00000030: 4a3b 7ebe dbc8 71bd dcdf 763d 2559 cfbd
00000040: e07a 233e 38d2 54be 2c9d 57be cc61 7dbe
00000050: 874e 7fbe 9c29 943e 93ca 1e3e e686 6b3e
00000060: 5857 223e c4ff cb3d c6ad 72bd 2c05 4c3e
00000070: 4cfc e63c 5a01 e2bd 7390 1bbe c9bc afbd
00000080: cab2 55be 8014 d83d 35e8 1c3d bf92 ab3d
00000090: 031d 1abe 18a5 08be 0b63 18bd 0f11 153e
000000a0: 4ab9 013d a656 533d c337 793d 1fba 113e
000000b0: 9f4f 88bb d61e f03d e3c1 b03b 9290 0d3d
000000c0: e247 623d 4dcc 2c3e d148 6a3d 85fd c0bb
000000d0: e23b b63e 7714 49be d49b 80be a8c0 5e3c
000000e0: afc6 41be 63c5 d4be eac3 053e 2e53 bcbd
000000f0: ab11 02bd 2a81 0a3e aab2 503e 49de 873d
00000100: 8f8a a93d 1301 d23c 612b 08be 7db3 f63c
00000110: 8a57 633c 6f7a ed3d b4f2 3aba 499f efbb
00000120: 6a8c 683e 6283 c23d a5a4 81be 3148 edbd
00000130: ef46 3c3e 75ee 6dbe d4b6 49be c9cc 2b3e
00000140: 0817 11bd 9d51 febd 7cce 813d 40b0 243e
00000150: 375a 223e 1a33 263d f6c5 cbbc 1c1e 8f3e
00000160: 2eaa 80be 6375 4cbe 961b a0bd 42ee d63d
00000170: d135 5f3e c0a1 69be 9756 c0bd 7b33 22bd
00000180: b699 b03d 505b b63d a722 12be 597b 073e
00000190: 1717 4fbd 5019 fcbc 66c7 3bbe 43b4 263e
000001a0: 141e 3fbd c3f6 c63d 2edb c33c 459b 1d3d
000001b0: d85c e5bd abcc 3a3e e604 3abe 3aaf 25be
000001c0: 851e 9e3c f233 553c 026b 32be a5f9 aebc
000001d0: 90ba 8a3e 2d36 20be 31e4 8abe 891d 8fba
000001e0: 32b1 703e 9417 333e dfa2 82bc 44f9 8ebe
000001f0: 2adf d53d a166 323e 5940 8bbd d8f2 9a3c
00000200: 6ab7 f73c a21c 1e3d 2ee4 773e cb35 21be
00000210: dd76 cb3d 8141 95bd 4dc0 db3d 3b94 68be
00000220: 54ab 3fbe 4d23 1a3e 8d83 573e a2d9 bd3d
00000230: 2537 02bc ce6c 003e 1b3e 3a3e 43b1 943c
00000240: 442f 5e3c 5d67 9d3d 96d7 c3bd 9b55 c6bd
00000250: e512 0abc 2a2a 3bbe 850f 50be 09ee 9cbe
00000260: 8669 aabd b297 c63d 1154 193e e40e af3d
00000270: c1df 8f3d 716e 8b3d 4a24 743e 260e 2a3e
00000280: 4221 3a3e a673 3b3e fc46 37be 5572 93be
00000290: 5871 5bbe 4611 86bc ea22 90be e9e1 7abd
000002a0: 3243 423e b495 a63d faad 3c3e a293 87be
000002b0: c7e0 923c 504c 0f3e 83bf d33d 751f 4e3e
000002c0: 7d2a a53c 6817 333d 26bb ec3d e01a 32be
000002d0: 100b ad3d aa07 373e d7e9 c83c 705d 6a3b
000002e0: e3d1 e93d f88e 873e 9b50 a2bd b7f5 48be
000002f0: cc67 dbbc 6ead d73d fc86 69be 6953 7dbe
00000300: 598f bfbd 8c76 87be a28e 9cbe 02a8 9b3c
00000310: 83e4 55be 0cff a13b 3f1c 773e 3cde 08bd
00000320: 58ff 1b3e 4d93 583e 0464 463e 12c1 b33d
00000330: 7600 d5bd 3d1c bd3d 2f57 c7bc 7f31 183d
00000340: 3c46 f9bd 258d 03bd 0e71 e0bd a92f f3bc
00000350: 98e9 8c3d bc63 38be 4e5d 093d a0c8 06be
00000360: 6e24 9d3c 4e44 a1bb da14 123b b40f 01bd
00000370: 6108 873d 451e 3f3d ef91 913d bc8a ccbd
00000380: 7314 0bbd e66e 37bd d3cc 3abd 0e15 273c
00000390: a97c 1dbd 8964 e33d fef2 c1bd 7320 91bd
000003a0: b945 be3d f768 25be c403 8abc 3a5f cdbd
000003b0: 9d32 e1bd dc22 1d3d bc24 96bd 28ed 503e
000003c0: 158a 873d 3ad2 913d ac08 2b3d 31d9 34bd
000003d0: 9309 033e af30 dd3d 7e9d 193e bfa0 1c3e
000003e0: c849 df3b d709 ebba d399 45bd 105d 00be
000003f0: f054 0dbe 89bb 03be f5ba 2ebd 0ea4 db3c

conv.0.bias f4 [16]
-0.099713586 -0.0007832924 0.1200248 -0.0060385927 -0.007517691 -0.058807332 0.061094824 -0.022108043
-0.31861633 -0.001974391 -0.2113236 -0.0021503344 -0.0032042526 -0.05756444 0.080131486 0.12118234
00000000: a336 ccbd dd55 4dba 90cf f53d 63df c5bb
00000010: f656 f6bb f5df 70bd 913e 7a3d ed1b b5bc
00000020: ae21 a3be c964 01bb 3765 58be a0ec 0cbb
00000030: 70fe 51bb b1c8 6bbd fa1b a43d 722e f83d

conv.2.weight f4 [32, 16, 4, 4]
-0.024477864 -0.06836532 -0.10163392 -0.006442379 -0.054211486 -0.15488243 -0.09729029 -0.1095194
-0.06407137 -0.0879325 -0.04614202 -0.060968924 0.057373393 -0.030177284 -0.09125787 -0.018489592
-0.07847046 -0.025807695 0.07410154 0.029092578 -0.061135698 -0.028807182 0.02117088 0.07196592
-0.040871233 0.040619414 0.026260065 0.06254954 -0.010968647 0.052367922 -0.0073599643 0.03868991
0.044312026 -0.021509808 0.020338675 -0.055171147 0.037912454 0.073941834 0.026459977 0.03826231
-0.01986321 -0.009182698 -0.015167296 0.029257538 -0.09214392 -0.0407726 0.0009048508 -0.04457397
0.036578216 0.06603638 0.06615448 0.06843578 0.045777496 0.12009879 0.049683142 0.11287252
0.023597652 0.1004572 0.04798374 0.03607687 0.045940537 0.11754763 0.082539976 0.052943185
0.020623825 -0.07654288 -0.014383824 0.0060647046 0.020179328 0.013998026 0.0270127 0.020084713
0.083486594 0.019327926 0.07438002 0.013205528 0.056053232 0.015044043 0.039559554 0.0647382
-0.06493668 -0.06186787 -0.08554824 -0.12451815 0.001928259 -0.09167955 -0.12366 -0.056999397
0.0061208205 -0.1237533 -0.014565134 -0.01946752 -0.18244804 -0.057897087 -0.020794095 -0.0095221605
0.044693135 0.026532112 -0.012755728 0.0011516658 -0.033400614 -0.016459638 0.059255533 0.070016116
0.021526389 0.05917688 0.01805007 -0.009664514 -0.050308023 0.123375334 0.089877956 0.05442367
-0.060877066 -0.05672754 -0.035298713 -0.082977496 -0.015610852 -0.04695488 -0.05970198 0.0020768438
-0.0803496 -0.06694544 0.040114198 0.008238539 -0.16064626 -0.084195904 -0.07412689 -0.040585946
0.048658006 0.0025254944 0.02974358 -0.070383556 0.092818335 0.021583054 0.024853144 0.033537533
0.029131824 -0.031696517 0.035623077 0.03042248 -0.008326343 3.067952e-05 -0.03919875 0.009406243
-0.040608123 -0.017234476 0.030890543 0.04831701 -0.10060528 -0.06354595 -0.0041212933 0.026869513
-0.05544721 0.06604608 0.058295324 0.021956116 -0.041120023 0.054803215 0.14754568 0.037414476
-0.03846399 -0.05476806 -0.031932652 -0.015092642 0.016724309 -0.009988954 -0.08613066 -0.020422012
-0.060106322 -0.048250124 -0.01694073 0.058424573 -0.039513256 0.061012685 0.042658456 -0.014681927
-0.0025835172 -0.015477333 -0.07713313 -0.009567699 0.037685324 0.051783312 0.015199541 -0.045523494
0.0498732 0.02344859 -0.062021215 0.031135397 0.064206794 0.0656357 0.05884804 -0.020938408
-0.07973354 0.04090411 0.052411202 0.029998036 -0.079136446 0.012694322 0.08696917 0.0454847
0.002449054 -0.025494022 -0.051841397 -0.02999202 0.046512045 0.018866178 -0.010387857 -0.03441424
0.0590375 -0.034667272 -0.057159513 -0.01645578 -0.01637739 -0.050149597 0.011293332 0.06677142
0.01930418 -0.0013218538 0.04911447 0.085427776 0.06588765 -0.032669976 0.00722767 -0.07213313
0.057280924 -0.05304918 0.021177895 -0.050700907 -0.025549307 0.02324714 -0.017213248 -0.022471702
-0.017339455 0.059861846 -0.091171615 -0.026180847 0.033759225 -0.08621032 0.0065893964 -0.056340925
-0.044114765 -0.008322276 0.040868253 0.06260839 -0.045487236 0.047423426 -0.07310096 -0.06469667
-0.0010969245 -0.025332628 -0.01895501 -0.06308873 -0.06898897 0.049603585 -0.07271577 -0.051679276
00000000: cd85 c8bc 1e03 8cbd 7225 d0bd 981a d3bb
00000010: dd0c 5ebd 8099 1ebe 2240 c7bd b54b e0bd
00000020: da37 83bd f415 b4bd 6aff 3cbd 8dba 79bd
00000030: 5d00 6b3d 5a36 f7bc 68e5 babd 7c77 97bc
00000040: 1fb5 a0bd a96a d3bc 8cc2 973d 8f53 ee3c
00000050: 6d69 7abd 0afd ebbc 8e6e ad3c de62 933d
00000060: 9868 27bd 8b60 263d 591f d73c f919 803d
00000070: d7b5 33bc bf7f 563d db2b f1bb 5079 1e3d
00000080: 8780 353d 5635 b0bc 4b9d a63c 24fb 61bd
00000090: 174a 1b3d d16e 973d 98c2 d83c f1b8 1c3d
000000a0: 2cb8 a2bc 0773 16bc 4080 78bc 81ad ef3c
000000b0: f4b5 bcbd 2b01 27bd 8233 6d3a 3293 36bd
000000c0: 0ad3 153d 153e 873d 007c 873d 0f28 8c3d
000000d0: 2f81 3b3d 5bf6 f53d 8d80 4b3d b529 e73d
000000e0: dd4f c13c 81bc cd3d 998a 443d 57c5 133d
000000f0: 252c 3c3d d0bc f03d b80a a93d f4da 583d
00000100: 4cf3 a83c 83c2 9cbd 21aa 6bbc 6eba c63b
00000110: 1e4f a53c fa57 653c bd49 dd3c b288 a43c
00000120: 05fb aa3d 9955 9e3c 8d54 983d 005c 583c
00000130: 1398 653d 4a7b 763c 3309 223d 7695 843d
00000140: 86fd 84bd 2a69 7dbd ea33 afbd 5f03 ffbd
00000150: a3bd fc3a 7dc2 bbbd 7441 fdbd 3378 69bd
00000160: 2a91 c83b 5f72 fdbd 9aa2 6ebc 597a 9fbc
00000170: a9d3 3abe 7f25 6dbd 6158 aabc d602 1cbc
00000180: 2610 373d df59 d93c 67fd 50bc 7ef3 963a
00000190: 15cf 08bd 5dd6 86bc eeb5 723d 9c64 8f3d
000001a0: 1c58 b03c 7563 723d bedd 933c e957 1ebc
000001b0: c90f 4ebd 35ac fc3d ef11 b83d 5beb 5e3d
000001c0: 3b5a 79bd 235b 68bd 6295 10bd 1bf0 a9bd
000001d0: a9c4 7fbc c353 40bd 108a 74bd a81b 083b
000001e0: 558e a4bd b11a 89bd c94e 243d f0fa 063c
000001f0: 7480 24be e76e acbd d7cf 97bd 733d 26bd
00000200: 9e4d 473d c482 253b cfa8 f33c 4125 90bd
00000210: 8a17 be3d f2ce b03c d298 cb3c a75e 093d
00000220: dda5 ee3c 35d4 01bd 81e9 113d 9138 f93c
00000230: 376b 08bc e2ad 0038 de8e 20bd a51c 1a3c
00000240: b454 26bd 512f 8dbc 2a0e fd3c 0fe8 453d
00000250: 240a cebd 6124 82bd ea0b 87bb 741d dc3c
00000260: 9d1c 63bd 2b43 873d 14c7 6e3d 50dd b33c
00000270: 786d 28bd 5679 603d 3716 173e ec3f 193d
00000280: 6b8c 1dbd 7954 60bd d0cb 02bd 2147 77bc
00000290: 6b01 893c b6a8 23bc 4565 b0bd 104c a7bc
000002a0: 0c32 76bd eca1 45bd 49c7 8abc 9b4e 6f3d
000002b0: a7d8 21bd 70e8 793d a2ba 2e3d 778c 70bc
000002c0: 3a50 29bb a494 7dbc f9f7 9dbd d7c1 1cbc
000002d0: ed5b 1a3d bd1a 543d 7f07 793c d876 3abd
000002e0: d747 4c3d 4217 c03c f509 7ebd a90f ff3c
000002f0: da7e 833d 036c 863d a40a 713d 0687 abbc
00000300: 574b a3bd 118b 273d 21ad 563d 71be f53c
00000310: 4a12 a2bd d8fb 4f3c e41c b23d 2a4e 3a3d
00000320: 4f80 203b d7d8 d0bc a557 54bd d3b1 f5bc
00000330: 6a83 3e3d 3e8d 9a3c d531 2abc f2f5 0cbd
00000340: 4ed1 713d 45ff 0dbd 1820 6abd 46ce 86bc
00000350: e029 86bc aa69 4dbd ab07 393c 74bf 883d
00000360: cd23 9e3c 0e42 adba 412c 493d c2f4 ae3d
00000370: 1bf0 863d f4d0 05bd 17d6 ec3b 89ba 93bd
00000380: 679f 6a3d 194a 59bd 447d ad3c c1ab 4fbd
00000390: c84c d1bc c970 be3c cc02 8dbc 9316 b8bc
000003a0: 790b 8ebc b231 753d 2fb8 babd 3779 d6bc
000003b0: 1d47 0a3d 098f b0bd ddeb d73b bec5 66bd
000003c0: afb1 34bd 285a 08bc 7865 273d d438 803d
000003d0: d350 3abd 113f 423d f5b5 95bd b07f 84bd
000003e0: aec6 8fba 5f86 cfbc 8a47 9bbc aa34 81bd
000003f0: 174a 8dbd 212d 4b3d 01ec 94bd a6ad 53bd

conv.2.bias f4 [32]
0.040508382 0.052945018 0.08638022 -0.023670863 -0.0070546963 0.027711686 -0.00028428482 0.06501446
0.017291753 -0.00011982599 -0.019963982 0.123937875 -0.0181046 0.0118660005 0.028202632 0.028002422
0.0033525063 -0.077206306 -0.011194757 0.023195999 0.010247711 -0.021515617 -0.09161045 -0.0035957894
-0.0037640308 -0.008547706 0.07411815 -0.052209925 0.015231273 -0.045664433 -0.02580838 0.03342413
00000000: 1eec 253d e0dc 583d 1de8 b03d 66e9 c1bc
00000010: 152b e7bb 9e03 e33c 100c 95b9 4d26 853d
00000020: 6fa7 8d3c 174b fbb8 818b a3bc 24d3 fd3d
00000030: 1950 94bc 9d69 423c 3509 e73c 5665 e53c
00000040: b9b5 5b3b 571e 9ebd 376a 37bc 8905 be3c
00000050: 04e6 273c 8541 b0bc 429e bbbd 56a7 6bbb
00000060: f5ad 76bb ad0b 0cbc 42cb 973d 13da 55bd
00000070: 978c 793c a10a 3bbd 196c d3bc bee7 083d

conv.3.weight f4 [32]
0.9668472 0.9549438 1.0275537 1.0697426 0.9983535 0.8905995 1.0890151 0.9697942
1.0389317 1.1696656 1.0181042 0.93137354 0.9619467 1.0084926 0.9261852 0.92002046
1.0995808 1.1155363 1.0588337 0.9306587 0.8866331 1.10367 0.8943858 1.0062909
0.92675817 0.86491185 0.941733 0.9396629 0.92639804 0.9722165 0.7917144 1.0050853
00000000: 4c83 773f 3277 743f e186 833f 53ed 883f
00000010: 1894 7f3f 54fe 633f d964 8b3f 6f44 783f
00000020: b7fb 843f 9ab7 953f 3d51 823f 7f6e 6e3f
00000030: 2442 763f 4916 813f 791a 6d3f 7686 6b3f
00000040: 10bf 8c3f e5c9 8e3f dd87 873f a63f 6e3f
00000050: 63fa 623f 0f45 8d3f 78f6 643f 24ce 803f
00000060: 0640 6d3f dd6a 5d3f 6a15 713f bf8d 703f
00000070: 6c28 6d3f 2ee3 783f cbad 4a3f a3a6 803f

conv.3.bias f4 [32]
-0.09883179 -0.28868112 -0.19247337 -0.27587768 -0.24379762 -0.18024355 -0.16980186 -0.29773244
-0.11549842 -0.24271885 -0.2509284 -0.113355525 -0.24423297 -0.17566818 -0.21798211 -0.17530815
-0.23965818 -0.18298914 -0.09916486 -0.14149405 -0.18032168 -0.16116315 -0.2008332 -0.13877423
-0.12383547 -0.057118196 -0.19246517 -0.2505218 -0.30864158 -0.16221954 -0.010348401 -0.06331811
00000000: 5268 cabd 03ce 93be bd17 45be d73f 8dbe
00000010: 15a6 79be c491 38be 8ae0 2dbe 6370 98be
00000020: 708a ecbd 4a8b 78be b079 80be f126 e8bd
00000030: 3518 7abe 5ce2 33be b436 5fbe fb83 33be
00000040: f468 75be 8161 3bbe f216 cbbd d1e3 10be
00000050: 3fa6 38be f407 25be 38a7 4dbe d51a 0ebe
00000060: 739d fdbd c5f4 69bd 9715 45be 6544 80be
00000070: 4506 9ebe e11c 26be 578c 29bc edac 81bd

conv.3.running_mean f4 [32]
0.017254628 0.10559259 0.10490755 -0.11181496 -0.06491296 0.07067183 -0.16931824 0.070120215
-0.055531442 -0.14239755 -0.060831305 0.15915206 0.09237487 0.038559932 0.037810113 -0.0059339292
-0.018410478 -0.21662268 -0.1606707 0.06080423 -0.08145207 -0.028765718 -0.04629615 -0.014297512
-0.027605707 -0.2008503 -0.02339842 -0.07743217 0.0013900058 -0.061884325 -0.015870769 -0.039122894
00000000: 9459 8d3c ee40 d83d c5d9 d63d 3eff e4bd
00000010: 16f1 84bd 64bc 903d c361 2dbe 309b 8f3d
00000020: f074 63bd aad0 11be 3f2a 79bd c2f8 223e
00000030: 092f bd3d 05f1 1d3d c7de 1a3d 6871 c2bb
00000040: 92d1 96bc 56d2 5dbe dc86 24be db0d 793d
00000050: 58d0 a6bd 15a6 ebbc 08a1 3dbd 1d40 6abc
00000060: 5d25 e2bc b3ab 4dbe 0bae bfbc c294 9ebd
00000070: db30 b63a 6b7a 7dbd 6a03 82bc 543f 20bd

conv.3.running_var f4 [32]
0.0042727883 0.007346262 0.007613876 0.008384526 0.0047013313 0.008346151 0.0066989916 0.007420543
0.008144399 0.009030585 0.007150297 0.0078007346 0.0111938175 0.008660471 0.008035175 0.003652045
0.0051321615 0.00934844 0.0094037615 0.005841454 0.002808586 0.0046801423 0.006860606 0.008655046
0.004781241 0.0025416464 0.0060857465 0.004136401 0.0055956794 0.0054475414 0.0014474329 0.0060339374
00000000: bf02 8c3b eab8 f03b d27d f93b 405f 093c
00000010: a00d 9a3b 4bbe 083c 3783 db3b 0728 f33b
00000020: 1670 053c 05f5 133c 0a4d ea3b 4e9d ff3b
00000030: 4666 373c a6e4 0d3c f7a5 033c 2657 6f3b
00000040: b12b a83b 332a 193c 3c12 1a3c ab69 bf3b
00000050: 4110 383b e15b 993b efce e03b e5cd 0d3c
00000060: f5ab 9c3b c091 263b f16a c73b a68a 873b
00000070: f65b b73b 4a81 b23b cab7 bd3a 56b8 c53b

conv.5.weight f4 [64, 32, 4, 4]
0.0005039352 -0.03015993 0.021168228 -0.050215498 -0.06314827 -0.10634295 -0.0024744472 0.040244676
0.07280047 0.020479623 -0.04918233 0.020590477 0.050625864 0.013693437 0.016566487 0.008627379
-0.010637963 0.02213088 0.000580532 0.012758395 -0.0031969645 -0.05019669 -0.023235453 -0.024201697
-0.024736667 0.02211783 0.029986745 -0.045950413 -0.04458233 0.012780237 0.015506495 0.058447614
-0.023793433 0.031337857 -0.026151143 0.08551428 -0.02949874 -0.05857043 -0.013360888 -0.00076093775
-0.043294948 -0.009171432 -0.01586704 0.041803002 -0.07307829 -0.07678869 0.030102214 -0.0095274635
0.039039943 0.02100784 0.043064903 -0.090827435 0.06295347 0.042632923 -0.017339265 -0.011499254
0.033390246 0.007558934 0.02434134 -0.1046653 0.048015475 0.0471368 -0.010330881 0.045281462
-0.07153103 0.057760376 0.028906723 0.044204127 -0.05977802 -0.01033783 0.026924472 0.08970675
0.031963333 -0.043391287 -0.029406607 0.025732076 -0.037304223 -0.047302336 0.0214423 0.02940504
0.0028070826 -0.0025507438 -0.03641407 -0.028900633 0.035831608 -0.03551907 -0.015159212 -0.03197747
-0.030472182 -0.0032210588 -0.013833926 0.0018220041 -0.041042414 -0.04669114 0.062140957 0.0367694
-0.013423578 -0.043477997 0.10750417 0.056029994 -0.06269377 0.037635684 0.028469555 -0.004408772
-0.05551266 0.00026719965 0.05625272 -0.0048844814 -0.06189687 0.023010267 -0.0070274994 -0.10966501
0.027582139 -0.04861121 0.031381212 0.016629867 0.060557112 -0.01561085 -0.058447782 -0.055524625
0.040325142 0.032995954 0.033680078 0.08723881 0.068493895 0.0976568 0.05176597 -0.02471553
-0.006301136 -0.0033268884 -0.0034847267 0.036920816 0.0050833393 -0.0074328408 0.043873064 0.048813988
-0.061802283 -0.031267636 0.10248594 -0.0019595777 0.0038783352 0.012921614 -0.047994517 -0.06968485
0.022908697 0.032086324 0.010040317 -0.003510138 -0.055694442 0.030112483 0.031048045 -0.011481057
-0.026379623 -0.07817601 0.052593376 -0.030457506 -0.008030656 0.055446286 0.06830724 9.138834e-05
0.10450326 -0.016899938 -0.007268802 0.0653221 0.047571477 -0.06287647 -0.011862069 -0.029184781
0.0027967512 -0.06369172 -0.0505357 0.006487877 -0.019161347 -0.048846 0.003219961 0.061258785
-0.010171184 0.00995477 0.029623043 -0.028322306 0.06602142 0.09708017 -0.089106195 -0.024414076
0.016171701 -0.026734225 -0.003659042 0.0037396234 0.021698654 0.038811576 0.008108151 -0.050361667
-0.025418539 0.02564826 0.03479648 0.05578569 -0.08626769 0.011601624 0.023837613 0.034823686
-0.041722577 -0.041223727 0.05041502 -0.01278876 0.028250223 -0.05964477 -0.00511031 0.059347123
0.047145065 -0.046102807 0.027761817 0.082573876 0.002888644 0.08253353 0.09021175 0.030645397
0.017273288 -0.013971861 0.0025385218 0.05187443 -0.040095486 0.037641156 -0.0067128674 0.012935868
0.030363662 -0.020647803 -0.011959127 0.07275113 -0.07312711 0.072952084 -0.035559412 0.0071318103
-0.0026283541 0.03494118 -0.05058257 -0.068945706 0.0141046755 0.006163418 -0.06955534 0.0007658743
0.01263525 0.03328985 -0.06182587 -0.08171523 0.035230033 -0.0071334946 0.057367887 0.034117132
0.0042058975 -0.027762486 0.04401891 -0.062256508 -0.023940105 -0.024420723 0.012929841 0.022887083
00000000: 851a 043a f511 f7bc fe68 ad3c c4ae 4dbd
00000010: e153 81bd 55ca d9bd 562a 22bb 9ad7 243d
00000020: 6a18 953d e2c4 a73c 6973 49bd 5cad a83c
00000030: 115d 4f3d 705a 603c 71b6 873c da59 0d3c
00000040: da4a 2ebc d24b b53c d82e 183a 9608 513c
00000050: 2a84 51bb 0b9b 4dbd 4758 bebc a342 c6bc
00000060: 8da4 cabc 7430 b53c c3a6 f53c 8036 3cbd
00000070: f69b 36bd 3364 513c f40e 7e3c c466 6f3d
00000080: 72ea c2bc 205c 003d ec3a d6bc 1c22 af3d
00000090: 57a7 f1bc 8ce7 6fbd a0e7 5abc ab79 47ba
000000a0: 0b56 31bd c643 16bc 98fb 81bc a039 2b3d
000000b0: 12aa 95bd 6443 9dbd eb98 f63c 1419 1cbc
000000c0: 59e8 1f3d a218 ac3c d364 303d bc03 babd
000000d0: c0ed 803d dc9f 2e3d 130b 8ebc 5e67 3cbc
000000e0: 36c4 083d efb0 f73b 7d67 c73c c35a d6bd
000000f0: e0ab 443d 8412 413d db42 29bc 0e79 393d
00000100: dc7e 92bd 2596 6c3d cbcd ec3c 630f 353d
00000110: ccd9 74bd 0060 29bc b690 dc3c 2cb8 b73d
00000120: fceb 023d 10bb 31bd 20e6 f0bc 13cc d23c
00000130: 50cc 18bd 18c0 41bd c3a7 af3c d7e2 f03c
00000140: 08f7 373b 612a 27bb eb26 15bd 05c1 ecbc
00000150: 2ac4 123d 727c 11bd 585e 78bc cffa 02bd
00000160: cca0 f9bc 6618 53bb b1a7 62bc 50d0 ee3a
00000170: 171c 28bd 353f 3fbd 8487 7e3d 839b 163d
00000180: 91ee 5bbc fc15 32bd 252b dc3d b57f 653d
00000190: 9765 80bd e027 1a3d fc38 e93c 7677 90bb
000001a0: 3e61 63bd ee16 8c39 4169 663d 000e a0bb
000001b0: 9387 7dbd 0780 bc3c f046 e6bb 0c98 e0bd
000001c0: f0f3 e13c 8c1c 47bd 9689 003d 5c3b 883c
000001d0: bc0a 783d a7c4 7fbc f166 6fbd ca6d 63bd
000001e0: fa2b 253d c426 073d 1ff4 093d 43aa b23d
000001f0: 8746 8c3d 4a00 c83d 8e08 543d 3978 cabc
00000200: c379 cebb ed07 5abb 0360 64bb 483a 173d
00000210: 2492 a63b 308f f3bb 3eb4 333d 2df1 473d
00000220: 6424 7dbd 7e12 00bd 26e4 d13d 426c 00bb
00000230: ab2b 7e3b 2db5 533c e695 44bd eeb6 8ebd
00000240: 05ab bb3c f36c 033d 2480 243c 580a 66bb
00000250: db1f 64bd 74ae f63c 7858 fe3c 0b1b 3cbc
00000260: 141a d8bc be1a a0bd 276c 573d 0582 f9bc
00000270: 0393 03bc a51b 633d abe4 8b3d bea7 bf38
00000280: ce05 d63d bd71 8abc 212f eebb 98c7 853d
00000290: 4fda 423d 61c5 80bd 2059 42bc ec14 efbc
000002a0: b349 373b ce70 82bd 86fe 4ebd 4298 d43b
000002b0: 42f8 9cbc be12 48bd fb05 533b 7eea 7a3d
000002c0: 0aa5 26bc 5519 233c 06ac f23c 2e04 e8bc
000002d0: 3d36 873d f8d1 c63d 4f7d b6bd 0700 c8bc
000002e0: 847a 843c bc01 dbbc 8acc 6fbb 7814 753b
000002f0: 60c1 b13c e3f8 1e3d 0dd8 043c 0948 4ebd
00000300: 8a3a d0bc 4d1c d23c c186 0e3d 897f 643d
00000310: 1dad b0bd bd14 3e3c 1947 c33c 48a3 0e3d
00000320: 4be5 2abd 36da 28bd fb7f 4e3d f287 51bc
00000330: 036d e73c 134e 74bd 6374 a7bb f815 733d
00000340: 2f1b 413d 4cd6 3cbd c06c e33c 7e1c a93d
00000350: 684f 3d3b 5707 a93d f0c0 b83d 0e0c fb3c
00000360: b680 8d3c 3cea 64bc 545d 263b 487a 543d
00000370: 2a3b 24bd 9d2d 1a3d 9df7 dbbb f7f0 533c
00000380: 37bd f83c 9525 a9bc 37f0 43bc 8bfe 943d
00000390: abc3 95bd e767 953d bfa6 11bd f6b1 e93b
000003a0: 7740 2cbb 7c1e 0f3d ab2f 4fbd 6833 8dbd
000003b0: 4c17 673c 7ff6 c93b 0873 8ebd f4c4 483a
000003c0: 1404 4f3c f05a 083d 203d 7dbd 515a a7bd
000003d0: 5e4d 103d 17c0 e9bb 97fa 6a3d 68be 0b3d
000003e0: a0d1 893b 276e e3bc 2c4d 343d ae00 7fbd
000003f0: 0a1e c4bc f80d c8bc afd7 533c b17d bb3c

conv.5.bias f4 [64]
0.052849773 -0.014908344 -0.05728579 -0.03084902 0.054439977 0.026851011 -0.07972036 -0.046812575
0.07789572 0.03376435 -0.035538014 0.0030715764 0.06796122 -0.01722846 -0.06753568 -0.009623385
0.0038022904 -0.021892808 0.000683861 -0.0154436 0.068617895 0.0016883555 0.043133676 -0.05249015
0.07899575 0.043759476 -0.012892831 -0.054137968 0.022099908 0.040372968 0.030052805 0.030330515
-0.07829446 0.015294475 0.040584702 -0.01962529 0.016202448 0.016761733 -0.06762801 -0.0145498775
0.036752295 0.04691552 0.009430786 0.018936146 -0.061152652 -0.06958422 -0.020786468 0.052197587
-0.030486431 0.03165728 -0.0124772545 0.013843842 -0.010187055 -0.028116966 -0.032358035 -0.009006177
-0.039727014 -0.06346668 -0.0690931 0.039895646 0.027657045 -0.06693606 -0.058441687 0.056015063
00000000: 0179 583d 2042 74bc 81a4 6abd 16b7 fcbc
00000010: 74fc 5e3d a7f6 db3c 6e44 a3bd 8bbe 3fbd
00000020: cb87 9f3d 7d4c 0a3d 4f90 11bd 804c 493b
00000030: 412f 8b3d b322 8dbc 2650 8abd 67ab 1dbc
00000040: d92f 793b 8c58 b3bc 2345 333a 2707 7dbc
00000050: 8a87 8c3d cf4b dd3a f0ac 303d e9ff 56bd
00000060: 86c8 a13d 233d 333d 743c 53bc c6bf 5dbd
00000070: de0a b53c 205e 253d 4d31 f63c b377 f83c
00000080: d958 a0bd ad95 7a3c 253c 263d 37c5 a0bc
00000090: ffba 843c e74f 893c 8e80 8abd 9c62 6ebc
000000a0: 9389 163d 7d2a 403d 9583 1a3c fa1f 9b3c
000000b0: 347b 7abd 2c82 8ebd 6248 aabc 23cd 553d
000000c0: aebe f9bc 10ab 013d 666d 4cbc 48d1 623c
000000d0: 9be7 26bc 8d55 e6bc dc89 04bd a58e 13bc
000000e0: cbb8 22bd d2fa 81bd af80 8dbd 9e69 233d
000000f0: 0791 e23c c615 89bd 8d60 6fbd 0d70 653d

conv.6.weight f4 [64]
1.8161741 1.6076591 1.6641343 1.5049369 1.4730482 1.7531656 1.8076617 1.6198062
1.6344426 1.6981854 1.6822083 1.536634 1.6574966 1.5401682 1.6041976 1.546577
1.6633465 1.4669254 1.5773711 1.7196738 1.6176709 1.6610214 1.5684673 1.8086703
1.5078723 1.627319 1.827207 1.7341347 1.5255857 1.748617 1.5224316 1.5153538
1.700528 1.6871622 1.6592497 1.6816071 1.6416596 1.4442623 1.5162879 1.6326156
1.690401 1.5044644 1.5990013 1.6207976 1.6949983 1.714178 1.6156533 1.6702892
1.6583755 1.8228827 1.6102186 1.7241611 1.5389589 1.6378706 1.7369814 1.5638521
1.6675631 1.69272 1.7146072 1.6453973 1.6595974 1.8219702 1.6261673 1.7457961
00000000: 6578 e83f c6c7 cd3f 5a02 d53f c6a1 c03f
00000010: d88c bc3f bb67 e03f 7561 e73f cf55 cf3f
00000020: 6a35 d13f 245e d93f 9a52 d73f 6cb0 c43f
00000030: d928 d43f 3b24 c53f 5956 cd3f 3cf6 c53f
00000040: 8ae8 d43f 36c4 bb3f 4ce7 c93f 451e dc3f
00000050: d70f cf3f 599c d43f 89c3 c83f 8282 e73f
00000060: f601 c13f fd4b d03f ebe1 e93f 20f8 dd3f
00000070: 6446 c33f afd2 df3f 0adf c23f 1df7 c13f
00000080: e7aa d93f eef4 d73f 4b62 d43f e73e d73f
00000090: e721 d23f 96dd b83f b915 c23f 8cf9 d03f
000000a0: 0f5f d83f 4a92 c03f 13ac cc3f 4c76 cf3f
000000b0: b4f5 d83f 2f6a db3f bacd ce3f 09cc d53f
000000c0: a645 d43f 3854 e93f a51b ce3f 50b1 dc3f
000000d0: 9bfc c43f bea5 d13f 6855 de3f 4e2c c83f
000000e0: b572 d53f 0dab d83f 4078 db3f 619c d23f
000000f0: b06d d43f 5236 e93f 4026 d03f 3f76 df3f

conv.6.bias f4 [64]
-0.16321957 -0.0077831307 -0.0649043 0.014915162 0.16191208 -0.060705196 -0.050316222 -0.11453856
-0.135303 -0.019296816 -0.02005373 -0.0808816 -0.07007641 -0.08068314 -0.14471522 -0.016828408
-0.063951865 -0.046892967 -0.123626225 -0.12208068 -0.0303633 -0.06376524 -0.2131109 -0.05635436
-0.017226793 -0.10946352 -0.082922496 -0.06336863 -0.04539298 -0.030769467 -0.001378321 -0.20511991
0.08582869 -0.108010665 -0.11331284 -0.04964184 -0.14887212 -0.10116989 -0.053529765 -0.04086335
-0.052656513 0.06436534 -0.04325076 -0.054918032 -0.15855959 -0.12034662 -0.032543994 0.014056068
-0.18259238 -0.07191123 0.023965655 -0.015267066 -0.36653996 0.082495816 -0.10284615 -0.14883578
-0.073537834 -0.015756441 -0.06896713 -0.084622465 -0.08087395 -0.09901599 -0.11129147 -0.033126086
00000000: 0823 27be a209 ffbb 8cec 84bd b95e 743c
00000010: 48cc 253e 03a6 78bd 6218 4ebd 3193 eabd
00000020: df8c 0abe 5b14 9ebc b847 a4bc 41a5 a5bd
00000030: 3984 8fbd 343d a5bd 3a30 14be bbdb 89bc
00000040: 32f9 82bd d712 40bd bf2f fdbd 7005 fabd
00000050: 75bc f8bc 5a97 82bd be39 5abe d4d3 66bd
00000060: 341f 8dbc 692e e0bd 45d3 a9bd 6ac7 81bd
00000070: fded 39bd 4010 fcbc c7a8 b4ba f40a 52be
00000080: f4c6 af3d b234 ddbd 9010 e8bd 3e55 4bbd
00000090: ef71 18be 2932 cfbd 0742 5bbd 5460 27bd
000000a0: 5bae 57bd fad1 833d b527 31bd bbf1 60bd
000000b0: 725d 22be 4a78 f6bd da4c 05bd 6c4b 663c
000000c0: 7ff9 3abe 3246 93bd 9f53 c43c b722 7abc
000000d0: 20ab bbbe 91f3 a83d 01a1 d2bd 6868 18be
000000e0: 019b 96bd a713 81bc a33e 8dbd 8b4e adbd
000000f0: 3ea1 a5bd e5c8 cabd c8ec e3bd 38af 07bd

conv.6.running_mean f4 [64]
0.25898445 -0.086489394 -0.1360225 0.08123296 0.12548399 -0.06200272 0.003162443 -0.13361332
0.19649024 0.094748385 -0.23036811 0.4228463 -0.11719042 0.39869797 -0.09601316 -0.75618196
-0.015639666 -0.22281301 -0.29144242 0.040544122 -0.10504097 -0.14499861 0.08216257 -0.62925494
0.14041871 0.16733627 -0.019871261 0.284204 0.12528257 0.17006753 0.12614486 0.71825325
-0.29623774 0.0076990407 0.29478306 -0.3529782 -0.03387038 0.61721015 0.14066997 -0.061580174
0.22606371 -0.04131809 -0.06577187 0.1219649 -0.48913002 -0.31886715 0.15026174 -0.027264463
0.22851023 -0.06675288 -0.10377801 -0.14505164 0.23601273 -0.2000064 0.013996629 0.35000145
0.07877181 0.005482479 -0.49066582 -0.037032202 0.21772197 0.07921122 -0.0665294 -0.34075397
00000000: 9c99 843e 5a21 b1bd 7b49 0bbe 775d a63d
00000010: e07e 003e 90f6 7dbd fd40 4f3b eed1 08be
00000020: bd34 493e 710b c23d 9ee5 6bbe 4f7f d83e
00000030: 8801 f0bd 2422 cc3e 8ca2 c4bd 2495 41bf
00000040: c21e 80bc 1829 64be f137 95be 9811 263d
00000050: b81f d7bd 847a 14be d944 a83d da16 21bf
00000060: ecc9 0f3e 335a 2b3e 0ec9 a2bc 3083 913e
00000070: 134a 003e 2f26 2e3e 1e2c 013e 72df 373f
00000080: 79ac 97be 3c48 fc3b ceed 963e 8fb9 b4be
00000090: abbb 0abd 7c01 1e3f ca0b 103e 7e3b 7cbd
000000a0: 3f7d 673e 283d 29bd 67b3 86bd bcc8 f93d
000000b0: 406f fabe 8e42 a3be 37de 193e b959 dfbc
000000c0: 96fe 693e bcb5 88bd 9189 d4bd 6b88 14be
000000d0: 52ad 713e 7ace 4cbe 1e52 653c 6433 b33e
000000e0: 1d53 a13d 5ea6 b33b 8d38 fbbe 14af 17bd
000000f0: 82f2 5e3e 7e39 a23d 9140 88bd 4e77 aebe

conv.6.running_var f4 [64]
0.1361448 0.1326754 0.16909607 0.2456268 0.19583532 0.17209023 0.15980358 0.14710885
0.15051983 0.15908125 0.14506486 0.13863115 0.15366834 0.19037694 0.26496792 0.13550127
0.16454211 0.18104388 0.120101355 0.14711684 0.15716586 0.15866429 0.16961907 0.17356765
0.19246897 0.13773233 0.12822853 0.11644703 0.17595264 0.15161622 0.10070824 0.20666002
0.16018005 0.15977155 0.20202029 0.14574687 0.15134837 0.1688439 0.16066125 0.12835285
0.1664065 0.124667816 0.22184463 0.13096459 0.13602456 0.1266591 0.22783199 0.12966986
0.12691696 0.14874649 0.1305292 0.17337976 0.20049718 0.14417416 0.13022986 0.13795368
0.11740441 0.15428537 0.14203371 0.1334434 0.1204137 0.1538494 0.13574749 0.14853048
00000000: 8b69 0b3e 0fdc 073e 8527 2d3e 9885 7b3e
00000010: 0e89 483e 6c38 303e 8da3 233e b4a3 163e
00000020: df21 1a3e 32e6 223e e28b 143e 53f5 0d3e
00000030: 3c5b 1d3e 2cf2 423e e0a9 873e d8c0 0a3e
00000040: ba7d 283e 9163 393e b3f7 f53d cca5 163e
00000050: 16f0 203e e478 223e 9fb0 2d3e b8bb 313e
00000060: 9616 453e b409 0d3e 574e 033e c87b ee3d
00000070: ee2c 343e 4841 1b3e 1f40 ce3d af9e 533e
00000080: 3d06 243e 279b 233e 68de 4e3e ab3e 153e
00000090: 11fb 1a3e 6ae5 2c3e 6284 243e ee6e 033e
000000a0: 7766 2a3e d751 ff3d 3d2b 633e 951b 063e
000000b0: 064a 0b3e ecb2 013e ca4c 693e 2dc8 043e
000000c0: 85f6 013e 0051 183e 72a9 053e 778a 313e
000000d0: 224f 4d3e 64a2 133e fa5a 053e bb43 0d3e
000000e0: b971 f03d fcfc 1d3e 4971 113e 63a5 083e
000000f0: 759b f63d b28a 1d3e 6401 0b3e 6018 183e

adv_head.weight f4 [1, 2304]
-0.00020450524 -0.0018104044 -0.008089247 0.0056565274 0.012621137 -0.00038709235 0.007545256 0.007577879
2.0023865e-05 0.00867818 -0.003610962 0.0015294072 0.008712365 0.00040323235 -0.0008153822 -0.004860785
-0.0073024747 -0.0005840638 -0.00094643113 0.00973203 -0.001967854 -0.0045521962 -0.003061537 0.0008091141
0.009794279 -0.0041729873 0.0052336953 -0.0001496888 0.0057215835 0.0035981266 0.004096536 -0.005697432
-0.0045645162 0.0022889627 0.0058026905 0.0047213305 0.00072247675 0.0021154976 -0.008788461 0.0011503393
-0.002437627 0.006633392 -0.004970127 -0.009858176 -0.00086715585 -0.006312077 -0.008915969 -0.004849737
-0.00341935 0.006459844 0.008245914 0.0064783725 0.0028629696 -0.0038182724 0.0054851747 0.0036521545
-0.006826902 -0.00055151776 0.007502619 0.002082251 -0.0019499023 0.0081232255 -0.0008011789 -0.0043860767
0.004219995 -0.0067841094 0.0009328943 0.0073546246 -0.008261403 0.011006386 0.003302796 -0.003007589
0.0040724385 -0.0003810404 0.0065152864 0.00014724911 -0.010002594 2.0778505e-05 0.0036972128 -0.0017501266
-0.00093386194 -0.0064444053 0.0009920562 0.003123702 -0.007535324 -0.0029517412 0.0016938206 -0.005178354
0.005881739 -0.00422678 0.007199025 0.0034424514 -5.7967547e-05 -0.0020032916 -4.4873537e-05 0.0043581235
-0.0071836757 -0.014260268 0.010392015 0.009799099 -0.00026816913 0.00730575 -0.003766167 -0.0036545591
-0.008470159 0.0020456593 -0.0040511372 0.0033458867 -0.00016014518 0.0058667473 0.012002091 0.01871432
-0.0025709174 0.0040954337 -0.0073770727 0.013791767 0.00898828 0.009102393 -0.0019795033 0.005378727
-0.012043376 -0.0013464852 -0.00399131 -0.0017080298 -0.0011008298 0.0028090398 -0.00039112792 0.004213406
0.0069319014 0.01146354 -0.0019603993 0.01845325 -0.0072491826 0.0026372394 0.00012635684 0.007536576
-0.00088987726 0.02489922 -0.0058171963 0.010068662 0.0012996043 0.0035534143 0.004476821 -0.008890868
0.0051121027 0.00014849185 0.0011627272 0.0050270204 0.0038517995 -0.00079825736 0.009499252 0.00039161666
-0.008414823 -0.005889254 0.0053962637 -0.001420932 0.0058512753 -0.008109316 -0.0025419008 -0.0069848
-0.0050534345 0.0031523893 0.0054835123 0.007746532 -0.0026086639 -0.0017605975 0.00079917244 -0.0033836002
0.005808904 -0.0057788203 0.00028280285 -0.003647422 0.0027727948 -0.0032304272 0.007650525 -0.0007244247
-0.0052320785 0.00083908404 0.006065772 -0.009682978 5.829756e-05 0.008940674 -0.008119348 0.0071085575
0.005991557 0.01179238 -0.0035653173 0.0012132737 -0.010691651 -0.0068609808 -0.0069284746 0.0031080777
-0.00080507126 0.0037118453 -0.012406251 0.004893188 -0.008033194 0.0041376613 -0.0015285523 -0.008205577
-0.0014266907 0.0023986518 -0.005074928 0.0096960375 0.001434363 0.0001576388 0.00027488085 0.006843226
-0.0070954734 -0.0015322908 0.015024508 0.00076328695 -0.001468522 0.0014209773 -0.0033502858 -0.009166382
-0.0020527237 0.0034022774 0.00038032042 0.002877768 0.005693868 -0.0048295613 0.0019329771 -0.006793232
0.0040016896 0.0047207316 0.0014269073 0.0015869688 -0.0011186111 0.011806853 -0.0040611583 -0.0028127038
-0.006135803 0.0054202206 0.0019735033 0.0006150097 -0.00067635195 0.0011066252 -0.00036650317 -0.0036533303
-0.009207986 -0.0053955303 0.00021592692 -0.0017242314 0.001997617 0.00952876 -0.0023748258 -0.00010136457
0.008450573 0.0008018051 -0.0023951614 -0.012558949 -0.0018249657 -0.00061506656 -0.0045816437 -0.008021708
00000000: 7570 56b9 174b edba c388 04bc 645a b93b
00000010: e3c8 4e3c a8f2 cab9 323e f73b db4f f83b
00000020: ecf8 a737 ed2e 0e3c e4a5 6cbb 6476 c83a
00000030: 4fbe 0e3c ee68 d339 60bf 55ba 3847 9fbb
00000040: 9949 efbb dc1b 19ba eb19 78ba 1873 1f3c
00000050: 1df7 00bb 972a 95bb 11a4 48bb ba1a 543a
00000060: 2f78 203c 8ebd 88bb 6b7f ab3b c8f5 1cb9
00000070: 1f7c bb3b 8cce 6b3b 3c3c 863b 86b1 babb
00000080: f091 95bb 6c02 163b 7f24 be3b 64b5 9a3b
00000090: 9864 3d3a 29a4 0a3b 7afd 0fbc fbc6 963a
000000a0: 98c0 1fbb ed5c d93b 72dc a2bb 3084 21bc
000000b0: d851 63ba 8ad5 cebb 4914 12bc 8bea 9ebb
000000c0: 2c17 60bb 19ad d33b df19 073c 8748 d43b
000000d0: a9a0 3b3b fb3b 7abb fbbc b33b fc58 6f3b
000000e0: 34b4 dfbb bb93 10ba 88d8 f53b 6076 083b
000000f0: dd93 ffba 4717 053c 3506 52ba 14b9 8fbb
00000100: e247 8a3b 3c4d debb 7a8d 743a 10ff f03b
00000110: d65a 07bc 2154 343c b973 583b f81a 45bb
00000120: 1772 853b 60c6 c7b9 2f7e d53b e266 1a39
00000130: ece1 23bc 804d ae37 f04c 723b 8164 e5ba
00000140: 6ace 74ba 972b d3bb e207 823a 06b7 4c3b
00000150: e1ea f6bb 0072 41bb 3003 de3a 2faf a9bb
00000160: 9abb c03b cd80 8abb cce5 eb3b c09a 613b
00000170: 2e22 73b8 a849 03bb 9836 3cb8 97ce 8e3b
00000180: 0a65 ebbb e6a3 69bc 4543 2a3c 668c 203c
00000190: 0d99 8cb9 1365 ef3b ccd1 76bb 5481 6fbb
000001a0: 6cc6 0abc 7810 063b 67bf 84bb aa46 5b3b
000001b0: a5ec 27b9 d83d c03b 6ba4 443c c64e 993c
000001c0: d67c 28bb fd32 863b 5fbb f1bb ddf6 613c
000001d0: 9443 133c 3422 153c 8eba 01bb 0840 b03b
000001e0: 9551 45bc 8c7c b0ba 89c9 82bb f8df dfba
000001f0: b849 90ba de17 383b 4d10 cdb9 9c10 8a3b
00000200: 0125 e33b 92d1 3b3c 0b7a 00bb 452b 973c
00000210: 8d8a edbb 89d5 2c3b a87e 0439 62f5 f63b
00000220: a746 69ba 73f9 cb3c 2e9e bebb 08f7 243c
00000230: 7c57 aa3a 66e0 683b 4cb2 923b 01ab 11bc
00000240: 6d83 a73b 7ab4 1b39 a766 983a b4b9 a43b
00000250: 796e 7c3b 2542 51ba c0a2 1b3c e651 cd39
00000260: 53de 09bc a5fa c0bb 24d3 b03b 913e baba
00000270: 0ebc bf3b f0dc 04bc 0596 26bb c0e0 e4bb
00000280: 4897 a5bb 5198 4e3b 09af b33b 9fd6 fd3b
00000290: 1ef6 2abb d9c3 e6ba 8e7f 513a 64bf 5dbb
000002a0: 9e58 be3b 425c bdbb 2845 9439 9609 6fbb
000002b0: c7b7 353b 93b5 53bb 41b1 fa3b 52e7 3dba
000002c0: db71 abbb faf5 5b3a 62c3 c63b 5aa5 1ebc
000002d0: 8784 7438 e87b 123c 0407 05bc e7ee e83b
000002e0: d354 c43b d434 413c 19a8 69bb b606 9f3a
000002f0: 092c 2fbc 14d2 e0bb 4208 e3bb e4b0 4b3b
00000300: 6b0b 53ba 6e42 733b 9743 4bbc 0957 a03b
00000310: a89d 03bc 3895 873b b459 c8ba af70 06bc
00000320: ccff baba b332 1d3b 954b a6bb 21dc 1e3c
00000330: 3c01 bc3a d84b 2539 e21d 9039 243d e03b
00000340: 2581 e8bb 26d7 c8ba 5b29 763c 5217 483a
00000350: 6c7b c0ba 1640 ba3a 7890 5bbb 982e 16bc
00000360: fd86 06bb bef8 5e3b be65 c739 ef98 3c3b
00000370: a093 ba3b 4c41 9ebb f35b fd3a c399 debb
00000380: 9b20 833b 5eb0 9a3b 1007 bb3a d601 d03a
00000390: 5c9e 92ba 8871 413c 7713 85bb 5755 38bb
000003a0: d90e c9bb 1b9c b13b e455 013b 9a38 213a
000003b0: 364d 31ba 2e0c 913a 3927 c0b9 b66c 6fbb
000003c0: 18dd 16bc fdcc b0bb 716a 6239 9bff e1ba
000003d0: 74ea 023b 841e 1c3c f7a2 1bbb b093 d4b8
000003e0: 4674 0a3c 3b30 523a 24f8 1cbb 0dc4 4dbc
000003f0: b033 efba 6b3c 21ba 9d21 96bb 7b6d 03bc

cls_head.weight f4 [7, 2304]
0.025458919 -0.13191652 -0.14819725 0.06634969 0.00051161216 -0.017485525 -0.012128107 0.14327163
0.0049714665 0.036451463 -0.03500607 -0.058795415 -0.07360099 -0.08024834 0.046295993 -0.022139948
-0.027535379 0.06355703 0.1807848 -0.026468648 0.068754464 0.06781561 0.09234842 0.0019802302
-0.17498964 0.007549815 0.17299585 0.11594678 0.082326286 -0.033249788 -0.12724568 0.013754102
-0.062504955 0.19318905 -0.011471069 -0.114273414 0.0015499172 0.17536782 0.18479525 -0.0702284
-0.028528012 -0.057141222 0.08627951 0.04883504 -0.04239105 -0.07172937 -0.05753889 0.037618954
0.06759974 -0.1119141 -0.060967345 0.033834428 0.056594845 -0.02557224 -0.08898434 0.032949
-0.2193485 0.11533088 0.1642002 0.044625882 -0.029122889 0.18143426 0.04481046 0.07894638
0.07353856 -0.0698645 -0.038966518 -0.06781298 -0.053485487 0.016081361 0.0142203 -0.01296036
0.06417535 0.0030124455 -0.08726278 0.0043545775 0.0057913065 0.0873615 -0.0662104 -0.08952116
-0.21192527 -0.2044838 -0.19618487 -0.026760636 -0.110498175 -0.061740596 -0.09570008 -0.025549186
0.01978098 0.052759495 0.051604662 -0.1717134 -0.11159699 0.18809755 0.1815933 0.0779649
-0.05017618 -0.12291089 -0.024408398 0.158984 0.026853865 -0.031321667 -0.017695207 -0.0006548301
0.06801195 0.037427478 0.078730874 0.061110806 -0.0017133349 0.11491684 -0.0107561825 0.020388464
0.007273836 0.05106813 0.033876106 -0.0721602 -0.07239576 0.123012744 0.041996617 -0.017538143
0.03613237 0.0543932 0.07813617 -0.26640615 0.026862217 0.08147139 -0.061074007 0.031147068
0.04494921 0.03313947 -0.034805577 0.08743682 -0.018364271 0.097385846 0.082390755 -0.14332029
0.093848646 -0.024065817 0.057185177 -0.038762104 -0.051013343 0.015884802 -0.048807256 -0.11181083
-0.025605096 0.06394779 0.058492806 -0.10315416 -0.045913734 0.045309298 -0.012849468 0.021190127
-0.12564321 -0.10810205 -0.068871506 0.07161489 0.044238638 -0.0019531907 -0.04953537 -0.06978296
-0.2735856 0.019394947 0.0014033093 0.07909732 0.015933078 0.10307277 -0.02288961 -0.0033764185
-0.049340658 -0.04561132 0.012352964 0.041380953 0.13672818 -0.029154409 -0.08796024 0.014252362
-0.17553982 0.18230198 0.011737548 -0.103627235 -0.057731636 0.032866154 -0.03775374 -0.035354502
-0.017294765 0.027032008 0.13246435 -0.092356846 -0.09051698 0.18626662 -0.17211162 -0.027898291
-0.07545018 0.028577505 0.10065037 -0.12510343 -0.044817686 0.026743507 -0.0867671 -0.012902535
0.12480467 -0.05620806 0.08442247 -0.008437209 -0.06717297 0.12912032 -0.008138031 -0.07434616
-0.036754765 0.19760175 -0.15199362 0.16734946 -0.18996406 -0.03543282 0.15341465 0.057926364
0.012273635 0.04539872 -0.04368642 -0.24288687 0.14163707 -0.024414906 0.03561528 -0.0766804
-0.21883991 -0.14534412 -0.019024612 0.075840235 -0.0096877515 0.047696713 0.09555524 0.07177002
0.051358618 0.0023947274 0.010789254 -0.035143424 0.10131126 0.07591042 0.14798811 0.02813684
-0.094073854 -0.15116917 -0.013081412 0.06194451 0.13849151 0.06354745 0.06816986 0.06390323
-0.13342409 -0.052498307 0.03235672 0.0590797 0.07819088 0.054707874 0.08802864 0.19540931
00000000: 398f d03c 2015 07be 05c1 17be 59e2 873d
00000010: b61d 063a ce3d 8fbc f8b4 46bc ccb5 123e
00000020: afe7 a23b 214e 153d 8662 0fbd 76d3 70bd
00000030: 1ebc 96bd 3e59 a4bd dea0 3d3d d65e b5bc
00000040: e091 e1bc 302a 823d a71f 393e c7d4 d8bc
00000050: 24cf 8c3d e9e2 8a3d 2b21 bd3d c0c6 013b
00000060: 7c30 33be 7064 f73b d325 313e 8175 ed3d
00000070: af9a a83d ee30 08bd b14c 02be e358 613c
00000080: 9902 80bd 5ad3 453e 27f1 3bbc 2e08 eabd
00000090: 9726 cb3a 9f93 333e f73a 3d3e e8d3 8fbd
000000a0: 94b3 e9bc ea0c 6abd 50b3 b03d 4007 483d
000000b0: 3da2 2dbd d9e6 92bd e6ad 6bbd 5516 1a3d
000000c0: bc71 8a3d 3833 e5bd e5b8 79bd f895 0a3d
000000d0: ffcf 673d e07c d1bc 6c3d b6bd 88f5 063d
000000e0: e59c 60be 9932 ec3d 1924 283e a1c9 363d
000000f0: 2093 eebc e7c9 393e 2c8b 373d a4ae a13d
00000100: 629b 963d 1e15 8fbd 5b9b 1fbd 88e1 8abd
00000110: 9913 5bbd 0fbd 833c 43fc 683c b157 54bc
00000120: 5e6e 833d 736c 453b d4b6 b2bd d8b0 8e3b
00000130: 00c5 bd3b 96ea b23d 5199 87bd df56 b7bd
00000140: f002 59be 3464 51be b0e4 48be 1f39 dbbc
00000150: de4c e2bd b5e3 7cbd 67fe c3bd 874c d1bc
00000160: b90b a23c 571a 583d 695f 533d a3d5 2fbe
00000170: f68c e4bd a59c 403e 98f3 393e 10ac 9f3d
00000180: 8a85 4dbd b4b8 fbbd 1ff4 c7bc b4cc 223e
00000190: a3fc db3c 264b 00bd 8af5 90bc e7a8 2bba
000001a0: d949 8b3d 8e4d 193d a73d a13d 534f 7a3d
000001b0: fb91 e0ba 8559 eb3d b33a 30bc b505 a73c
000001c0: 5c59 ee3b d12c 513d acc1 0a3d bac8 93bd
000001d0: 3a44 94bd 1bee fb3d a504 2c3d 27ac 8fbc
000001e0: 89ff 133d 67cb 5e3d db05 a03d 6366 88be
000001f0: 270e dc3c 79da a63d bd28 7abd 2328 ff3c
00000200: aa1c 383d 41bd 073d 4b90 0ebd 1312 b33d
00000210: ab70 96bc 3b72 c73d 7cbc a83d 8ec2 12be
00000220: b833 c03d ad25 c5bc 013b 6a3d 03c5 1ebd
00000230: 5ef3 50bd d820 823c 1eea 47bd 14fd e4bd
00000240: c7c1 d1bc 0ff7 823d 2796 6f3d 7d42 d3bd
00000250: 0a10 3cbd 3e96 393d 9386 52bc eb96 ad3c
00000260: 9da8 00be 9c64 ddbd 810c 8dbd d4aa 923d
00000270: 9333 353d 1a01 00bb 9ae5 4abd 5eea 8ebd
00000280: 6913 8cbe 27e2 9e3c 3fef b73a c7fd a13d
00000290: 1686 823c d117 d33d fe82 bbbc e746 5dbb
000002a0: 6e19 4abd efd2 3abd 1664 4a3c 137f 293d
000002b0: 7902 0c3e 3ad5 eebc 8024 b4bd bd82 693c
000002c0: b6c0 33be 5fad 3a3e d84e 403c 843a d4bd
000002d0: 0278 6cbd a99e 063d aaa3 1abd e2cf 10bd
000002e0: c0ad 8dbc 3b72 dd3c bca4 073e 9625 bdbd
000002f0: f760 b9bd adbc 3e3e 073e 30be f58a e4bc
00000300: a085 9abd 5f1b ea3c c821 ce3d 1d1b 00be
00000310: c092 37bd 3315 db3c f3b2 b1bd 2765 53bc
00000320: 9799 ff3d 6c3a 66bd b0e5 ac3d 383c 0abc
00000330: fb91 89bd 1e38 043e 6055 05bc cd42 98bd
00000340: 2a8c 16bd 1d58 4a3e 37a4 1bbe a85d 2b3e
00000350: f085 42be 0122 11bd bb18 1d3e 3244 6d3d
00000360: 5b17 493c 02f4 393d 88f0 32bd 56b7 78be
00000370: 4f09 113e c501 c8bc 54e1 113d 9d0a 9dbd
00000380: 9217 60be 17d5 14be 81d9 9bbc 2052 9b3d
00000390: 60b9 1ebc a15d 433d 77b2 c33d 29fc 923d
000003a0: 6a5d 523d dcf0 1c3b 69c5 303c 8df2 0fbd
000003b0: 477c cf3d ec76 9b3d 328a 173e 3b7f e63c
000003c0: cba9 c0bd 17cc 1abe 6b53 56bc 87b9 7d3d
000003d0: b8d0 0d3e 2a25 823d a49c 8b3d b2df 823d
000003e0: 53a0 08be 7708 57bd 7b88 043d 8efd 713d
000003f0: 8a22 a03d 5d15 603d 5c48 b43d 6119 483e

cls_head.bias f4 [7]
-0.01191188 -0.03612185 -0.019206798 0.020250874 -0.006342727 0.016096938 0.008209219
00000000: 0c2a 43bc 81f4 13bd 9357 9dbc 29e5 a53c
00000010: a7d6 cfbb badd 833c f67f 063c
