src/facexpr/cGen+cDis/Version 1.7Final/weight/disc_ep200.pth (torch, 247605 bytes, 17 tensors)

conv.0.weight f4 [16, 1, 4, 4]
0	0x3e74e5de	0.23915812
1	0x3e8a37bf	0.26995656
2	0x3e6cd48b	0.23127954
3	0xbdefc459	-0.11707372
4	0xbd916331	-0.070989974
5	0xbe35716a	-0.17719045
6	0xbd0950b8	-0.033524245
7	0x3c11bd93	0.008895296
8	0xbd938bcf	-0.07204401
9	0x3ca510aa	0.020149548
10	0xbd3ce46d	-0.04611628
11	0xbd123694	-0.03569658
12	0xbe8317d7	-0.25604126
13	0xbd6aa948	-0.057290345
14	0x3d81a59f	0.06330418
15	0xbdc73f91	-0.09728921
16	0x3e1b173a	0.15145579
17	0xbe54c1a3	-0.20776992
18	0xbe5a0772	-0.21291903
19	0xbe83785d	-0.25677767
20	0xbe820fbb	-0.25402626
21	0x3e978e07	0.29600546
22	0x3e20120a	0.15631881
23	0x3e71d82a	0.23617616
24	0x3e23de28	0.16002715
25	0x3dcedf49	0.10101182
26	0xbd3725b9	-0.04471371
27	0x3e4ec21a	0.20191231
28	0x3cb4140f	0.021982221
29	0xbddccc8e	-0.10781203
30	0xbe213eee	-0.15746662
31	0xbdac28a4	-0.08406189
32	0xbe535e4c	-0.2064144
33	0x3de2f3b0	0.11081636
34	0x3ce7c7dd	0.028293544
35	0x3db309df	0.08742117
36	0xbe1c4487	-0.15260516
37	0xbe06d2d4	-0.13166362
38	0xbd1859ea	-0.037195124
39	0x3e0f7e6c	0.1401307
40	0x3d1ad229	0.03779808
41	0x3d1e0ac9	0.038584504
42	0x3d87f3d5	0.06638304
43	0x3e108286	0.1411229
44	0xbc3e8562	-0.011628481
45	0x3e000d72	0.12505129
46	0xb9f89ea2	-0.00047420437
47	0x3d0c5fa7	0.03427091
48	0x3d69b9ce	0.057061963
49	0x3e335365	0.17512281
50	0x3d6f0895	0.058357794
51	0xbb9224ff	-0.0044599767
52	0x3eb7a791	0.3587003
53	0xbe44282f	-0.19155954
54	0xbe859c33	-0.26095733
55	0x3c1dfa1b	0.009642149
56	0xbe4546da	-0.19265309
57	0xbedc3173	-0.43006477
58	0x3e05b01f	0.13055466
59	0xbd9f6336	-0.07782595
60	0xbcd4c0df	-0.025970874
61	0x3e0496b6	0.12948117
62	0x3e56190b	0.2090799
63	0x3d6e0bbd	0.058116663
64	0x3d915cfe	0.07097815
65	0x3cdd0e32	0.026984308
66	0xbdfd4cdc	-0.123681754
67	0x3d07c92c	0.033150837
68	0x3c8073c0	0.015680194
69	0x3e0326e2	0.12807801
70	0xbba210a5	-0.004945832
71	0xbc06d851	-0.008230285
72	0x3e6fbdf2	0.23412302
73	0x3dbc3a61	0.091908224
74	0xbe81e918	-0.2537315
75	0xbdf376c2	-0.11887886
76	0x3e4251c3	0.18976502
77	0xbe7ac273	-0.24488239
78	0xbe4c6c63	-0.19963221
79	0x3e34aeef	0.17644857
80	0xbd09453c	-0.033513293
81	0xbe0636fe	-0.13106915
82	0x3d92b300	0.07163048
83	0x3e288451	0.16456725
84	0x3e206703	0.15664296
85	0x3d10e9a9	0.035379086
86	0xbcd26462	-0.025682632
87	0x3e92b8d9	0.28656653
88	0xbe807c10	-0.25094652
89	0xbe558f63	-0.20855479
90	0xbda3f288	-0.080052435
91	0x3dd3cba6	0.10341577
92	0x3e63b6d9	0.2223772
93	0xbe70d75e	-0.23519656
94	0xbdc50cf1	-0.09621609
95	0xbd1bf3fa	-0.03807447
96	0x3db7cd69	0.08974726
97	0x3dbfdbdf	0.09368109
98	0xbe177c5d	-0.14793535
99	0x3e0e579a	0.13900605
100	0xbd359367	-0.044330027
101	0xbd131ab5	-0.03591414
102	0xbe4509af	-0.19241975
103	0x3e296147	0.16541015
104	0xbd620569	-0.05518094
105	0x3dca4230	0.098759055
106	0x3cd0708e	0.025444295
107	0x3d3731fc	0.044725403
108	0xbdeaef24	-0.11471394
109	0x3e389501	0.1802559
110	0xbe3159d8	-0.17319429
111	0xbe25bea7	-0.1618601
112	0x3c65200b	0.01398469
113	0x3be7ef7f	0.0070781107
114	0xbe365321	-0.17805149
115	0xbba06bd5	-0.004895667
116	0x3e8e95ce	0.27848667
117	0xbe1e55ee	-0.15462467
118	0xbe8ec625	-0.27885547
119	0xbb1cd378	-0.0023929756
120	0x3e6c12ad	0.23053999
121	0x3e392efb	0.18084328
122	0xbcad3e8e	-0.021147992
123	0xbe8ef99e	-0.27924818
124	0x3dc1eae1	0.09468628
125	0x3e390513	0.18068342
126	0xbd7cb0b2	-0.061691947
127	0x3c95c7d0	0.018283755
128	0x3cd36d7a	0.025809038
129	0x3d0efc04	0.03490831
130	0x3e8084c6	0.25101298
131	0xbe1ed5ab	-0.15511195
132	0x3dd4452c	0.10364756
133	0xbd9b6cf5	-0.07589141
134	0x3dcd0543	0.10010769
135	0xbe6b4315	-0.22974809
136	0xbe403116	-0.18768725
137	0x3e24cdfa	0.16094199
138	0x3e527e64	0.20556027
139	0x3db2efd5	0.087371506
140	0xbc7ef6e9	-0.015561798
141	0x3df7688a	0.12080486
142	0x3e435f30	0.1907928
143	0x3cab4540	0.020907044
144	0x3c904f74	0.017616011
145	0x3d966a14	0.073444515
146	0xbdc1b3c2	-0.09458114
147	0xbdbc3ff5	-0.09191886
148	0xbc14c457	-0.009080014
149	0xbe4655f8	-0.19368732
150	0xbe548df5	-0.20757277
151	0xbe9ed6e8	-0.31023335
152	0xbdb5a41d	-0.08869193
153	0x3dd7d59a	0.10538788
154	0x3e192353	0.14954881
155	0x3dc67e28	0.09692031
156	0x3d94c3c9	0.072639056
157	0x3d952c38	0.07283825
158	0x3e79809e	0.2436547
159	0x3e2b93b6	0.16755566
160	0x3e42680a	0.18985
161	0x3e46862f	0.19387124
162	0xbe39ee68	-0.18157351
163	0xbe9b81e1	-0.30372527
164	0xbe5d9630	-0.21639323
165	0xbc9e9f1f	-0.019362984
166	0xbe90ab28	-0.28255582
167	0xbd93bd38	-0.07213825
168	0x3e3cd86a	0.1844193
169	0x3d995f91	0.07488931
170	0x3e3b8f98	0.18316495
171	0xbe86023f	-0.2617359
172	0x3cbcad0e	0.023031738
173	0x3e0e5457	0.1389936
174	0x3ddeb801	0.1087494
175	0x3e533f98	0.20629728
176	0x3c189909	0.00931383
177	0x3d18ff3d	0.03735279
178	0x3dff857a	0.124766305
179	0xbe2f7f81	-0.17138483
180	0x3da7fc82	0.08202459
181	0x3e418b63	0.18900828
182	0x3ca93466	0.020654868
183	0x3b1499d5	0.00226747
184	0x3deef8de	0.116685614
185	0x3e8975ce	0.2684769
186	0xbda0694a	-0.07832582
187	0xbe532a79	-0.20621671
188	0xbd12377e	-0.035697453
189	0x3dd55a8c	0.10417661
190	0xbe662c19	-0.2247776
191	0xbe727e18	-0.23680913
192	0xbdd3e9db	-0.10347339
193	0xbe856d0c	-0.2605976
194	0xbea1ce72	-0.31602818
195	0x3c86d17e	0.016457316
196	0xbe4d4c20	-0.2004857
197	0x3b1323bf	0.0022451726
198	0x3e7aa725	0.24477823
199	0xbcf5d5d8	-0.030009195
200	0x3e115962	0.14194253
201	0x3e547a1d	0.20749708
202	0x3e4f24d6	0.20228896
203	0x3daa6017	0.08319109
204	0xbdc5a989	-0.09651477
205	0x3dbbd850	0.09172118
206	0xbcb80583	-0.022463566
207	0x3d063e84	0.032774463
208	0xbdfb6705	-0.12275509
209	0xbd1be539	-0.0380604
210	0xbdf2547c	-0.1183252
211	0xbcd8169b	-0.026377967
212	0x3d9a26fa	0.075269654
213	0xbe37916d	-0.1792657
214	0x3d2af803	0.04174043
215	0xbe10e44f	-0.14149593
216	0x3cb03aa1	0.021512331
217	0xbbf317c7	-0.007418606
218	0xbbcf75cb	-0.0063311807
219	0xbd09ba55	-0.033624966
220	0x3d8726d5	0.065992035
221	0x3d50e22f	0.050996955
222	0x3d91f50f	0.07126819
223	0xbdcb71a2	-0.09933783
224	0xbcf687ca	-0.030094046
225	0xbd209e96	-0.03921374
226	0xbd328f2b	-0.043593567
227	0x3c562404	0.01307011
228	0xbd0f329f	-0.034960385
229	0x3deae4e3	0.11469438
230	0xbdce73f4	-0.1008071
231	0xbd8aa40a	-0.06769569
232	0x3dc46a20	0.09590554
233	0xbe21b88a	-0.15793052
234	0xbc1fca40	-0.00975281
235	0xbdd7fa8d	-0.10545836
236	0xbde02cf2	-0.10946073
237	0x3d172a23	0.03690542
238	0xbd98cf92	-0.07461466
239	0x3e5615db	0.20906775
240	0x3d6dd570	0.058064878
241	0x3d966f9c	0.073455065
242	0x3d3530be	0.044235937
243	0xbd385945	-0.04500701
244	0x3e046966	0.12930831
245	0x3dcd60f3	0.10028257
246	0x3e1a5e98	0.15075147
247	0x3e145267	0.14484559
248	0x3c07200f	0.008247389
249	0xbba91357	-0.005159776
250	0xbd63b4d6	-0.05559238
251	0xbdf9850d	-0.121835805
252	0xbe0d8c2b	-0.13823001
253	0xbe07e80e	-0.13272116
254	0xbd21e0ab	-0.0395209
255	0x3ceda02f	0.029007046

conv.0.bias f4 [16]
0	0xbdce9052	-0.10086121
1	0xb9d2a06a	-0.0004017384
2	0x3de933fc	0.11386868
3	0xbb9e5582	-0.0048319707
4	0xbbcd3ea9	-0.006263573
5	0xbd716c14	-0.058940962
6	0x3d7e96d2	0.062155552
7	0xbcbbb876	-0.022915106
8	0xbea2bfa3	-0.31786832
9	0x389e4c64	7.548256e-05
10	0xbe6085a9	-0.21925987
11	0xba8edc4a	-0.0010899391
12	0xbb800bbc	-0.003907649
13	0xbd6f9c49	-0.058498655
14	0x3d917598	0.07102507
15	0x3de5f196	0.112277195

conv.2.weight f4 [32, 16, 4, 4]
0	0xbd5482a7	-0.051882412
1	0xbd9c0d45	-0.076197185
2	0xbe01adf3	-0.12664013
3	0x3b45ee02	0.0030201678
4	0xbd65be38	-0.05608961
5	0xbe228159	-0.15869655
6	0xbdd10648	-0.10206276
7	0xbde2f1dd	-0.11081288
8	0xbd7512a7	-0.05983224
9	0xbde6e45b	-0.11274024
10	0xbd1b6ece	-0.03794747
11	0xbd96b940	-0.073595524
12	0x3d6862be	0.056734793
13	0xbd138e6c	-0.036024496
14	0xbddf2f91	-0.108977444
15	0xbce9261c	-0.028460555
16	0xbd89a74d	-0.06721363
17	0xbd1bdb49	-0.038050923
18	0x3d96cbb1	0.0736307
19	0x3cfe66f0	0.031054944
20	0xbd4f5fa9	-0.050628338
21	0xbd133a62	-0.03594435
22	0xbc6464f2	-0.013940083
23	0x3dbf9772	0.09355058
24	0xbce78f5b	-0.0282666
25	0x3d3c0fc6	0.04591348
26	0x3ccbdd82	0.024885897
27	0x3d9b150a	0.07572372
28	0xbc92230b	-0.017838975
29	0x3d5a72b2	0.05333204
30	0xbc1c179d	-0.009527114
31	0x3d14b792	0.03630788
32	0x3d43bd42	0.047787912
33	0xbcb2e8b5	-0.021839479
34	0x3cebe9c4	0.028797992
35	0xbd89961e	-0.06718086
36	0x3d301fbd	0.042999018
37	0x3d91961c	0.07108709
38	0x3d016065	0.03158607
39	0x3d40d131	0.0470745
40	0xbcc8412b	-0.024445137
41	0xbac6d593	-0.0015169851
42	0xbcbcf2f1	-0.023065062
43	0x3cb12291	0.021622928
44	0xbdf450b4	-0.119294554
45	0xbd39445e	-0.045231216
46	0xbb4dd252	-0.0031405878
47	0xbd602a22	-0.05472768
48	0x3d573cda	0.052548267
49	0x3d9725b7	0.073802404
50	0x3d8ba983	0.06819441
51	0x3d8c4565	0.068491735
52	0x3d4110cd	0.047135163
53	0x3df26ac9	0.11836774
54	0x3d8f1fe5	0.06988505
55	0x3dec54a2	0.1153958
56	0x3cb4f99d	0.022091681
57	0x3de764eb	0.112985454
58	0x3d3bca90	0.045847476
59	0x3d078320	0.033084035
60	0x3d81bd6e	0.06334959
61	0x3e0346f5	0.12820037
62	0x3daa1702	0.0830517
63	0x3d7d2b9e	0.061809175
64	0x3cd29455	0.025705496
65	0xbd697805	-0.056999225
66	0xbcc8cdbb	-0.024512162
67	0x3afe497a	0.001940056
68	0xbc253c79	-0.010085219
69	0x3c515691	0.012776987
70	0x3c99105f	0.018684564
71	0x3ca79e2e	0.020461168
72	0x3dcd6ab4	0.10030118
73	0x3cabffed	0.020996058
74	0x3dc6e808	0.09712225
75	0x3c2f1927	0.010687149
76	0x3d8628d7	0.06550758
77	0x3d11bea5	0.035582203
78	0x3d33b72f	0.04387587
79	0x3d69080d	0.056892443
80	0xbd864a54	-0.06557146
81	0xbd89ce57	-0.06728809
82	0xbdcdacfe	-0.10042761
83	0xbe06720a	-0.1312944
84	0xbc94daeb	-0.018170794
85	0xbdc4fc0a	-0.09618385
86	0xbe01f986	-0.12692842
87	0xbd46bbb7	-0.048518863
88	0x3b9a8b23	0.0047162934
89	0xbe0c6399	-0.13709868
90	0xbcb1ebb6	-0.021718841
91	0xbd26e5c9	-0.040746484
92	0xbe319bc5	-0.17344578
93	0xbdac4989	-0.08412463
94	0xbcd63f75	-0.026153306
95	0x3a125d4c	0.00055833603
96	0x3d7a26ac	0.061072037
97	0x3c497ecb	0.012298296
98	0xbca2a4b6	-0.01985393
99	0x39b2feea	0.0003414073
100	0xbd412258	-0.047151893
101	0xbcdaa546	-0.026690137
102	0x3d9d013b	0.0766625
103	0x3da4d782	0.08048917
104	0x3c850121	0.01623589
105	0x3d9a1c56	0.07524936
106	0x3c641f86	0.013923531
107	0xbcff5b7e	-0.031171557
108	0xbda78fc5	-0.08181719
109	0x3e055a3e	0.13022706
110	0x3de2e461	0.11078716
111	0x3d371e8f	0.044706877
112	0xbda267be	-0.079299435
113	0xbd6c2eaf	-0.05766171
114	0xbce6a632	-0.02815542
115	0xbdad8b0a	-0.08473785
116	0xbc11a929	-0.008890429
117	0xbd68129d	-0.056658376
118	0xbd57de4f	-0.052702244
119	0xbacf35da	-0.0015808896
120	0xbd99fe11	-0.075191624
121	0xbd8f56c4	-0.06998971
122	0x3d2aae09	0.04166988
123	0xbbce3bc0	-0.006293744
124	0xbe335887	-0.17514239
125	0xbdb8395e	-0.08995317
126	0xbda2aeee	-0.079435214
127	0xbcbf72dc	-0.023370199
128	0x3d1f172c	0.038840458
129	0x3c02bef5	0.007980098
130	0x3cd2a523	0.025713509
131	0xbdab7917	-0.083727054
132	0x3dd051c8	0.101718485
133	0x3cddddfa	0.027083386
134	0x3caf7d7f	0.021422146
135	0x3d34d147	0.044144895
136	0x3c5d7a96	0.013517996
137	0xbce328f2	-0.027729485
138	0x3d59db07	0.053187396
139	0x3d10f335	0.03538819
140	0x3ba7e7a9	0.0051240516
141	0xbc520148	-0.012817688
142	0xbd36a297	-0.04458865
143	0xbb881e68	-0.0041540153
144	0xbd35bfbf	-0.044372316
145	0xbca9c565	-0.020724008
146	0x3d1c228b	0.03811888
147	0x3d22f5f8	0.039785355
148	0xbde5f4c3	-0.11228325
149	0xbd8eec48	-0.06978661
150	0xbc2c18ca	-0.010503957
151	0x3d00a098	0.031403154
152	0xbd8f6796	-0.07002179
153	0x3daa5232	0.08316459
154	0x3d78832f	0.06067198
155	0x3cf54005	0.029937753
156	0xbd090129	-0.033448372
157	0x3d52e65b	0.051489215
158	0x3e2b678b	0.16738717
159	0x3d3213af	0.043475803
160	0xbd211277	-0.03932425
161	0xbd8af654	-0.067852646
162	0xbc8e2c7f	-0.017355202
163	0xbc04864c	-0.0080886595
164	0x3c96c6eb	0.018405398
165	0x3bba99f9	0.0056946245
166	0xbde34db3	-0.11098804
167	0xbcfceb2d	-0.03087386
168	0xbda4503e	-0.080231175
169	0xbd5122e0	-0.05105865
170	0xbcb3feb4	-0.021972038
171	0x3d4fd032	0.05073566
172	0xbd5fc458	-0.054630607
173	0x3daa50f1	0.083162196
174	0x3ce18098	0.027527139
175	0xbcdcd972	-0.026959155
176	0x3c3a5ba5	0.011374389
177	0xbcade655	-0.021227995
178	0xbdb4294e	-0.08796941
179	0xbc1586f1	-0.009126411
180	0x3d2da9a6	0.042398117
181	0x3d433822	0.047660954
182	0x3ccadfd9	0.024764942
183	0xbd49855d	-0.04919945
184	0x3d4c3807	0.04985812
185	0x3ad1c520	0.0016004182
186	0xbd930f17	-0.071806125
187	0x3d37c676	0.044867
188	0x3d8a6eb8	0.06759399
189	0x3d7d0040	0.061767817
190	0x3d805bcd	0.062675096
191	0xbc59bb8d	-0.0132893445
192	0xbdabb43d	-0.08383987
193	0x3d36940d	0.044574786
194	0x3d835ff0	0.06414783
195	0x3ccf05b3	0.025271272
196	0xbd9f0b6b	-0.0776585
197	0x3c55bbc7	0.013045258
198	0x3dd363f1	0.10321797
199	0x3d356d30	0.044293582
200	0x3c3094fe	0.01077771
201	0xbccfcf61	-0.02536744
202	0xbd5b511a	-0.05354414
203	0xbd1fae58	-0.038984627
204	0x3d52f0a2	0.051499017
205	0x3c40b4c0	0.011761844
206	0xbc4a159b	-0.012334253
207	0xbd040faf	-0.03224152
208	0x3d7df0f0	0.061997354
209	0xbd3fb8e3	-0.04680718
210	0xbd80fcb8	-0.06298202
211	0xbca6d440	-0.02036488
212	0xbd16e836	-0.036842547
213	0xbd4b6abe	-0.049662344
214	0x3c33277f	0.01093471
215	0x3d862123	0.06549289
216	0x3cc7c589	0.024386184
217	0xbab80759	-0.0014040276
218	0x3d4c3d2c	0.049863026
219	0x3da7d1ee	0.08194338
220	0x3d917395	0.07102124
221	0xbd2c9d3f	-0.04214215
222	0x3a702280	0.00091604143
223	0xbd9dfd9a	-0.07714386
224	0x3d8e2162	0.06939961
225	0xbd8b448f	-0.06800186
226	0x3ceabe1a	0.0286551
227	0xbd54795a	-0.051873542
228	0xbc867749	-0.016414301
229	0x3ca84ddc	0.020544939
230	0xbc076fbd	-0.008266387
231	0xbc994a18	-0.018712088
232	0xbbcf7f0a	-0.006332283
233	0x3dab35f2	0.083598986
234	0xbdd034df	-0.10166334
235	0xbca1e583	-0.01976276
236	0x3d445288	0.04793027
237	0xbdbab72b	-0.09116968
238	0x3c37fd16	0.011229774
239	0xbd287fe4	-0.04113759
240	0xbd5da92a	-0.054116406
241	0xbc647f55	-0.013946374
242	0x3d67606f	0.05648845
243	0x3d90b705	0.07066158
244	0xbd6afc6f	-0.057369646
245	0x3d890f19	0.06692333
246	0xbd88da1c	-0.06682226
247	0xbd92bf13	-0.07165351
248	0xbc0cd252	-0.008595066
249	0xbcb6d48a	-0.022318143
250	0xbc7bade9	-0.015361288
251	0xbd97d0f6	-0.07412903
252	0xbd97ca46	-0.074116275
253	0x3d9acb59	0.07558317
254	0xbd98cf53	-0.07461419
255	0xbd4d1fc1	-0.05007911

conv.2.bias f4 [32]
0	0x3d86f9dd	0.065906264
1	0x3da3a122	0.07989718
2	0x3dd59e02	0.10430528
3	0xbcc8656a	-0.02446242
4	0xbb89d3af	-0.004206143
5	0xbcaf84b2	-0.021425579
6	0xbd237335	-0.03990479
7	0x3d2089b6	0.03919383
8	0x3c67da15	0.014151116
9	0x3d043e0a	0.032285728
10	0x3c4653cb	0.012104939
11	0x3e24be11	0.1608813
12	0xbc5c7fae	-0.013458176
13	0x3d0fee37	0.03513929
14	0x3cacc9bf	0.021092294
15	0x3c6fce21	0.014636547
16	0xbc4eefc2	-0.012630405
17	0xbd8ddee8	-0.069272816
18	0xbcad0cc4	-0.021124251
19	0xba80dd2b	-0.0009831538
20	0x3bb666bf	0.0055664475
21	0xbd136c66	-0.03599205
22	0xbdc8f14b	-0.09811648
23	0x3c1b6c30	0.009486243
24	0xbcefc678	-0.029269442
25	0xbb72c31b	-0.0037042561
26	0x3d6fa82a	0.058509983
27	0xbd3129c8	-0.043252736
28	0x3d70a583	0.058751594
29	0xbdaf7ac1	-0.08568335
30	0xbc8ad09d	-0.016945178
31	0x3cc42151	0.023941668

conv.3.weight f4 [32]
0	0x3f77fba3	0.9686834
1	0x3f71deba	0.9448048
2	0x3f807cde	1.0038106
3	0x3f8a131f	1.0787085
4	0x3f80fd85	1.0077368
5	0x3f616c95	0.8805631
6	0x3f8cc1c2	1.099663
7	0x3f792ace	0.9733094
8	0x3f8802fa	1.0625908
9	0x3f97f9de	1.1873128
10	0x3f83920c	1.0278945
11	0x3f6b4f3f	0.91917795
12	0x3f744a24	0.9542563
13	0x3f813804	1.009522
14	0x3f6b904e	0.92017066
15	0x3f6a82c6	0.91605794
16	0x3f8e7785	1.1130224
17	0x3f900159	1.1250411
18	0x3f88696a	1.065717
19	0x3f6a8a62	0.91617405
20	0x3f5e9670	0.869483
21	0x3f8e72ea	1.1128819
22	0x3f64f1ed	0.8943165
23	0x3f804f58	1.0024214
24	0x3f69f44e	0.91388404
25	0x3f56d0b2	0.83912194
26	0x3f71d0d2	0.9445926
27	0x3f6c6284	0.9233782
28	0x3f6ede6f	0.93308157
29	0x3f74ed1e	0.9567431
30	0x3f41a89d	0.7564791
31	0x3f80d454	1.0064797

conv.3.bias f4 [32]
0	0xbdfde54c	-0.123972505
1	0xbea66c6b	-0.3250459
2	0xbe518215	-0.20459779
3	0xbe9648d9	-0.29352453
4	0xbe891094	-0.2677046
5	0xbe29f0ac	-0.16595715
6	0xbe23c6ad	-0.15993758
7	0xbe9d2dba	-0.3069895
8	0xbdf43093	-0.11923327
9	0xbe8a9057	-0.27063248
10	0xbe8963c5	-0.2683393
11	0xbe12a789	-0.14321722
12	0xbe834f31	-0.25646356
13	0xbe2b289f	-0.16714714
14	0xbe8054ac	-0.250646
15	0xbe522f3a	-0.20525828
16	0xbe82fbe8	-0.25582814
17	0xbe3d85ee	-0.18508121
18	0xbe03919b	-0.12848513
19	0xbe29f995	-0.16599114
20	0xbe3f7654	-0.18697482
21	0xbe3fa597	-0.18715511
22	0xbe51d042	-0.204896
23	0xbe088a89	-0.13334097
24	0xbddfd390	-0.10929024
25	0xbd54602d	-0.051849533
26	0xbe569444	-0.20954996
27	0xbe85a305	-0.26100937
28	0xbea3a9bc	-0.31965435
29	0xbe32a56c	-0.17445916
30	0x3c1bae7e	0.009502051
31	0xbd90d88c	-0.07072553

conv.3.running_mean f4 [32]
0	0x3d6b9cf7	0.05752274
1	0x3e0d0086	0.13769731
2	0x3df88d98	0.12136382
3	0xbe026ffb	-0.1273803
4	0xbd877a7f	-0.06615161
5	0x3b1af32b	0.0023643475
6	0xbe6398c2	-0.22226241
7	0x3d3bc1ba	0.04583905
8	0xbdaaf48c	-0.08347425
9	0xbde16041	-0.11004687
10	0xbd266839	-0.04062674
11	0x3e5df761	0.21676399
12	0x3dc6e5b9	0.09711785
13	0x3d90d298	0.070714176
14	0x3cfd6f96	0.030936997
15	0xbbba4659	-0.0056846556
16	0xbd052ea3	-0.03251518
17	0xbe633025	-0.22186334
18	0xbe330496	-0.17482218
19	0x3d17be59	0.037046764
20	0xbd99945f	-0.07499003
21	0xbd1f1fcf	-0.038848694
22	0xbd60c5fd	-0.054876316
23	0x3b4b6e93	0.003104125
24	0xbd9c783c	-0.076401204
25	0xbe48cbb1	-0.19608952
26	0xbd26e964	-0.040749922
27	0xbd890cea	-0.06691916
28	0x3d09dc04	0.03365709
29	0xbddb9a7b	-0.10722824
30	0xbc931f92	-0.01795939
31	0xbd802c5a	-0.062584594

conv.3.running_var f4 [32]
0	0x3ba62a09	0.005070929
1	0x3c15bfbc	0.009139951
2	0x3c0c0566	0.008546209
3	0x3c2f386c	0.010694604
4	0x3bc267aa	0.005932768
5	0x3c101a05	0.008795266
6	0x3c129088	0.008945592
7	0x3c11125a	0.008854473
8	0x3c213612	0.0098395515
9	0x3c2d6bde	0.0105848
10	0x3c141c84	0.009040002
11	0x3c0707a3	0.008241567
12	0x3c4bedea	0.01244686
13	0x3c194014	0.009353656
14	0x3c1cc9f6	0.009569636
15	0x3b9a9854	0.004717866
16	0x3bcf4312	0.006325134
17	0x3c27fc6b	0.010253052
18	0x3c435bcf	0.011923744
19	0x3bf11048	0.007356677
20	0x3b4815f3	0.003053066
21	0x3bd36345	0.006451043
22	0x3c081832	0.00830655
23	0x3c21d4ed	0.009877426
24	0x3bd22cba	0.006414023
25	0x3b3a55fc	0.0028432598
26	0x3be3f2cf	0.0069564353
27	0x3baafb82	0.0052179703
28	0x3bdb8f89	0.0067004603
29	0x3bd97062	0.0066357115
30	0x3aef596e	0.0018260905
31	0x3bf99599	0.0076167104

conv.5.weight f4 [64, 32, 4, 4]
0	0x3ad260c4	0.0016050567
1	0xbd82f3f9	-0.0639419
2	0x3c2d3313	0.010571259
3	0xbcfe9c24	-0.031080313
4	0xbd5602d6	-0.0522488
5	0xbdeaf30b	-0.11472138
6	0xbc8d00df	-0.01721233
7	0x3d16d605	0.0368252
8	0x3dba22be	0.09088658
9	0x3b06f814	0.0020594643
10	0xbd5f4cb2	-0.0545165
11	0x3c3f3424	0.011670146
12	0x3d0bfb9f	0.03417551
13	0x39d14917	0.00039918043
14	0x3d413286	0.047167324
15	0x3c42db9f	0.011893182
16	0xbcd39cb2	-0.025831554
17	0x3ccd79bf	0.025082467
18	0x3c8d2b55	0.017232576
19	0x3bbb58c8	0.0057173707
20	0xbbda691b	-0.0066653616
21	0xbd6deae4	-0.058085337
22	0xbcf0ff88	-0.029418722
23	0xbcd97427	-0.026544644
24	0xbd0d54dc	-0.034504756
25	0x3d1a093a	0.037606455
26	0x3cf7140c	0.030160926
27	0xbd9e8001	-0.077392586
28	0xbcfe0072	-0.031006072
29	0x3cd01adc	0.025403433
30	0x39bfeda8	0.00036607427
31	0x3d897465	0.067116536
32	0xbd15c3c5	-0.036563653
33	0x3d140c0f	0.036144312
34	0xbd2b46d6	-0.0418156
35	0x3dc2acb4	0.09505597
36	0xbcc94ca1	-0.024572672
37	0xbd9b48ef	-0.0758227
38	0x3b04cfaf	0.002026539
39	0xbca23546	-0.019800793
40	0xbd7cec0c	-0.06174855
41	0xbc662e79	-0.014049166
42	0xbca54e88	-0.020179048
43	0x3d30d663	0.043173205
44	0xbd6f69f4	-0.058450654
45	0xbdacb330	-0.08432615
46	0x3ce35023	0.027748173
47	0x3a551ff4	0.00081300666
48	0x3d63b6fd	0.055594433
49	0x3c550f60	0.013004154
50	0x3d121d1e	0.0356723
51	0xbe032b03	-0.12809376
52	0x3d7f0b32	0.062266536
53	0x3d4beea8	0.049788147
54	0xbcfe180f	-0.031017331
55	0xbba32d8a	-0.004979794
56	0x3d47d5ea	0.04878799
57	0x3c8476f7	0.016170008
58	0x3d2f6b07	0.04282668
59	0xbde38651	-0.11109603
60	0x3d5ed912	0.054406233
61	0x3d2519a9	0.040307675
62	0xbc7e9e20	-0.01554063
63	0x3cc46a8a	0.023976583
64	0xbd8ae301	-0.06781579
65	0x3db76db8	0.08956474
66	0xba62a1f4	-0.0008645349
67	0x3d427c7b	0.047481995
68	0xbd6c858f	-0.05774456
69	0xbb95a55d	-0.004566832
70	0x3c1496e3	0.009069177
71	0x3dce57a0	0.10075307
72	0x3d53c213	0.051698755
73	0xbd5ddae6	-0.054163836
74	0xbc801eb4	-0.01563964
75	0x3c8d6ff7	0.017265303
76	0xbc1dfea6	-0.009643232
77	0xbd205ee4	-0.039152995
78	0x3d1037e5	0.035209555
79	0x3c879280	0.016549349
80	0x3b7a9198	0.0038233753
81	0xbadac446	-0.0016690574
82	0xbd44c266	-0.048036955
83	0xbce2a185	-0.02766491
84	0x3cc6e342	0.024278287
85	0xbd1b624b	-0.037935536
86	0xb95d06e0	-0.00021078764
87	0xbd0e0c4e	-0.034679703
88	0xbcec147c	-0.028818361
89	0xbb9db699	-0.004813027
90	0xbd2db8d0	-0.04241258
91	0x3c0b9d20	0.008521348
92	0xbd202f5b	-0.03910766
93	0xbcd473e8	-0.025934175
94	0x3d6f72f4	0.058459237
95	0x3d41b183	0.04728843
96	0xbc2d773b	-0.010587509
97	0xbd09f8d8	-0.03368458
98	0x3dd97842	0.106186405
99	0x3d9318b3	0.071824454
100	0xbda05828	-0.078293145
101	0x3d370cd4	0.04468997
102	0x3cb3ef1c	0.021964602
103	0xbc22e072	-0.009941207
104	0xbd48db31	-0.049037162
105	0xbccd1aa4	-0.025037117
106	0x3d96b9e1	0.07359672
107	0x3c2aa500	0.010415316
108	0xbdbbffe2	-0.09179665
109	0x3d306a12	0.043069907
110	0x3bf3d9d1	0.007441737
111	0xbdc8eae2	-0.09810425
112	0x3cd64c26	0.026159357
113	0xbd8694aa	-0.06571324
114	0x3c86a5b2	0.016436432
115	0x3c7ba766	0.015359735
116	0x3d9fc751	0.078016885
117	0x3caaba10	0.020840675
118	0xbd96f1e7	-0.07370358
119	0xbda62121	-0.081117876
120	0x3d5700c2	0.052490957
121	0x3d3324f5	0.043736417
122	0x3d6f3a52	0.058405228
123	0x3db8b881	0.09019566
124	0x3dc6cf2f	0.09707486
125	0x3ddf9d85	0.10918716
126	0x3d41bb64	0.04729785
127	0xbcc03092	-0.02346066
128	0xbc8efa73	-0.017453408
129	0xbcb0fa4c	-0.021603726
130	0xbcc4bc03	-0.024015432
131	0x3d352d70	0.044232786
132	0xb9ed0e6c	-0.00045214908
133	0xbbdf5da1	-0.0068165814
134	0x3d81c2ea	0.06336005
135	0x3d4bf0ab	0.049790066
136	0xbdcb335f	-0.09921908
137	0xbd02759d	-0.031850446
138	0x3df5c602	0.120006576
139	0x3babc81d	0.005242361
140	0x3bbc27b5	0.005742038
141	0x3c5e7472	0.013577567
142	0xbd729ec3	-0.05923344
143	0xbd9bc018	-0.07604998
144	0x3ceb61a9	0.028733091
145	0x3d360d1c	0.044446096
146	0xbbe58258	-0.0070040636
147	0xbc00e7e4	-0.007867787
148	0xbd4ced56	-0.05003103
149	0x3cd1ab9a	0.025594521
150	0x3d293a2c	0.041315243
151	0xbc9a771d	-0.018855626
152	0xbd7b72c0	-0.06138873
153	0xbd9cec90	-0.07662308
154	0x3d86bcfc	0.06579015
155	0xbd3cbece	-0.046080403
156	0xbc8d6c2a	-0.01726349
157	0x3d88a50b	0.066721044
158	0x3db56ba4	0.088584214
159	0x3bbc99e9	0.005755652
160	0x3dfadb6c	0.12248883
161	0xbc9d5547	-0.019205702
162	0x3bcdd6d5	0.0062817135
163	0x3db120d4	0.086488396
164	0x3d588973	0.052865457
165	0xbd762671	-0.060095254
166	0x3abb8821	0.0014307537
167	0xbd375a96	-0.044764124
168	0xbc57adce	-0.013163997
169	0xbd9f495b	-0.07777663
170	0xbd99cd6d	-0.07509885
171	0xbc2d6092	-0.010582106
172	0x3ba02fc4	0.0048885066
173	0xbd4d2d27	-0.05009189
174	0xbb062db1	-0.0020474012
175	0x3d6119ad	0.054956127
176	0x3ae3111c	0.0017323825
177	0xbc174e10	-0.00923492
178	0x3c0e8459	0.008698546
179	0xbd291990	-0.041284144
180	0x3d487e8e	0.048948817
181	0x3e001a7f	0.12510107
182	0xbddc7eb4	-0.10766354
183	0xbcad1b4b	-0.021131178
184	0x3caa7b46	0.020810734
185	0xbca4dc6e	-0.02012464
186	0xbcd1bbbb	-0.025602212
187	0x3c6e6bdd	0.014552084
188	0x3d02fcb6	0.031979285
189	0x3d8cbd60	0.06872058
190	0x3c07f6a8	0.0082985535
191	0xbd4080d9	-0.04699788
192	0xbceb47e1	-0.028720798
193	0x3cc1df18	0.02366595
194	0x3d462a04	0.048379913
195	0x3d84563b	0.0646176
196	0xbdae618d	-0.085147
197	0x3c3969ab	0.011316697
198	0x3c349462	0.011021705
199	0x3d2e3ecf	0.042540368
200	0xbd1d6a7c	-0.03843163
201	0xbd21ae38	-0.03947279
202	0x3d8ba015	0.068176426
203	0xbae07f29	-0.001712774
204	0x3cad64eb	0.021166285
205	0xbd49932a	-0.049212612
206	0xbc7e42c7	-0.015518851
207	0x3d7c6ca2	0.061627038
208	0x3d5d5e23	0.054044854
209	0xbd53f733	-0.05174942
210	0x3cd6b409	0.026208894
211	0x3dd79143	0.10525753
212	0x3c9ffebc	0.019530647
213	0x3dacc6b3	0.08436336
214	0x3db76b1c	0.08955976
215	0x3d0cb36c	0.034350798
216	0x3c85ca69	0.016331868
217	0xbd3acf51	-0.04560787
218	0xbae88ae5	-0.0017741589
219	0x3d3cda10	0.046106398
220	0xbd1d1619	-0.038351152
221	0x3ad3c25a	0.0016155944
222	0x3bef3c27	0.007300872
223	0x3c47f4c2	0.012204351
224	0x3d2f8bc4	0.0428579
225	0xbd0223b8	-0.031772345
226	0xbb88a9c8	-0.00417063
227	0x3da43a6b	0.08018955
228	0xbdc87b20	-0.09789109
229	0x3d907bae	0.0705484
230	0xbc937306	-0.017999183
231	0x3c0a84b4	0.00845449
232	0xbb631224	-0.0034648264
233	0x3c7a17ae	0.015264435
234	0xbd79f9a6	-0.0610291
235	0xbdb30028	-0.08740264
236	0x3b5c2437	0.0033590922
237	0x3cb1f98c	0.021725439
238	0xbdcb9a8c	-0.09941587
239	0x3c5dc873	0.01353656
240	0x3bea3795	0.007147739
241	0x3ce72bc4	0.028219111
242	0xbd9f13c1	-0.0776744
243	0xbdb17e0c	-0.0866662
244	0x3d644612	0.055730887
245	0xbc337121	-0.010952265
246	0x3d759cee	0.059964113
247	0x3d28adb1	0.04118127
248	0x3abaa513	0.001423987
249	0xbd03d90e	-0.03218942
250	0x3d5e77c6	0.054313444
251	0xbd8ab7d6	-0.06773345
252	0xbc91af0f	-0.01778367
253	0xbc8399db	-0.016064575
254	0x3c9fc833	0.019504642
255	0x3d278c62	0.040905364

conv.5.bias f4 [64]
0	0x3da5eb99	0.08101577
1	0x3c8afffe	0.01696777
2	0xbda06113	-0.078310154
3	0xbd594c8e	-0.053051524
4	0x3d8f7dbc	0.07006404
5	0xbbade676	-0.005307014
6	0xbde0b2fc	-0.109716386
7	0xbaf01287	-0.0018316068
8	0x3db7eb3e	0.08980416
9	0x3cc8cb83	0.024511104
10	0xbc9337f3	-0.017971015
11	0x3bb89ef4	0.005634183
12	0x3d89c41e	0.067268595
13	0xbc6f649b	-0.014611389
14	0xbd99757d	-0.07493112
15	0x3c9c7cca	0.019102473
16	0x3c5a51f1	0.0133252
17	0xbbb3c311	-0.0054859
18	0x3b91f839	0.0044546393
19	0xbcaf303d	-0.021385306
20	0x3d96197f	0.07329082
21	0x3c0db021	0.008647949
22	0x3d3fa37d	0.046786774
23	0xbd1bc550	-0.03802997
24	0x3d7abe1e	0.061216466
25	0x3d568327	0.05237117
26	0xbc02ea75	-0.007990469
27	0xbd5017a6	-0.050803803
28	0x3d3903d2	0.04516966
29	0x3d0136ef	0.03154653
30	0x3d7fac50	0.06242019
31	0x3ccc8e93	0.024970328
32	0xbdcf1a57	-0.10112446
33	0x3cb9c5fc	0.022677414
34	0x3cfa9242	0.03058732
35	0xbd175e05	-0.0369549
36	0x3c78dee0	0.015189856
37	0x3b0c6aad	0.0021425888
38	0xbd2d1b1e	-0.04226219
39	0x3bae60ce	0.0053215986
40	0x3cce1653	0.02515713
41	0x3d4af734	0.049552158
42	0xbc06a731	-0.0082185725
43	0x3d1e0ea1	0.03858817
44	0xbdaaf19d	-0.08346865
45	0xbd879fef	-0.06622302
46	0xbd415b72	-0.04720635
47	0x3d93cd2c	0.07216868
48	0xbc887b09	-0.01666023
49	0x3d52a11f	0.05142319
50	0x3cc3856e	0.023867335
51	0x3ca9b4a2	0.020716015
52	0xbcd8e86e	-0.026478019
53	0xbd135044	-0.03596522
54	0xbd394979	-0.045236085
55	0xbc512841	-0.012765945
56	0xbd68b4df	-0.056813117
57	0xbd0545fb	-0.03253744
58	0xbdad9999	-0.08476562
59	0x3d5fa7c4	0.054603353
60	0x3cbe78bd	0.023250932
61	0xbd780d1e	-0.060559385
62	0xbd87aa7d	-0.06624315
63	0x3d44a66b	0.04801027

conv.6.weight f4 [64]
0	0x4006cd17	2.1062677
1	0x3fed861b	1.8556551
2	0x3ff85a86	1.9402626
3	0x3fd888b5	1.691672
4	0x3fd85ee0	1.6903954
5	0x4000a6f2	2.0101895
6	0x40052299	2.0802367
7	0x3fef9a93	1.8719047
8	0x3ff4bbf2	1.9119856
9	0x3ffc820d	1.9727188
10	0x3ff907fa	1.9455559
11	0x3fe655ca	1.7994931
12	0x3ff52774	1.9152665
13	0x3fe27d57	1.7694501
14	0x3ff0e681	1.8820344
15	0x3fede6b0	1.8586025
16	0x3ff1b95f	1.8884696
17	0x3fd8433d	1.689552
18	0x3fe90fb0	1.8207912
19	0x3ffc951d	1.9733006
20	0x3ff1d570	1.8893261
21	0x3ff8712c	1.9409537
22	0x3fe8443c	1.8145823
23	0x40031d70	2.0486717
24	0x3fe18fdd	1.7622029
25	0x3fef0ba2	1.8675425
26	0x4006484c	2.0981627
27	0x40002a5c	2.0025854
28	0x3fe0f069	1.7573367
29	0x40011178	2.0166912
30	0x3fe4a76d	1.7863594
31	0x3fdf3b08	1.743989
32	0x3ffc429a	1.9707825
33	0x3ff99b65	1.9500548
34	0x3ff58651	1.9181615
35	0x3ffcab23	1.9739727
36	0x3fed3f8f	1.8535022
37	0x3fd2e9d1	1.6477605
38	0x3fe46143	1.7842182
39	0x3ff6b9f0	1.9275494
40	0x3ffcb26d	1.9741951
41	0x3fe98282	1.8242953
42	0x3fe5f46b	1.7965215
43	0x3ff15ab1	1.8855802
44	0x3ffd1480	1.9771881
45	0x3ffc2d31	1.9701291
46	0x3fef6be7	1.8704804
47	0x3ff5c5e6	1.9201019
48	0x3ff98c72	1.9495986
49	0x40067760	2.101036
50	0x3ff240d6	1.8926036
51	0x40029aeb	2.0407054
52	0x3fdb5e73	1.7138199
53	0x3ff3d863	1.9050411
54	0x4001c926	2.0279021
55	0x3fe60a2f	1.7971858
56	0x3ff40246	1.9063194
57	0x3ff4d175	1.9126421
58	0x3ffe78e9	1.9880649
59	0x3ff2b60b	1.8961805
60	0x3ffbb950	1.9665928
61	0x40054c43	2.0827796
62	0x3ff03b3e	1.8768079
63	0x4000f2bd	2.0148156

conv.6.bias f4 [64]
0	0xbe588d3d	-0.21147628
1	0xbd882e9b	-0.06649514
2	0xbdd4a949	-0.10383851
3	0xbb39914c	-0.0028315363
4	0x3e1f6945	0.15567501
5	0xbdc09b1a	-0.09404583
6	0xbdc600fb	-0.09668156
7	0xbe3c6b31	-0.18400265
8	0xbe436f2d	-0.19085379
9	0xbdd7b94f	-0.10533392
10	0xbd8e04d7	-0.06934517
11	0xbdd2c220	-0.10290933
12	0xbdfd915a	-0.12381239
13	0xbe051b70	-0.12998748
14	0xbe69c3de	-0.22828624
15	0xbe035e43	-0.12828927
16	0xbddbb7d1	-0.107284196
17	0xbd907a79	-0.0705461
18	0xbe599a39	-0.21250238
19	0xbe4f00f3	-0.20215206
20	0xbda2a8c3	-0.07942345
21	0xbded3b2b	-0.11583551
22	0xbe8a2d5e	-0.26987737
23	0xbdbabd46	-0.09118132
24	0xbd4d7c49	-0.050167356
25	0xbe283dbe	-0.16429803
26	0xbe080cfc	-0.13286203
27	0xbe026256	-0.12732825
28	0xbd8098fe	-0.06279181
29	0xbd4578c3	-0.04821087
30	0xbd20e107	-0.039277103
31	0xbe7a08b6	-0.24417385
32	0x3dbe3429	0.092872925
33	0xbe166f8b	-0.14690988
34	0xbe1bf6eb	-0.1523091
35	0xbda64959	-0.08119459
36	0xbe4ccfe1	-0.20001175
37	0xbddf7250	-0.10910475
38	0xbddaea23	-0.10689189
39	0xbde90156	-0.11377208
40	0xbd9917cd	-0.07475243
41	0x3d1963f1	0.037448827
42	0xbd9078c7	-0.070542865
43	0xbddb6587	-0.10712724
44	0xbe4ce6b5	-0.20009883
45	0xbe2cbb4b	-0.16868322
46	0xbd3da184	-0.04629661
47	0xbd449c08	-0.048000365
48	0xbe52e1fa	-0.20594016
49	0xbe018460	-0.12648153
50	0x3b5a9589	0.003335329
51	0xbd5741d1	-0.052553
52	0xbee3f3fb	-0.4452208
53	0x3cec68fb	0.028858652
54	0xbe029488	-0.12751973
55	0xbe453cb4	-0.19261438
56	0xbdb52451	-0.088448174
57	0xbcc825d4	-0.0244321
58	0xbe098751	-0.13430525
59	0xbe0d1a26	-0.13779506
60	0xbe12f3f7	-0.14350878
61	0xbe06b429	-0.13154663
62	0xbe0fa6de	-0.14028499
63	0xbd972896	-0.07380788

conv.6.running_mean f4 [64]
0	0x3e8a6d68	0.27036595
1	0xbe087a46	-0.13327894
2	0xbe1da5c1	-0.15395261
3	0x3dc08259	0.09399862
4	0x3e326b1c	0.17423671
5	0xbdde9e4c	-0.108700365
6	0xbd308488	-0.04309514
7	0xbde4f6d0	-0.11179888
8	0x3e003a19	0.12522162
9	0x3d9b2f13	0.07577338
10	0xbe3f5ec3	-0.18688492
11	0x3efae115	0.4899985
12	0xbe380da8	-0.1797396
13	0x3efae6af	0.49004123
14	0xbdec7bb2	-0.115470305
15	0xbf40cbd9	-0.75311047
16	0x3d4c66b5	0.049902637
17	0xbe3ea7ff	-0.18618773
18	0xbe9efa89	-0.31050518
19	0x3d4a6792	0.04941518
20	0xbd941497	-0.0723049
21	0xbe0b93ae	-0.13630554
22	0x3cf973ca	0.03045072
23	0xbf1e045d	-0.6172541
24	0x3d60e2fb	0.054903965
25	0x3dcfae6d	0.10140691
26	0xbd565214	-0.05232437
27	0x3ea3a71b	0.3196343
28	0x3e1098f0	0.14120841
29	0x3e00559c	0.12532657
30	0x3e227435	0.15864642
31	0x3f41f4a3	0.7576391
32	0xbe8560a8	-0.26050305
33	0x3d1dbe9c	0.038511857
34	0x3e8e291e	0.27765745
35	0xbee9fa67	-0.45698854
36	0xbd42cfc1	-0.04756141
37	0x3f53a3bd	0.8267172
38	0x3e7715b6	0.24129376
39	0xbdc27605	-0.09495167
40	0x3e3cb952	0.18430069
41	0x3c018cc7	0.007907099
42	0xbdd6436f	-0.10462081
43	0x3e2784ad	0.16359206
44	0xbf08d34b	-0.5344741
45	0xbebaea83	-0.36507043
46	0x3e13bc2a	0.14427248
47	0xbcb4e38c	-0.022081159
48	0x3e6b57ef	0.22982763
49	0x3d236729	0.039893303
50	0xbdf85007	-0.12124639
51	0xbe0dfdf0	-0.138664
52	0x3ea9b446	0.3314535
53	0xbe3164df	-0.17323636
54	0x3cb8fd44	0.022581704
55	0x3e8ed91f	0.27900025
56	0x3df7954d	0.12089024
57	0x3c3742e4	0.011185382
58	0xbf1544a0	-0.5830784
59	0xbd0bcc36	-0.034130298
60	0x3e3efd72	0.18651369
61	0x3d8ac375	0.06775562
62	0xbd0b71f5	-0.034044225
63	0xbefe9364	-0.49721825

conv.6.running_var f4 [64]
0	0x3e47a72b	0.19497363
1	0x3e2e9500	0.17049026
2	0x3e577603	0.21041112
3	0x3eb93000	0.36169434
4	0x3e534586	0.2063199
5	0x3e57a45e	0.21058795
6	0x3e448954	0.19193012
7	0x3e32fec2	0.17479995
8	0x3e4ad9cb	0.19809644
9	0x3e4d1f58	0.20031488
10	0x3e2d94ad	0.16951247
11	0x3e24ec30	0.16105723
12	0x3e567232	0.20942
13	0x3e7a050f	0.24415992
14	0x3e87c995	0.26520982
15	0x3e333a51	0.17502715
16	0x3e4b50a3	0.19854979
17	0x3e6c2d08	0.23064053
18	0x3e22c245	0.1589442
19	0x3e3a5b28	0.18198836
20	0x3e62b342	0.22138694
21	0x3e518d65	0.20464094
22	0x3e3f5b7b	0.18687241
23	0x3e611f2d	0.21984549
24	0x3e6d6463	0.23182826
25	0x3e2b0cde	0.16704127
26	0x3e39b54b	0.18135564
27	0x3e2136f3	0.15743618
28	0x3e61e201	0.2205887
29	0x3e37ca4b	0.17948262
30	0x3e0f56ba	0.13997927
31	0x3e86bd0e	0.26316112
32	0x3e48b0c6	0.19598684
33	0x3e526b4a	0.2054874
34	0x3e7e3e81	0.24828531
35	0x3e542106	0.20715722
36	0x3e464893	0.19363622
37	0x3e80212d	0.2502531
38	0x3e3f018f	0.18652938
39	0x3e223e77	0.15844141
40	0x3e4c1292	0.19928959
41	0x3e2aa8ec	0.16666001
42	0x3e6cd2fe	0.23127362
43	0x3e2b078c	0.16702098
44	0x3e310adc	0.17289299
45	0x3e31ac08	0.17350781
46	0x3e8ade27	0.27122614
47	0x3e2e3efc	0.17016214
48	0x3e1fce47	0.15606032
49	0x3e4ec9ca	0.20194164
50	0x3e39e3c4	0.18153292
51	0x3e57d5ee	0.21077701
52	0x3eaf20ef	0.34204814
53	0x3e50098d	0.20316143
54	0x3e486238	0.19568717
55	0x3e31dd92	0.17369679
56	0x3e17d673	0.148279
57	0x3e3dc68e	0.18532774
58	0x3e305d06	0.17222986
59	0x3e30ca05	0.17264564
60	0x3e21d681	0.15804483
61	0x3e438547	0.1909381
62	0x3e2a550a	0.16634002
63	0x3e304f0a	0.17217651

adv_head.weight f4 [1, 2304]
0	0x3ba09932	0.004901075
1	0x3bf43952	0.007453122
2	0xbb24de46	-0.00251569
3	0xbb8121da	-0.003940803
4	0xbbbba90d	-0.0057269395
5	0xbba1e4ee	-0.0049406206
6	0xbb99ade6	-0.0046899198
7	0x3b67b90f	0.0035358106
8	0xbb746ac3	-0.003729508
9	0xbb7e0669	-0.0038761145
10	0xba5199af	-0.0007995618
11	0xbbd295ae	-0.0064265346
12	0x3c08c344	0.008347336
13	0x3adc3c0e	0.0016802566
14	0xbb521b07	-0.0032059567
15	0xba0c9223	-0.0005362352
16	0x3b806db3	0.003919327
17	0x39432801	0.00018611552
18	0x3bb84147	0.005623016
19	0xbc02ad5b	-0.0079759015
20	0x398c7391	0.00026788985
21	0xbbba8275	-0.005691821
22	0xb9f39de2	-0.00046466204
23	0xbbd0c3c5	-0.006370994
24	0xbbaccf1b	-0.0052737123
25	0x3a057938	0.00050916104
26	0x3a80649a	0.0009795607
27	0xbb841a14	-0.004031429
28	0x3bbdde91	0.0057943542
29	0xba59d6ce	-0.00083099015
30	0x3b8f8a4e	0.004380501
31	0xbaf04642	-0.0018331485
32	0x3a318846	0.00067723205
33	0xbb116fc6	-0.0022191866
34	0xbb92a4b6	-0.0044752015
35	0xbaed1525	-0.0018087967
36	0x39f844ab	0.00047353408
37	0xb9eacdd8	-0.00044785324
38	0xbb825d6d	-0.0039784224
39	0xbacd02ec	-0.001564113
40	0xbc8a6f5f	-0.016898809
41	0xbc66d1c3	-0.014088097
42	0xbb2a62a8	-0.0025998745
43	0x3a2883c1	0.0006428324
44	0xba336ff2	-0.0006844989
45	0xbb4332ef	-0.0029784997
46	0x3b30f509	0.002700152
47	0xbb2084f3	-0.0024493306
48	0x3b810a67	0.0039380076
49	0x3c059c55	0.008154948
50	0xbb00621a	-0.0019589723
51	0xbbb4e550	-0.0055205002
52	0xbc649ab8	-0.013952903
53	0x3b96ce91	0.0046022614
54	0x3b8ef8d1	0.0043631573
55	0x3bb62050	0.005558051
56	0x3a24e75a	0.00062905776
57	0xbb4a7909	-0.0030894896
58	0xbaba2568	-0.0014201822
59	0xbaebb56b	-0.0017983144
60	0x3bac03dc	0.0052494835
61	0x3a9cd7f8	0.0011966219
62	0x39c43269	0.00037421592
63	0x3bc5ec02	0.006040097
64	0xbb085fea	-0.0020809122
65	0x3bfda63e	0.007740765
66	0x3b1a93c4	0.002358661
67	0xbb09bcde	-0.0021017115
68	0xbbb5e48e	-0.0055509275
69	0x3ba2cd2f	0.0049683074
70	0xba51dedf	-0.00080059277
71	0x3bc7c7f7	0.0060968357
72	0x399996b4	0.00029294717
73	0xbabf2873	-0.0014584198
74	0x3be25ba0	0.006907895
75	0xbc318491	-0.010834829
76	0x3c3efd6a	0.011657098
77	0xba309fa0	-0.0006737653
78	0xbb446488	-0.0029967148
79	0x3bc2113b	0.005922464
80	0xb8f17ffc	-0.000115156145
81	0x3a9553e1	0.0011392796
82	0x3a67ce44	0.00088426867
83	0x3ab4cfc5	0.001379483
84	0xbb0c2e39	-0.0021389856
85	0xba02b480	-0.0004986003
86	0x3bd7f152	0.006590047
87	0xbafb81fd	-0.001918852
88	0xbac54c33	-0.0015052616
89	0xbbb7301d	-0.0055904523
90	0x3ba6e93a	0.0050937207
91	0xbbaf7974	-0.0053550545
92	0x3a87ff1d	0.0010375712
93	0xb9dfe5bd	-0.00042705043
94	0x3bedd387	0.007257882
95	0x3b9fe0ae	0.004879079
96	0x3bed6902	0.007245184
97	0xbb67fc5b	-0.0035398218
98	0xbb9bf7a2	-0.0047597447
99	0x3a41b91e	0.00073899503
100	0x3bea1589	0.0071436805
101	0xbc09344a	-0.008374283
102	0x3c1a4ed8	0.009418212
103	0xba925a7c	-0.0011165882
104	0xba90ae7a	-0.0011038326
105	0x3b6fb7a4	0.0036577964
106	0xbafda9b7	-0.0019352947
107	0xbb9ca262	-0.0047800997
108	0x3aec5ab8	0.0018032407
109	0x3bb4499d	0.0055019394
110	0xbc115082	-0.008869292
111	0x3bf6070e	0.007508165
112	0x3c25c361	0.010117383
113	0x3b592dbc	0.0033138832
114	0x3b6a26c9	0.0035728684
115	0x3ba57295	0.0050490596
116	0x3b43717a	0.0029822276
117	0x3b575345	0.003285603
118	0xbb8f33ed	-0.0043702037
119	0x3c04bc7f	0.008101582
120	0xbc69a80a	-0.014261255
121	0x3b7eb154	0.003886302
122	0x39b39969	0.0003425584
123	0xbb443910	-0.0029941238
124	0xbc970d8c	-0.018439077
125	0xbae6c0a0	-0.0017605014
126	0xbb66261c	-0.003511793
127	0xbba9c048	-0.0051803924
128	0xbba38fdb	-0.004991514
129	0xbb3b37c3	-0.0028567172
130	0x3c4adcb8	0.012381725
131	0x3cc623ab	0.02418693
132	0xbc3cddab	-0.011527459
133	0x3bf2e009	0.007411961
134	0xbc2f9503	-0.0107166795
135	0xbc97185b	-0.01844423
136	0x3b2af183	0.0026083894
137	0x3c92a55e	0.017901119
138	0xbbade6ad	-0.0053070397
139	0x3b7f841e	0.003898866
140	0x3c8836de	0.016627725
141	0x3c043104	0.008068327
142	0xbc72c3ef	-0.014817222
143	0x3c998266	0.018738937
144	0xbb824e3d	-0.003976612
145	0x3be08ba0	0.006852582
146	0xbbb5c982	-0.0055477032
147	0xbb461f2d	-0.0030230985
148	0xbc0b4f93	-0.008502859
149	0xbbd0c89b	-0.0063715703
150	0x3c10592f	0.0088103255
151	0xbb6db7a0	-0.003627278
152	0x3c1c31f4	0.009533394
153	0x3afd475a	0.0019323633
154	0xbc143d85	-0.0090478705
155	0x3baafc66	0.0052180765
156	0x3bb5630d	0.0055354894
157	0xba190361	-0.00058369903
158	0x3a5a69bc	0.00083317957
159	0x3a99d43c	0.0011736224
160	0x3bfb53e2	0.0076699117
161	0xbc2941bf	-0.0103306165
162	0xbaedd2d5	-0.0018144498
163	0x3b0ab545	0.0021165174
164	0xbadbe55f	-0.0016776732
165	0xbb8eceac	-0.0043581333
166	0xba909192	-0.0011029711
167	0xbb27d70b	-0.0025610353
168	0x3bb8d4f5	0.005640621
169	0xba3c7252	-0.0007188666
170	0x3b02560d	0.0019887716
171	0xbc39aef1	-0.011333213
172	0xbc14d9b1	-0.009085105
173	0xb997eed1	-0.00028978896
174	0x3b895a8b	0.0041917018
175	0xbb561a70	-0.0032669567
176	0xbc07363b	-0.008252676
177	0x3bf35176	0.0074254824
178	0xbc146584	-0.009057406
179	0x3b7783fd	0.003776788
180	0x36a136c8	4.8045513e-06
181	0x3bb176ec	0.005415788
182	0xbc0c66b2	-0.008569406
183	0x3b93519e	0.0044958135
184	0x3b5e372a	0.0033907392
185	0xb9a08366	-0.00030615478
186	0xbbf797b0	-0.0075559244
187	0x3bf01e4a	0.0073278295
188	0x3b740db8	0.0037239622
189	0xbb99166a	-0.0046718614
190	0xbc37e3c4	-0.011223737
191	0xbc2577dc	-0.0100993775
192	0x394feea6	0.00019829962
193	0xbb619434	-0.0034420611
194	0xb9babe85	-0.00035618633
195	0xba7694ce	-0.0009406329
196	0xbb4b1530	-0.003098797
197	0x3c455eb9	0.012046509
198	0x3bb913c5	0.0056481087
199	0x3ba65ae5	0.0050767534
200	0xb9c382e8	-0.0003729083
201	0x3bbaed2f	0.005704544
202	0xbc176304	-0.009239916
203	0xb935759a	-0.00017305315
204	0x39dd58c2	0.00042218535
205	0x3aaeddea	0.0013341282
206	0xbc1296b6	-0.008947065
207	0xbbf9e020	-0.0076255947
208	0xb8bf8ff6	-9.1344045e-05
209	0x3abd609c	0.0014448348
210	0xbab70afd	-0.0013965067
211	0xbb61f6b0	-0.0034479313
212	0xbba31438	-0.0049767755
213	0xbb08f6e9	-0.0020899123
214	0x396f2c61	0.00022809349
215	0xbb82495c	-0.0039760303
216	0x3a9adcbd	0.0011815053
217	0xbbd4097b	-0.0064708567
218	0x3b2b0154	0.002609332
219	0x3bf9222c	0.0076029506
220	0xbb5952da	-0.0033160956
221	0xbc1bffb4	-0.009521414
222	0xbb7848e5	-0.0037885245
223	0x3b190cf3	0.0023353666
224	0x3a945773	0.0011317566
225	0xbbcb01b0	-0.0061952695
226	0x3b2d41d7	0.0026436949
227	0xba840857	-0.0010073286
228	0xbb1868e0	-0.002325587
229	0x39a525d0	0.00031499425
230	0xbbaf9d8d	-0.0053593577
231	0xbb3b233a	-0.0028554932
232	0x38abdddc	8.19524e-05
233	0x3a7aa432	0.000956121
234	0xbbac5dd5	-0.005260209
235	0xbb52d7e8	-0.0032172147
236	0x3b46ce80	0.0030335486
237	0xb827f4e0	-4.004396e-05
238	0x3a66cb53	0.00088041014
239	0x3c034917	0.008013031
240	0x3a558129	0.00081445515
241	0x3b0ddff3	0.0021648377
242	0xbb90d2a2	-0.0044196406
243	0xbb5c741c	-0.0033638543
244	0xbbd6f6e5	-0.006560194
245	0x3af910a8	0.0019002156
246	0x3b9281e2	0.0044710496
247	0xbb1e4409	-0.0024149439
248	0x3b1bc513	0.0023768588
249	0x3bcbfcfc	0.0062252264
250	0xbba60130	-0.0050660595
251	0x3b3f9f2e	0.0029239166
252	0xbc192a72	-0.009348499
253	0x3b6b764e	0.003592867
254	0x3abe73d9	0.0014530375
255	0x3c3e34f6	0.011609307

cls_head.weight f4 [7, 2304]
0	0x3d703d78	0.05865237
1	0xbe487433	-0.19575576
2	0xbe4f8843	-0.20266823
3	0x3d04562c	0.032308742
4	0xba27a11a	-0.00063945504
5	0x3c0f7431	0.0087557295
6	0x3c3489e8	0.011019208
7	0x3e4c3cce	0.1994507
8	0x3a47afe5	0.0007617458
9	0x3d143c01	0.036190037
10	0xbcec7bb9	-0.02886759
11	0xbd455ff2	-0.048187204
12	0xbdbb3e0c	-0.09142694
13	0xbdd7d511	-0.10538686
14	0x3da21f14	0.07916084
15	0xbd6cd34f	-0.057818707
16	0xbcf31661	-0.029673757
17	0x3ddf9b57	0.109183006
18	0x3e807f22	0.25096995
19	0xbd0ee9f5	-0.034891088
20	0x3df65534	0.1202797
21	0x3dd7e6ec	0.10542092
22	0x3dec9c52	0.11553253
23	0x3c2701c4	0.010193292
24	0xbe8ea99e	-0.27863783
25	0xbc78891b	-0.015169407
26	0x3e74aba2	0.23893598
27	0x3de1e5b8	0.110301435
28	0x3e098c21	0.13432361
29	0xbd91adb0	-0.071132064
30	0xbe25df57	-0.16198479
31	0x3c66dcda	0.014090741
32	0xbda665c4	-0.08124879
33	0x3e673754	0.225797
34	0xbb8a91d6	-0.004228811
35	0xbde820e2	-0.11334397
36	0xba2ef7d6	-0.00066745037
37	0x3e6a764b	0.22896688
38	0x3e81c46a	0.25345165
39	0xbd83c327	-0.06433707
40	0xbb964af8	-0.0045865737
41	0xbdef8397	-0.11695021
42	0x3e088c05	0.13334663
43	0x3d549559	0.05190024
44	0xbd847bcc	-0.06468925
45	0xbdff14b2	-0.12455119
46	0xbd818e50	-0.06325972
47	0x3d984bdc	0.07436344
48	0x3db89946	0.090136096
49	0xbe1a1e99	-0.15050735
50	0xbd86f892	-0.0659038
51	0x3d98029a	0.07422371
52	0x3da4b639	0.08042569
53	0xbc05cdff	-0.008166789
54	0xbdef9e63	-0.11700132
55	0x3dcd628b	0.10028561
56	0xbe8bb105	-0.27283493
57	0x3e0e5ac2	0.13901809
58	0x3e43a9a3	0.1910768
59	0x3d8e8a37	0.06959956
60	0xbd75ba1a	-0.059991933
61	0x3e6a7a9f	0.22898339
62	0x3d6e510d	0.058182765
63	0x3db662c2	0.08905555
64	0x3d93797d	0.072009064
65	0xbd92a564	-0.07160452
66	0xbd784c7c	-0.060619816
67	0xbd94dbec	-0.07268509
68	0xbd67b1a8	-0.05656591
69	0x3d47c13c	0.048768267
70	0x3cae337b	0.021264782
71	0x3c6edd97	0.014579198
72	0x3dbac327	0.091192536
73	0x3be65b1c	0.007029904
74	0xbdf186bd	-0.117932774
75	0x3c40595c	0.011740055
76	0x3d1a5c18	0.037685484
77	0x3dce92d5	0.100866
78	0xbdf79980	-0.12089825
79	0xbe256e35	-0.16155322
80	0xbe8e4c62	-0.2779265
81	0xbe8a991e	-0.27069944
82	0xbe87f2fe	-0.26552576
83	0xbd4a4bb8	-0.049388617
84	0xbe2f4ff8	-0.1712035
85	0xbd42b77d	-0.04753827
86	0xbe05061d	-0.12990613
87	0xbbb2b04d	-0.0054531456
88	0x3ce7568b	0.02823951
89	0x3d53100f	0.051528987
90	0x3dd86b28	0.105673134
91	0xbe733964	-0.23752362
92	0xbe37d710	-0.17953134
93	0x3e8ba09b	0.2727097
94	0x3e69b80c	0.22824115
95	0x3d83f18d	0.064425565
96	0xbc83a34e	-0.01606908
97	0xbe2623bf	-0.16224574
98	0xbd388ce2	-0.04505623
99	0x3e5b2158	0.21399438
100	0x3d7480fb	0.059693318
101	0xbcf73b27	-0.030179573
102	0xbac3d294	-0.0014940077
103	0xbd364706	-0.044501327
104	0x3d8f97ae	0.070113525
105	0x3d12d158	0.035844177
106	0x3def482e	0.11683689
107	0x3da4f478	0.08054441
108	0x3ba6890c	0.005082255
109	0x3e1e14b8	0.15437591
110	0xbb7c349c	-0.0038483506
111	0xbd15d0fe	-0.036576264
112	0xbc08faad	-0.008360547
113	0x3d480026	0.048828267
114	0x3d210488	0.039310962
115	0xbdc9bd7e	-0.09850596
116	0xbe00e024	-0.12585503
117	0x3e0884e6	0.13331947
118	0x3cd2e5d2	0.025744352
119	0xbd232741	-0.039832357
120	0x3d3e11db	0.046403747
121	0x3d613ffd	0.054992665
122	0x3de58f31	0.11208952
123	0xbe998040	-0.2998066
124	0x3d87b6a3	0.06626632
125	0x3de5c0e2	0.1121843
126	0xbdb2d651	-0.08732284
127	0x3db6c294	0.089238316
128	0x3d8efd17	0.06981867
129	0x3c187e10	0.009307399
130	0xbd149263	-0.036272418
131	0x3da2b25e	0.07944177
132	0xbd1348a4	-0.035957947
133	0x3e057d41	0.13036062
134	0x3dfae638	0.12250942
135	0xbe284260	-0.1643157
136	0x3e012856	0.12613043
137	0xbd3d309e	-0.046188943
138	0x3d9395c6	0.072063014
139	0xbd47e8fb	-0.048806172
140	0xbd9975d6	-0.074931785
141	0x3c70ba82	0.014692904
142	0xbd96904a	-0.0735174
143	0xbe10c9c2	-0.14139464
144	0xbcc35b31	-0.023847194
145	0x3de79db5	0.11309377
146	0x3db82048	0.08990532
147	0xbe0eb191	-0.13934924
148	0xbd8d21d6	-0.06891219
149	0x3d820d71	0.0635022
150	0xbbab9c42	-0.0052371332
151	0x3d1cfa2b	0.038324516
152	0xbe098e39	-0.1343316
153	0xbdf4ebce	-0.11959039
154	0xbd9eb251	-0.07748855
155	0x3dcc60d5	0.09979407
156	0x3d389958	0.045068115
157	0x3b666d33	0.0035160303
158	0xbd86beb1	-0.0657934
159	0xbde764fb	-0.11298557
160	0xbeb4fc0f	-0.35348555
161	0x3b1816c6	0.0023206933
162	0x3c625b0b	0.013815652
163	0x3e0d1799	0.13778533
164	0x3cc9fb0a	0.024655838
165	0x3e0a102f	0.13482736
166	0xbd319662	-0.043356307
167	0x3c84f2f7	0.016229136
168	0xbd81b3c5	-0.063331164
169	0xbdd4f0dd	-0.103975035
170	0xbd22e4a2	-0.039768822
171	0x3d1b50a9	0.03791872
172	0x3e68703b	0.22699063
173	0xbda44098	-0.08020133
174	0xbe00d9db	-0.12583105
175	0x3d303123	0.04301561
176	0xbe6b6671	-0.22988297
177	0x3e8dd0bc	0.27698314
178	0xbcc852e2	-0.024453584
179	0xbe114112	-0.14184979
180	0xbdb64a39	-0.089008756
181	0x3d2a1ba4	0.041530266
182	0xbcf00bcf	-0.029302506
183	0xbda46090	-0.0802623
184	0xbc727293	-0.014797824
185	0x3d9df29f	0.07712292
186	0x3e337150	0.17523694
187	0xbdd16996	-0.10225217
188	0xbdaf0d6c	-0.08547482
189	0x3e73d8d4	0.23813182
190	0xbe73fbca	-0.23826519
191	0xbd0a2fde	-0.033737056
192	0xbdceb0a6	-0.10092287
193	0x3d3fb0eb	0.04679958
194	0x3dcd7676	0.1003236
195	0xbe1657da	-0.1468195
196	0xbd32c059	-0.04364047
197	0x3caf49cb	0.021397492
198	0xbdf93c81	-0.12169743
199	0xbc31cf50	-0.01085265
200	0x3e2cc4d5	0.1687196
201	0xbdc24f72	-0.09487809
202	0x3e10a924	0.14127022
203	0xbce8d8bf	-0.028423665
204	0xbdb7a6ff	-0.08967399
205	0x3e28b382	0.16474727
206	0xbc3bf8a6	-0.011472857
207	0xbdf91955	-0.12163035
208	0xbd475a31	-0.048669998
209	0x3e822da8	0.25425458
210	0xbe4589dc	-0.1929087
211	0x3e7b57cd	0.24545212
212	0xbe7b6346	-0.24549589
213	0xbbe43992	-0.0069648707
214	0x3e5adf0b	0.21374147
215	0x3dc55880	0.09636021
216	0x3bbe90b0	0.005815588
217	0x3d829cd1	0.063775666
218	0xbd4aea05	-0.049539585
219	0xbea76a23	-0.32698163
220	0x3e37a213	0.1793292
221	0xbd0b0faa	-0.033950485
222	0x3d89927d	0.067173935
223	0xbdfd83fa	-0.12378688
224	0xbe959d6c	-0.29221666
225	0xbe0ca7fc	-0.13735956
226	0xbc6858d6	-0.014181336
227	0x3db7ffea	0.089843586
228	0x3cd9e61f	0.026598988
229	0x3d29f31d	0.041491617
230	0x3de1b552	0.11020912
231	0x3dc60090	0.09668076
232	0x3d2a29b3	0.041543674
233	0xbc89249d	-0.016741091
234	0x3d1f7e78	0.03893897
235	0xbd4e90d2	-0.05043108
236	0x3ded50cf	0.11587679
237	0x3dca6d63	0.09884145
238	0x3e4231e5	0.18964346
239	0x3ccfdb4f	0.02537313
240	0xbdc2a313	-0.0950376
241	0xbe6898b1	-0.22714497
242	0xbcafc499	-0.02145605
243	0x3dd06d9b	0.101771556
244	0x3e3e7760	0.18600225
245	0x3d9fc7eb	0.07801803
246	0x3dbdd024	0.09268215
247	0x3da41cef	0.08013331
248	0xbe2eea6e	-0.17081615
249	0xbdc73ce1	-0.097284086
250	0x3d29ba72	0.041437574
251	0x3d8e91ce	0.06961404
252	0x3db1485a	0.08656378
253	0x3d83b6d0	0.06431353
254	0x3df7097c	0.12062356
255	0x3e766395	0.24061425

cls_head.bias f4 [7]
0	0xbc2a840d	-0.01040746
1	0xbd299568	-0.04140225
2	0xbc9b16c5	-0.018931756
3	0x3cbaf791	0.022823127
4	0xbc13a602	-0.009011747
5	0x3ca72d27	0.020407273
6	0x3bc29a57	0.005938809
