src/facexpr/cGen+cDis/Version 1.1/weight/generador_final_cgan_human.pth (torch, 66530 bytes, 16 tensors)

etq.weight f4 [7, 93]
000000 93 35 98 bf 5b 0a 7e 3f d0 0b fd be cb c4 6e be
       -1.189135 0.9923455 -0.49423075 -0.23317258
000010 3d b0 ac bf 14 87 57 bf f7 e9 20 c0 3a cb 95 3f
       -1.3491284 -0.8419049 -2.51428 1.1702645
000020 bd ea 8a 3f cf 35 6f bf 00 89 56 3f 4b e3 1a bf
       1.0852886 -0.9344148 0.83802795 -0.6050307
000030 48 96 14 bf 27 02 84 be dc 0b 76 bf 4f 5b 1d be
       -0.5804181 -0.25782892 -0.96111846 -0.15366863
000040 60 36 e0 bf aa 3a ab 3f 00 66 d0 3f 14 f3 bd 3f
       -1.7516594 1.3377278 1.6281128 1.4839807
000050 8d 84 a6 3f 55 f8 47 3f 79 5b 3b 3f 96 a2 09 be
       1.3009201 0.781133 0.7318645 -0.13440928
000060 df df e6 3f 55 8a dd be e7 1e ac be 0c 86 2f 3f
       1.803707 -0.432696 -0.33617327 0.68563914
000070 2a fa b9 bf 4b 67 15 3f e2 a0 e2 3d b8 04 56 be
       -1.4529469 0.5836074 0.11065842 -0.20900238
000080 66 c6 85 be 8d eb 0b 3f 12 19 01 c0 38 b4 a3 3e
       -0.26127928 0.54656297 -2.0171552 0.31973433
000090 58 5b 32 bf 1a 2a fd 3e 45 03 bf 3f 24 22 5b 3f
       -0.6967063 0.49446183 1.4922873 0.8559897
0000a0 e6 33 cc be 9d fc 18 3e 9a de 56 bf cf 9e 14 40
       -0.39883345 0.14940114 -0.83933413 2.322193
0000b0 e8 48 e9 3f 99 7f ef 3e 23 0f 92 be 34 a4 d5 bf
       1.8225374 0.46777037 -0.28527173 -1.6690736
0000c0 46 de 02 bf 87 05 a3 bf 2f dd 67 be 39 f9 d2 bf
       -0.5112041 -1.2736062 -0.22642969 -1.6482307
0000d0 d4 a0 a2 3e e8 d0 f1 bf e5 36 bf bf 04 8e 9b 3f
       0.31763327 -1.8891878 -1.4938627 1.2152715
0000e0 3f 77 84 bf 1c e6 4d bf 83 77 2b 3f a0 d5 ac 3f
       -1.0348891 -0.80429244 0.66979235 1.3502693
0000f0 5f ff e8 3e ba db 0c bf a3 c7 33 c0 5e 3c 1b bf
       0.45507333 -0.55022776 -2.8090599 -0.6063899
000100 56 96 48 bf 4b a6 b5 3f 95 f8 1c bf ae cf 6e 3f
       -0.78354394 1.4191374 -0.61316806 0.93285644
000110 79 bf 41 3f 76 a0 aa bf 48 09 c1 bf 9a cf b6 bf
       0.7568279 -1.3330219 -1.5080957 -1.4282105
000120 c7 01 e3 3e 9d 3a f6 3e f2 77 07 bf a9 a2 52 bf
       0.44337294 0.48091593 -0.529174 -0.8227945
000130 30 c1 12 bf b3 d4 1e 3f 24 2d 94 bf 63 eb ba 3e
       -0.5732603 0.62043303 -1.1576276 0.3650771
000140 98 d5 0d bf 68 6f 32 bf b8 93 a3 bd 79 cf 6a 3f
       -0.55404043 -0.6970124 -0.079871595 0.9172283
000150 f4 c5 8b 3f 10 62 5d bf be b7 c0 3e f0 23 b1 3f
       1.0919785 -0.86477757 0.37640184 1.3839092
000160 c5 63 64 bd 2e fe 9b bf 63 76 8f 3f 6c 80 6a bf
       -0.05575921 -1.2186944 1.1208004 -0.91602206
000170 ae b3 80 be f2 55 0b bf ac 43 04 3e 57 8a 2c be
       -0.25137085 -0.5442802 0.1291644 -0.16849647
000180 b5 9e 47 3e d7 b1 88 be d8 0f 63 3e cf 1d c6 3e
       0.19494136 -0.2669818 0.22174013 0.38694617
000190 6e d3 2f bf ba 1e 69 3f 22 14 ea 3f 8e 8b 03 bf
       -0.6868199 0.9106251 1.8287394 -0.5138482
0001a0 cf df 4c 3f 69 9d af 3f ac 35 d6 3f b7 1f 53 3f
       0.80029005 1.3719913 1.6735129 0.8247027
0001b0 8c 6e 18 bf 03 00 c3 bf 10 f7 65 3f 3d 5f ec 3f
       -0.5954368 -1.5234379 0.8983011 1.8466564
0001c0 4f e4 00 3f 93 4f 0f 3f ad f2 86 bf 65 1a c7 3f
       0.5034837 0.55980796 -1.0542809 1.555493
0001d0 3a e6 82 bf 98 9c 3f bf 2f 17 2d bf 3d cc 70 3f
       -1.022651 -0.7484832 -0.676135 0.9406164
0001e0 ed 4b 65 3f 65 70 a2 3e 89 3d e0 bf 5d 31 46 3e
       0.8956898 0.31726375 -1.7518779 0.19354768
0001f0 ba 8e f7 3f ae a9 a5 3e 4e c8 5a 3f ca 44 cb 3e
       1.9340432 0.32356018 0.8546189 0.3970092
000200 b6 dc b2 3f 63 9b 97 be ac 5f 54 3d dc 11 18 3f
       1.3973606 -0.29610738 0.051849052 0.5940225
000210 23 48 d1 bf 56 59 2f bd af e4 9d bd 35 7d c9 3f
       -1.6350139 -0.042809807 -0.077096336 1.5741335
000220 ea ad 93 3e f9 49 9b be 64 2c da 3f 1c ac 39 bf
       0.28843623 -0.30329874 1.7044797 -0.72528243
000230 c8 be df 3f be 60 89 3f 9c d6 72 be e2 d8 d4 bf
       1.7480097 1.0732648 -0.2371468 -1.6628687
000240 79 d9 c4 be 0a ea af bf f9 67 a2 3e fa a9 0d 40
       -0.38447168 -1.3743298 0.3171995 2.2134995
000250 9b e0 e2 be 40 30 6a 3f 2b c9 56 bf 9e e5 55 3f
       -0.44311985 0.91479874 -0.8390071 0.83553493
000260 02 e3 7e be 7a 98 a9 3e 18 e8 38 3f 7f 0d d3 bf
       -0.24891284 0.33124143 0.72229147 -1.6488494
000270 f5 64 b5 3e 83 2b da bf a7 b0 1c bf 90 c2 69 3f
       0.35428587 -1.7044529 -0.6120705 0.91312504
000280 aa ef fe 3e b8 58 07 3f 83 02 b0 3f 03 5b e1 3d
       0.49792224 0.5286975 1.3750767 0.11003687
000290 ce 2a 80 be e6 24 99 3e f6 20 1c bf aa 53 4e bf
       -0.25032657 0.29910964 -0.60987794 -0.8059641
0002a0 db 90 05 bf 9f e2 73 bf 15 6a 00 c0 f1 55 fe 3e
       -0.52174157 -0.9526767 -2.0064747 0.49674943
0002b0 db 2e be bf b8 70 c3 3e a1 92 91 3e 50 c5 fa bc
       -1.4858049 0.38171935 0.2843218 -0.030611664
0002c0 fe 7f 85 be 69 99 35 3f 10 11 5b 3f dd 3b 3c bf
       -0.26074213 0.7093721 0.8557291 -0.73528844
0002d0 2b 57 0f c0 84 e7 dd bc 0d 00 6a 3e fe 98 a4 3f
       -2.2396953 -0.027087934 0.22851582 1.285919
0002e0 81 6b a7 bf fd 41 cf 3f bc 52 3a 40 9c f2 a8 bf
       -1.3079683 1.6192013 2.9112997 -1.3199039
0002f0 56 bc 55 40 5a d8 d9 bf a2 7a 00 40 3c df a6 bf
       3.33962 -1.701915 2.007485 -1.3036876
000300 71 f5 4c bf b3 fd 13 c0 b7 ab c6 3f 82 44 0f 40
       -0.80062014 -2.3123596 1.5521153 2.2385564
000310 44 19 ff 3f 20 c2 0e c0 76 c9 18 40 38 ea a7 bf
       1.9929585 -2.2305984 2.3872962 -1.3118353
000320 2a b8 f2 3f 9d e6 1e 40 73 8e 6b 40 83 0b 24 40
       1.8962452 2.4828255 3.6805694 2.5632026
000330 07 22 22 c0 ff 30 99 3f 59 fb 1e c0 d2 3e 56 40
       -2.5333269 1.1968077 -2.484091 3.3475842
000340 c7 4f 0c bb 7c 9c 59 c0 ce 90 17 c0 05 57 83 40
       -0.0021409856 -3.400176 -2.3682132 4.1043725
000350 c5 62 99 bf 98 08 1f c0 c9 bd 05 c0 91 c7 3f 40
       -1.1983267 -2.4848995 -2.0897086 2.9965556
000360 df 92 1f 40 62 6b e1 3f 1b f2 23 40 3b bd 91 c0
       2.4933393 1.7610896 2.561652 -4.5543494
000370 64 d6 f4 bf 2b c0 20 40 6d 73 19 c0 43 89 ff 3f
       -1.9127927 2.511729 -2.39767 1.9963764
000380 94 bc 18 c0 92 45 26 40 95 a7 eb bf 1f 89 11 c0
       -2.38651 2.5979962 -1.8410517 -2.2739942
000390 02 00 54 c0 57 64 ff bf 9c ed 28 40 1f b2 b4 3f
       -3.3125005 -1.9952496 2.6395025 1.4116858
0003a0 b8 94 04 c0 a6 24 e9 3f 3e be 77 3f 3a 27 c0 bf
       -2.071577 1.8214309 0.9677466 -1.5011971
0003b0 97 eb cc bf 23 0e d3 bf 88 90 61 bf c4 11 06 40
       -1.6009396 -1.6488689 -0.8811116 2.0948343
0003c0 89 0a 08 40 56 83 b2 bf 9e 52 33 40 9b f4 f0 bf
       2.125643 -1.394633 2.8019176 -1.8824648
0003d0 b1 f1 00 c0 39 d9 fe 3f b3 8b 3b c0 06 2b 78 bf
       -2.0147517 1.9910041 -2.9304016 -0.9694065
0003e0 1f 84 23 40 56 54 42 c0 06 69 0a 40 9f 28 20 c0
       2.554939 -3.0363975 2.1626601 -2.5024793
0003f0 b3 ae 22 c0 67 8a 93 3f 6f c0 f5 3f 63 31 61 bf
       -2.5419128 1.1526612 1.9199351 -0.87965983

etq_extra.weight f4 [93, 93]
000000 58 ce 18 3e ae 30 a6 3d 08 8f 19 be 01 2a 26 3e
       0.14922464 0.08114754 -0.14995968 0.1622696
000010 a8 58 2d 3e 2b d5 8b 3c 68 30 ef 38 69 81 9c 3c
       0.16928351 0.01706942 0.000114054244 0.019104676
000020 eb b2 66 bd ca 57 84 3e 2f 1c 45 be e8 dd cb bd
       -0.056322973 0.25848228 -0.19249032 -0.09954435
000030 52 7f 07 bc 8f 26 3e be 75 01 90 bc c7 55 0b 3b
       -0.008270102 -0.18569396 -0.01757882 0.0021260844
000040 23 39 72 3d 6c 84 7f 3c 1b 60 4c be 53 a9 7f bd
       0.05913652 0.015595537 -0.19958536 -0.06241734
000050 02 09 fb 3d 69 75 c5 3d ac ab 9e bd d7 c0 36 be
       0.122575775 0.09641535 -0.077475876 -0.17847
000060 df cb 35 3e a4 89 eb 3d 30 10 85 bd 32 f6 96 3d
       0.17753552 0.11500862 -0.06497228 0.07371177
000070 a0 cb 33 be 75 64 f6 3d 7b 1e f6 bc f7 11 c5 3d
       -0.17558146 0.120308794 -0.030043831 0.09622567
000080 98 4f 9f bd 85 4b f4 bc 46 6e d6 bd 86 08 36 bd
       -0.07778853 -0.029821167 -0.10470252 -0.044441722
000090 a8 9b 1d 3e bb 83 f8 3b 84 75 b2 3d bd 48 44 3e
       0.1539141 0.007584063 0.087138206 0.19168372
0000a0 27 57 88 3c 7f c6 81 3e 19 46 30 3d 87 f5 29 3c
       0.01664312 0.25346753 0.0430356 0.01037348
0000b0 35 64 b6 3b 85 fa 24 bc 49 f6 cc bb 21 23 0e bd
       0.005566145 -0.010069494 -0.0062549454 -0.03470147
0000c0 cd 70 11 be 4a 1b 5e 3d 1b 19 66 3d 0a 2a 63 3d
       -0.14203186 0.054225244 0.056176286 0.055460013
0000d0 80 9a b6 bd 89 7c 11 3d a7 c1 1f be 2a 60 b4 3d
       -0.08916187 0.035519157 -0.15601216 0.08807404
0000e0 86 ff 61 bd 3b 66 f0 3d 46 e3 28 3d 8e d6 92 bd
       -0.055175327 0.11738249 0.04123237 -0.07169829
0000f0 21 55 b4 3d 95 2f 14 bd cc ec a3 bc 6b 27 2a 3e
       0.088052996 -0.03617819 -0.020010374 0.166166
000100 f5 09 8c 3e 57 69 16 bd a4 87 13 3e 8c 0a ef 3d
       0.27351347 -0.036721554 0.14407212 0.116719335
000110 2f 39 67 bc 8d e1 8e bd 22 47 62 3d fd de 92 3d
       -0.014112755 -0.06976614 0.05524362 0.07171438
000120 b2 47 20 3e fd e3 32 bd 58 a4 14 3e 72 af d5 3d
       0.1565235 -0.043674458 0.14515817 0.10433854
000130 ea 54 30 3e bc 48 4f be 2d 4d de 3b af 9a d5 3c
       0.17219892 -0.2024259 0.0067841024 0.026074735
000140 35 e9 de 3d 98 a7 9a 3e 3d 00 8d 3d 27 48 05 be
       0.108843245 0.3020599 0.06884811 -0.13015805
000150 3a 60 e6 bd fa 1b 7e 3d 60 5c 1f 3d fc 64 09 be
       -0.112488225 0.0620384 0.038906455 -0.13417429
000160 4b 58 a0 3d f7 49 56 bd c1 fc 76 3b 35 67 bb 3d
       0.078293405 -0.052316632 0.0037687274 0.091505446
000170 9f 52 22 3c 4f ba 9f 3c d8 31 ec 3d 25 b4 86 3e
       0.009907394 0.019498019 0.115329444 0.26309314
000180 2b 26 97 be 7d a6 d4 bc 25 d8 12 3d b7 99 69 3d
       -0.29521307 -0.025958294 0.035850663 0.05703136
000190 41 47 22 be d3 7d 3b bc 9c 7a 59 3e 50 34 3b 3e
       -0.15847494 -0.011443573 0.21238178 0.18281674
0001a0 43 4c 4f be 71 bf 7d 3e 7e 13 03 be 80 b3 11 3e
       -0.20243935 0.2478006 -0.12800404 0.1422863
0001b0 15 4a c0 3e 17 f3 4f 3e e7 ef e8 3d ad 65 04 bd
       0.3755652 0.20307575 0.11373883 -0.032323528
0001c0 3a f8 9c 3d a7 5c 42 be ca d6 4d 3e bc cc 41 bd
       0.07664533 -0.18980657 0.20101467 -0.04731439
0001d0 2a ee 2c be 33 d5 5f be 26 05 d1 3e 5b 3d fa bd
       -0.16887727 -0.21858673 0.4082424 -0.12218734
0001e0 f6 19 70 be b4 f7 9b bc 83 04 96 3e 58 2e dd 3e
       -0.23447403 -0.019039012 0.29300317 0.4319942
0001f0 36 24 65 3e f6 24 ac 3e 95 28 2d be 76 87 74 bd
       0.22377095 0.3362195 -0.16910012 -0.059699498
000200 65 55 6a 3e cd f0 71 be 11 3d 5d 3e 55 30 18 bd
       0.22884138 -0.23627014 0.21605326 -0.037155468
000210 82 fc 45 3e 80 fa 04 be cd 79 cd be 64 80 50 be
       0.19334605 -0.12986183 -0.4013199 -0.20361477
000220 8b b5 ff 3c 66 4b ed 3d ba 33 17 3e 3e da 31 be
       0.031214496 0.11586647 0.14765826 -0.17368409
000230 25 d6 ab 3d 0d 75 77 3e 39 44 34 be 39 03 8a bd
       0.08390454 0.24165745 -0.1760415 -0.06738896
000240 57 c5 10 be 46 a1 11 be 15 4a 0c 3e ed e1 51 3e
       -0.14137779 -0.14221677 0.13700135 0.2049634
000250 77 c2 46 bb 71 29 87 3e e9 82 bb bd 58 9e 57 bd
       -0.0030328312 0.26398805 -0.091558285 -0.052641243
000260 af 41 39 3e 6c 00 78 be fc 66 08 3d a4 9c 57 3d
       0.18091463 -0.24218911 0.03330134 0.05263962
000270 cc bc a0 be d2 22 ab 3d aa e9 f7 bd 76 43 9c be
       -0.3139404 0.08356251 -0.12105115 -0.3052022
000280 18 08 46 3d 2a fc b1 bd ef 87 ae b9 11 f7 a5 bd
       0.048347563 -0.086906746 -0.00033289145 -0.08103765
000290 7a dd b9 bb f5 2c 99 3e dd 27 74 be 07 67 cd 3e
       -0.005672154 0.29917112 -0.23843332 0.40117666
0002a0 91 29 95 be 22 1a 27 3e 96 d7 7b 3e ef 1a 6a bc
       -0.29133275 0.16318563 0.24593958 -0.014288648
0002b0 db 91 7d 3e c9 13 73 be 16 9b 19 be 89 33 f9 3e
       0.2476267 -0.23738016 -0.15000567 0.4867213
0002c0 45 1b 6b 3e 7e d2 23 3d 1a d3 68 bd 79 ed b7 3e
       0.22959621 0.039995663 -0.056841947 0.35923365
0002d0 1e 18 35 bd 7c eb e2 be 55 9b 5f bc 2e 3e ff bd
       -0.044212453 -0.44320285 -0.013647874 -0.12463032
0002e0 39 2a 41 3d eb 41 9d be 2c e3 27 3d 7c 84 1c 3e
       0.047159407 -0.30714354 0.040988132 0.15284914
0002f0 6c f5 54 3d f8 36 3d 3d 99 91 1f 3d 45 21 24 bd
       0.051991865 0.046195 0.038957212 -0.04007079
000300 f5 2b 40 3d 53 1f 23 3e 77 2f 73 3d 0b 8b 8b 3d
       0.04691692 0.15929918 0.059371438 0.0681363
000310 60 45 a5 3d e8 a7 10 bd 08 a4 f6 ba f2 df a3 3d
       0.08069873 -0.035316378 -0.0018817196 0.080016986
000320 d5 34 c6 bb 80 68 0b be 42 38 91 3d 88 78 a0 3d
       -0.0060487785 -0.13614082 0.070908085 0.078354895
000330 74 a3 73 3d 36 c6 03 bd be ce 5d 38 94 b4 ec bd
       0.059482053 -0.03217145 5.288305e-05 -0.1155788
000340 50 54 a5 3d 37 88 1f 3d 24 f1 ac 3d 2b 0a ec 3b
       0.08072722 0.038948264 0.084444314 0.0072033606
000350 74 8d 69 be bf 4c dc bd d9 65 aa 3d 1f f0 99 3d
       -0.22807866 -0.10756826 0.08320207 0.075165026
000360 5e fd f6 3d 57 26 8c bc e0 67 f3 3d 36 97 91 bd
       0.12060045 -0.017108126 0.11885047 -0.07108919
000370 76 92 03 3e 6c 40 50 3d bf 71 8b 3d 66 e8 1b bd
       0.12848839 0.050842687 0.06808805 -0.03806343
000380 46 b4 af bd 0e 2c ab bb 70 39 9c bd 31 6c 9f bd
       -0.08579306 -0.0052237576 -0.07628143 -0.07784308
000390 99 1c 21 3d 8e 00 d7 bd 6f f2 af bd 05 ba 9c 3c
       0.039333913 -0.10498153 -0.085911624 0.01913167
0003a0 2a 91 d5 3c 3a 62 ef 3c c5 d0 9c bd 48 64 09 3d
       0.026070196 0.029221643 -0.07657007 0.0335429
0003b0 5b 32 c0 3d e9 1d 90 bd a4 fc f2 bd 61 84 17 3e
       0.093846045 -0.07036955 -0.118645936 0.14796592
0003c0 02 29 d6 bd 40 c8 94 3d d7 01 dc bd 77 ef 3d bd
       -0.1045704 0.07264757 -0.107425384 -0.04637095
0003d0 f9 74 97 bd 36 e0 0e 3d f3 f7 86 3c 29 8c 50 3d
       -0.07395358 0.034881793 0.016475653 0.050914917
0003e0 4d e5 ae bc cb 52 0a 3e dc a9 c6 3d 8f 54 45 3d
       -0.021349574 0.13508146 0.09700367 0.048176344
0003f0 e1 d9 a5 3d d9 36 8e 3d 73 fa e1 bd 21 a8 06 be
       0.08098198 0.06944055 -0.110340975 -0.13150074

etq_extra.bias f4 [93]
000000 a5 78 c2 bd 83 b8 d0 bc 13 37 f0 bd b5 c5 fe 3d
       -0.09495667 -0.025478607 -0.117292546 0.124400534
000010 61 65 97 bd 8f a1 66 bd 06 ef c3 bd 5f 82 37 3e
       -0.07392383 -0.056306418 -0.095670745 0.17920826
000020 ba 21 0a bd 95 7c 28 3b 18 95 8a bd a8 7d 57 be
       -0.03372357 0.0025709022 -0.067667186 -0.21044028
000030 c8 dd 26 be 68 ce 0f 3f aa 55 24 3f 20 b7 eb bd
       -0.1629554 0.56174326 0.64193213 -0.11509538
000040 e8 76 d2 3a d1 cc 71 bd c5 ca 0e 3e b3 73 b3 bd
       0.0016057165 -0.05903322 0.13944538 -0.08762302
000050 fc 15 28 3f 61 36 23 be 6c 92 0c 3d 86 ae 57 be
       0.65658545 -0.15938713 0.034319326 -0.21062669
000060 6c 35 69 3d c5 a0 64 3e b6 56 95 bc 3f de 68 3e
       0.056935713 0.22326954 -0.018229824 0.2274103
000070 80 cd 9b bc 02 11 b3 3e a8 ae 80 3e 79 60 41 3c
       -0.019018888 0.34973913 0.25133252 0.011802786
000080 0f de 69 3e 37 28 d9 bd 56 b0 f2 bd 4d 07 7e bd
       0.22838615 -0.106033735 -0.1185004 -0.06201868
000090 42 97 07 3e 0b 72 38 be f7 7d d0 3e 69 61 8f 3d
       0.13241294 -0.18012254 0.40721104 0.070010014
0000a0 f2 1e af 3d a7 4f 47 3e 39 57 78 bd ba 21 9d 3e
       0.08550824 0.19463979 -0.060630057 0.30689794
0000b0 e7 ec ea 3e 19 47 69 bc e0 ca 6d be 04 e9 d3 3e
       0.45883867 -0.014238142 -0.23221922 0.41388714
0000c0 9c a7 4b be 00 85 7a bd 27 df ab 3e 10 7a 09 3f
       -0.19888157 -0.061161995 0.3356869 0.5370188
0000d0 91 0f a0 bc 92 63 b2 bb 49 fb 41 bd 68 4c 81 3e
       -0.019538673 -0.0054439986 -0.047358785 0.25253606
0000e0 b8 51 47 3e 78 45 b4 3d 46 26 8a bd 0f 85 1e 3d
       0.19464767 0.088023126 -0.06745581 0.038701113
0000f0 9a 6b 6a 3e 97 f5 27 3f 39 fd c3 bd 36 96 c9 bd
       0.22892609 0.65609115 -0.09569783 -0.098431036
000100 0a 2b 88 be 0c 1c 36 3e c6 a8 b9 bd 7d 81 ae bd
       -0.26595336 0.17784137 -0.09065394 -0.08520792
000110 1a 55 81 3e 21 cc ea bb 81 be a0 3e 98 3a dd bd
       0.2526024 -0.0071654473 0.31395343 -0.108021915
000120 27 01 09 bd f6 6c 9d 3d 8c ba 1b 3f 36 86 f6 3d
       -0.033448365 0.07686798 0.6083152 0.120373175
000130 cb 5b 10 be b6 f7 2d be 3b 52 cd 3d 4c 56 fe 3d
       -0.14097516 -0.16989025 0.1002545 0.124188036
000140 c3 1a eb bd e9 fc ea bc a4 25 3f 3f 9a 3f 4f 3e
       -0.11479714 -0.02868505 0.7466681 0.20239106
000150 17 0e 92 be 7e 30 30 bd ab a7 2c be d4 37 67 be
       -0.28526375 -0.043014996 -0.16860835 -0.2257989
000160 df 0d 9d bc ed 51 82 bd c4 8c 96 3e 0a 5c d2 bd
       -0.019171653 -0.06363282 0.2940427 -0.10271461
000170 08 59 ff bd
       -0.12468153

bn1.weight f4 [504]
000000 b8 a3 5e 3f 85 84 89 3f e4 5d 8f 3f a7 0f 60 3f
       0.86968565 1.0743567 1.1200528 0.87523884
000010 9e 12 e5 3e 3c 60 37 3f 53 92 fe 3e a0 dd 95 3f
       0.44740766 0.71631217 0.49721012 1.170826
000020 bd 47 8d 3f 54 cb d1 3f ad ce 06 3f ce e9 e9 3e
       1.1037518 1.6390176 0.5265911 0.4568619
000030 23 e8 2b 3f 0a 7e ab 3e 5a e0 66 3f a3 f5 3d 3e
       0.6715109 0.33494598 0.90186083 0.18550734
000040 c1 56 a5 3f 51 11 4a 3f 6e ee 70 3f 72 5c 53 3f
       1.29171 0.7893267 0.94113815 0.82562935
000050 d9 da 54 3f cb fb 78 3f 75 67 4d 3f cd 23 94 3e
       0.83146435 0.97259206 0.8023599 0.28933564
000060 53 9c 7c 3f 3a ad d1 3e 89 45 d9 3e d7 55 ec 3e
       0.9867603 0.40952474 0.42435864 0.4615924
000070 ea f6 4b 3f 4f 23 6b 3f 72 c3 79 3f 6b c2 5e 3f
       0.79673636 0.9185075 0.9756385 0.8701541
000080 bd 57 79 3f 9a 34 88 3f ce dc d5 3f 00 22 74 3f
       0.97399503 1.0641053 1.6708009 0.9536438
000090 b0 6c 9b 3f 7a b2 0a 3f d5 bd 96 3f 11 39 8b 3f
       1.2142544 0.54178584 1.1776682 1.087679
0000a0 3b 57 01 3f 64 64 81 3f 87 84 18 3f 92 6a 9b 3e
       0.5052373 1.0108762 0.5957722 0.30354744
0000b0 7f ef 86 3f d2 40 85 3f e9 9d ca 3f 95 18 25 3f
       1.0541838 1.0410407 1.582944 0.64490634
0000c0 48 4d 54 3f 12 31 81 3f fb cd 64 3e b5 2d 63 3f
       0.8293042 1.00931 0.223442 0.8874162
0000d0 0a 28 e4 3e 58 88 a2 3f 7c 6c 48 3e 81 52 74 3f
       0.44561797 1.2697859 0.19572634 0.9543839
0000e0 f3 c5 a4 3f 2b 04 63 3f 29 ac 2f 3f 0f ab 1c 3f
       1.2872909 0.88678235 0.6862207 0.61198515
0000f0 09 ab 61 3f 26 fb fe 3d b0 80 89 3f 74 f1 29 3f
       0.88151604 0.124502465 1.0742397 0.66384053
000100 65 f9 70 3f 74 a8 2d 3f 2b ad a2 3f 08 d4 52 3f
       0.94130546 0.67835164 1.2709097 0.82354784
000110 69 7f 3a 3f 43 64 84 3f 63 f0 96 3f 19 ae 91 3f
       0.7285066 1.0343097 1.179211 1.1381255
000120 8d 4d 63 3f f3 bf d0 3e 7d 2a 2f 3f c5 ac 4c 3f
       0.8879021 0.40771446 0.68424207 0.79951125
000130 1f 59 c3 3f 94 25 24 3f 1a ea 89 3f 37 03 8e 3f
       1.5261573 0.6411984 1.0774567 1.1094731
000140 d8 84 47 3f 9d 6c f3 3d 69 81 22 3f 7c b9 aa 3f
       0.7793708 0.11885951 0.63478714 1.3337855
000150 17 a2 6d 3f c4 f4 90 3f c0 da de 3d 0f 6f ec 3f
       0.92825454 1.1324697 0.10881567 1.8471392
000160 88 c2 bf 3f 7e 11 a1 3f 59 89 4f 3f 67 b5 77 3f
       1.4981241 1.2583463 0.8106895 0.96761173
000170 81 41 75 3e 87 6b 0f 3f e2 48 94 3f 20 e2 8f 3e
       0.23950769 0.5602345 1.1584742 0.28102207
000180 4d 50 0c 3f ca 7e 64 3f a8 cd 55 3f bf 72 a6 3f
       0.5481003 0.89255965 0.8351693 1.3003768
000190 3f ec 39 3f c8 a8 1c 3f 6f c4 d5 3f f4 88 1c 3f
       0.7262611 0.6119504 1.6700572 0.61146474
0001a0 bf dd 67 3f 75 9e 4c 3f aa 98 ab 3f 0d 02 1e 3f
       0.9057273 0.79929286 1.3405964 0.6172188
0001b0 f8 a2 8d 3f 09 f6 b8 3d 45 a2 b7 3e ed 61 43 3f
       1.1065359 0.090313025 0.3586599 0.763213
0001c0 f9 66 b4 3f 0f 74 05 3f 9a 76 9e 3e 96 ae 2a 3f
       1.4093925 0.52130216 0.3094986 0.66672647
0001d0 ec 20 1e 3e 13 ac 63 3f 38 eb 33 3f 95 09 7d 3f
       0.15442246 0.8893444 0.7028079 0.98842746
0001e0 f6 5c 41 3f 60 c4 3d 3f ca f0 99 3f 5e 41 8a 3f
       0.7553247 0.7412777 1.2026608 1.0801198
0001f0 fc 85 71 3f 7c 46 02 3e f3 c3 5f 3e b7 28 fd 3e
       0.9434507 0.127222 0.21852092 0.49445125
000200 11 70 f7 3e b4 6d 12 3f 44 18 66 3e d5 07 82 3f
       0.48327687 0.57198644 0.22470194 1.015864
000210 0b 8a 4b 3f 8e 55 53 3f ba 16 c1 3e b8 6e b7 3d
       0.7950751 0.8255242 0.37712651 0.08956665
000220 46 39 88 3f ef 14 83 3f 38 ad a8 3f e6 47 49 3f
       1.0642478 1.0240763 1.3177862 0.78625333
000230 b1 28 19 3f 92 3c 43 3f 6e ab 8e 3f 62 cb 30 3f
       0.59827715 0.762643 1.1146066 0.6906034
000240 00 39 ea 3e dc ee 8d 3f 85 9a 95 3f 87 e7 d5 3f
       0.45746613 1.1088519 1.1687781 1.6711282
000250 1d eb ed 3f 47 ac 96 3e 43 5e da 3f 55 91 0d 3f
       1.8587376 0.29428312 1.7060016 0.55299884
000260 2a 9d 80 3f e9 43 d3 3f c5 41 98 3f 18 8d 53 3f
       1.0047963 1.65051 1.1895071 0.82637167
000270 c7 16 87 3f 7a c5 4f 3f 78 47 8a 3f 31 d9 10 3e
       1.0553826 0.811607 1.080306 0.14145352
000280 03 4d 86 3f 10 a0 1e 3f 8d 97 b6 3e a3 3a 3e 3f
       1.0492252 0.61962986 0.356625 0.7430822
000290 29 8f ac 3f a9 68 56 3f 2b 4d 40 3f 26 e7 bd 3f
       1.3481189 0.8375345 0.7511775 1.4836166
0002a0 25 d9 bf 3f ec 35 1b 3f 5a 88 62 3f ea 00 62 3f
       1.4988142 0.60629153 0.88489306 0.88282645
0002b0 6c 1d 33 3f 19 37 30 3f 55 89 b9 3f 91 74 eb 3e
       0.6996677 0.6883407 1.4495035 0.4598737
0002c0 85 1d 7a 3f f7 c6 28 3f dc 1b 7a 3e bc 94 30 3f
       0.97701293 0.65928596 0.2442469 0.6897695
0002d0 c7 2a af 3f d6 9d a8 3e 55 c1 17 3f 3d 18 4c 3f
       1.368493 0.3293292 0.59279376 0.79724485
0002e0 0d dd 9e 3f 44 81 cb 3e 3f df 9c 3f f7 bc 77 3f
       1.2411209 0.3974706 1.2255629 0.9677271
0002f0 3f 4c 8e 3f 65 9f 43 3f 1f b5 3d 3f 3c 56 81 3f
       1.1117018 0.7641509 0.74104494 1.0104442
000300 63 9a 1d 3f 7f 16 97 3e 79 33 05 3f d7 84 86 3f
       0.615637 0.2950935 0.52031666 1.050929
000310 87 3f 14 3f c4 fd 98 3f d6 f2 b6 3f 44 a0 91 3f
       0.57909435 1.1952443 1.4292858 1.1377034
000320 02 41 54 3e 33 a9 80 3e b0 f3 84 3f 66 17 47 3f
       0.20727924 0.2512909 1.0386868 0.7777008
000330 a2 47 40 3f a9 3a 84 3f 5d ec 39 3f b1 dd 84 3f
       0.75109303 1.0330402 0.72626287 1.0380155
000340 ee d8 43 3f f2 7f 5e 3e ec 3d 9d 3e 17 ca ba 3e
       0.76502883 0.21728495 0.30711305 0.36482307
000350 7f 78 b6 3f a2 9f f2 3e de e2 28 3f 0b 72 be 3f
       1.4255522 0.47387415 0.6597117 1.4878553
000360 9d 32 91 3f 53 42 3d 3e 23 1e b8 3f b3 30 20 3f
       1.1343571 0.18482332 1.4384197 0.6257431
000370 45 fe 7f 3f f0 62 b1 3f bf 4a cb 3e 8b 81 9f 3e
       0.9999736 1.3858318 0.39705464 0.3115352
000380 2a 3b 46 3f 9e 60 01 3f fd 0c 7a 3f 58 ed 81 3f
       0.7743403 0.5053805 0.9767607 1.0150557
000390 fd 2d 85 3f c5 d6 0d 3f f4 c2 51 3e 9c a0 72 3f
       1.040466 0.5540584 0.20484525 0.9477632
0003a0 a5 69 ad 3f c9 11 97 3e 43 52 3a 3f 15 07 2f 3f
       1.3547865 0.29505756 0.7278177 0.6837018
0003b0 11 b0 59 3f 79 47 31 3f 1f 7c 4d 3f 81 ab 41 3e
       0.8503428 0.69249684 0.8026752 0.1891308
0003c0 d7 56 85 3f a1 e5 78 3f 04 87 8e 3f ae cc 52 3f
       1.0417126 0.97225386 1.1134953 0.82343566
0003d0 7d b9 7f 3f 21 2b 34 3f b6 c2 81 3f 8b 27 8d 3f
       0.9989241 0.7037831 1.0137546 1.1027693
0003e0 41 ce 81 3f 4f e1 7f 3f f8 23 05 3f c7 f7 b4 3f
       1.0141069 0.9995317 0.5200801 1.4138116
0003f0 d5 d4 a9 3f b2 b3 f3 3e 53 d9 38 3f 9b 35 4f 3f
       1.3268076 0.47598034 0.7220661 0.8094117

bn1.bias f4 [504]
000000 96 c2 93 3e 2a 40 50 3e f7 68 9d 3e 3d 16 ba be
       0.28859395 0.20336977 0.30744144 -0.3634509
000010 c7 a8 d1 be fe 1e ce be f2 0d f8 bd 69 9d c8 be
       -0.4094908 -0.4025802 -0.12112035 -0.39182594
000020 d6 c2 4e 3e 40 fe 80 3d 0c 5d a8 bc 0e 26 20 bf
       0.20191512 0.06298494 -0.02055218 -0.62558067
000030 b8 27 2e bf 3c 3f 3e bf 00 ee e8 3e d8 29 20 bf
       -0.68029356 -0.7431524 0.4549408 -0.6256385
000040 70 8a 71 3e b4 6a 18 3d 6b cb 15 be 6c 66 94 bd
       0.23587966 0.037211135 -0.14628379 -0.07246098
000050 e3 af 7c bd 08 3d a3 be e3 6a f6 be e6 c8 ab 3e
       -0.061691176 -0.318825 -0.48128423 0.3355171
000060 4d af f6 3e c1 65 86 bf dd 36 11 bf d9 0e bc 3e
       0.4818062 -1.0499803 -0.5672434 0.36730078
000070 c0 39 e1 be 57 f4 12 bf 6c a2 c2 be 44 f2 59 3e
       -0.43989372 -0.57404083 -0.38014543 0.21283823
000080 0d e7 dd 3c 14 51 56 be 92 5e b7 3e c7 e9 e4 3d
       0.027087713 -0.20929366 0.3581434 0.11177402
000090 46 61 71 3e fb 27 b3 3e ae 5b 1b 3e 74 f8 95 3e
       0.23572263 0.3499144 0.15171692 0.29291117
0000a0 9e af e5 be 32 23 fe be c7 8f e1 bc 7c 58 fc be
       -0.44860548 -0.49636227 -0.027534379 -0.49286258
0000b0 13 a0 d9 bd 30 cf 56 bd c4 79 15 be 0a 7a 11 bf
       -0.10626235 -0.052443683 -0.14597231 -0.5682684
0000c0 41 81 34 be e8 cf 9b 3d c6 2c 1d bf eb 04 4a be
       -0.17627431 0.07608014 -0.61396444 -0.19728439
0000d0 5a 47 43 bf 93 d6 1d 3f 8d a2 3e bf 3a 68 a5 bd
       -0.7628075 0.6165554 -0.7446678 -0.0807652
0000e0 49 9c 34 be ef c8 89 3d a1 c4 27 be 38 4b 53 3e
       -0.17637743 0.06727778 -0.16383602 0.20634162
0000f0 d1 26 ef 3e 84 2b 23 bf 86 7c 46 3e ce 24 f6 be
       0.46709302 -0.63738275 0.1938344 -0.48074955
000100 b5 e4 bb 3d fe e4 ab be 22 70 09 be 75 9f 06 bf
       0.09174482 -0.33573145 -0.13421682 -0.5258706
000110 21 fd 15 be 1b 8a 6c 3e 8f 3d 65 be a9 f3 cb 3e
       -0.14647342 0.23099558 -0.22386764 0.39834335
000120 c1 2d 09 3f ee e3 c1 3d 66 93 e3 bd c7 39 71 3e
       0.5358544 0.09467302 -0.111120984 0.23557197
000130 12 a1 5e bc 92 67 20 3f 50 8f 98 3e 79 ca cc be
       -0.013588207 0.62658036 0.2979684 -0.39998224
000140 b4 fd 6c bb 26 83 43 bf 49 7d b3 3e 45 ae aa 3e
       -0.003616196 -0.7637199 0.35056522 0.33336082
000150 d0 1e b7 3e fe 60 33 be 8d f3 25 bf c2 e4 b4 3e
       0.35765696 -0.17517468 -0.64824754 0.35330778
000160 91 e7 82 3e b5 cb cc bb d6 d0 3f 3e ef 1b 87 be
       0.25567296 -0.0062498697 0.18732008 -0.263885
000170 cc 2d 1d bf ad 6d 02 bf 18 6a f2 be 4e cb 4b bf
       -0.61398005 -0.509486 -0.47346568 -0.79607093
000180 5d 26 54 bf 1b c4 7c be 69 12 21 3e 8c d1 44 3e
       -0.8287104 -0.24684183 0.15729679 0.19220561
000190 85 a0 f7 be 84 55 0b be 48 30 a0 3d 92 c8 c2 3d
       -0.48364654 -0.1360684 0.07821709 0.09510912
0001a0 3e 2f 89 be 87 f8 b7 3c 03 73 36 be bb 84 6a 3e
       -0.26793855 0.022457374 -0.17817311 0.22902195
0001b0 2e a5 5e 3e 49 d2 0e bf bd c7 54 bf cf db e8 be
       0.21742699 -0.5578962 -0.83117276 -0.454802
0001c0 be 32 21 3f 0f 9b e6 bd 07 02 04 3e f7 a8 4b 3e
       0.6296805 -0.11260044 0.12891398 0.19888674
0001d0 89 9a 3a bf f5 e4 91 bd 90 dc 8b 3e b7 a2 32 3f
       -0.7289205 -0.07123748 0.27316713 0.69779533
0001e0 47 38 9e bc 41 4c c3 3e eb 5a c0 3e 13 8a 98 3e
       -0.019313945 0.38144115 0.37569365 0.29792842
0001f0 b6 ce f5 bd e7 a9 30 bf d2 18 b9 3e 55 27 b5 be
       -0.120023176 -0.6900925 0.3615175 -0.3538157
000200 ea 6e 5a be 39 66 a5 be 18 45 9f 3e 6e ac 1c be
       -0.21331373 -0.32304552 0.31107402 -0.15300152
000210 59 b5 b3 3b fc 70 30 be d8 89 81 bd eb cf 15 bf
       0.005484265 -0.172306 -0.0632512 -0.5852038
000220 24 59 10 bd 82 14 99 bb d3 db 03 bf 27 2e 44 be
       -0.03524126 -0.004671634 -0.515073 -0.1915823
000230 ae c4 ba 3d 22 c8 21 be ce 9c af 3e 2b 81 b4 3d
       0.09119545 -0.15799001 0.3429932 0.08813699
000240 30 20 b6 3d ce 7d ae bc 2f ae 29 be 4e 80 79 3d
       0.08892858 -0.021300223 -0.16570352 0.060913377
000250 e9 fc c2 3d 4d 5d 4d bf e1 02 fe 3e 7c 4d 28 be
       0.09520895 -0.8022049 0.4961157 -0.16435808
000260 c8 34 0e be 5d 5e 8a 3c ef fb 52 3e 85 7c 5c 3e
       -0.13887322 0.016890699 0.20603918 0.21531875
000270 0b 86 8f be 51 1f 41 be 64 71 de 3d 92 35 48 bf
       -0.28031954 -0.18859603 0.10861471 -0.7820674
000280 1e 1e 94 be 3a b5 13 bf 15 51 2a bf be 88 1b 3e
       -0.28929228 -0.57698405 -0.6652997 0.15188882
000290 6f 34 09 3e 45 1b 04 be 0c 9e 07 be 3e 08 dd 3d
       0.13398908 -0.12901028 -0.13243884 0.10792588
0002a0 46 6b 0c 3e 82 89 27 3e ef 47 ad 3d ec d4 9c bd
       0.13712797 0.16361049 0.08460986 -0.07657799
0002b0 6e 5c 01 3d e1 d6 71 3e 84 d5 35 3e 87 ad 76 bf
       0.03158229 0.23617126 0.17757231 -0.9635853
0002c0 be 3e 06 3f 27 d5 c0 bd 33 85 a9 be 29 41 03 3f
       0.52439487 -0.094156556 -0.33109435 0.512713
0002d0 1a 91 7e 3e 82 e0 fb bd d8 09 28 3e 80 c0 9a be
       0.2486004 -0.12298681 0.16410005 -0.3022499
0002e0 f3 5e 1e 3e 77 42 fa be bf 26 ae 3e f5 11 89 be
       0.15465908 -0.48878834 0.34013936 -0.26771513
0002f0 68 d8 2a 3e 85 63 2a 3f b4 83 55 be a7 be f6 be
       0.16684115 0.66558105 -0.20851022 -0.4819233
000300 85 46 9c be 96 13 2c bf 38 13 f6 3e a7 95 60 3e
       -0.30522552 -0.67217386 0.48061538 0.21932088
000310 a7 fb 0e bf 59 f2 3d 3d ff 00 b5 bd 14 c8 4f 3e
       -0.5585274 0.0463737 -0.088380806 0.20291167
000320 86 23 b8 be 12 54 1d bf a1 37 e9 3e 1b 74 6c 3e
       -0.35964602 -0.61456406 0.45550254 0.23091166
000330 04 2d 11 be 58 97 06 bf 30 72 70 3e 14 e9 14 be
       -0.14177328 -0.5257468 0.23481059 -0.14542037
000340 f1 63 38 3e f4 18 42 bf 5f a6 4c bf e1 a3 51 3e
       0.18006875 -0.75819325 -0.7994136 0.20472671
000350 37 55 c8 3d ec 4a df be 8b 0e a4 be 23 a3 2a be
       0.097818784 -0.43611848 -0.32042345 -0.16663794
000360 be 46 50 be ea 80 28 bf 12 a9 0b 3f aa 2c 33 be
       -0.20339486 -0.6582171 0.54554856 -0.17497507
000370 11 e7 01 bf 03 53 db 3e 07 ae db be ab d3 f1 3e
       -0.50743204 0.4283677 -0.4290621 0.47231802
000380 00 01 a4 3e 6e ac fa be 64 4a 3f 3d 7d 78 6e be
       0.32032013 -0.48959678 0.046701804 -0.2328815
000390 77 6a ef 3d e6 46 86 bd 37 70 25 bf 60 80 f3 3d
       0.116902284 -0.065564916 -0.6462435 0.1188972
0003a0 57 26 c3 bd 25 56 80 be 3d a3 59 be b7 be 38 3e
       -0.09528797 -0.25065723 -0.21253677 0.18041502
0003b0 5c f0 8b 3d 50 e8 64 3e d4 27 a8 3d 13 c2 66 bf
       0.06832954 0.22354245 0.082107216 -0.90139884
0003c0 ca ba 01 3f 5d 33 39 3e 7e 49 a0 be 3c a8 68 be
       0.5067564 0.18086 -0.3130607 -0.22720426
0003d0 16 7c fe be 67 fb d3 3d bc ec 6d 3d a4 fc 1d be
       -0.49704045 0.103506856 0.058087096 -0.15428406
0003e0 38 50 4e be 2f c8 68 be fa 36 0d bf ad 5c 24 3e
       -0.20147789 -0.22732614 -0.5516201 0.16050978
0003f0 ee 22 21 3e c9 da 9e 3d 2c 43 74 be fa 2c ae be
       0.15735981 0.07756574 -0.23853749 -0.3401869

bn1.running_mean f4 [504]
000000 26 29 33 3e fd 4b 70 bd 61 c6 ef 3d 64 5c 75 be
       0.17496166 -0.058666218 0.1170776 -0.23961025
000010 33 00 34 be 73 fa 9c 3e 35 c3 41 be d8 8d 40 3d
       -0.17578201 0.30659828 -0.18922122 0.047010273
000020 c7 d6 00 be 1f c5 40 bc 62 f1 81 3d e7 ba fc 3d
       -0.12581931 -0.011765747 0.06344868 0.12340336
000030 bb 18 4f 3d 14 b6 f0 3d 73 b1 7c 3e 3f 68 6d 3b
       0.050560694 0.11753479 0.24677067 0.0036225466
000040 16 d9 87 3c e3 b5 9b b9 be a5 c8 3d 9c 80 33 bc
       0.016583007 -0.0002969942 0.09797238 -0.010955956
000050 52 b9 4a 3d d0 fd 0c be ee b3 1e 3d 13 f9 c6 3d
       0.04949314 -0.13768697 0.038745813 0.09715476
000060 9a 1d 82 3d 8f 05 f7 bd de 2d 5d bd a3 99 36 3e
       0.06353302 -0.12061607 -0.05399882 0.17832045
000070 81 0a 29 3e 50 0f bc 3c 88 45 c9 3c d0 00 cc 3d
       0.16507913 0.02295652 0.024569288 0.099610925
000080 c7 50 bc be 2d 39 22 3d 81 59 3b 3e 33 ed 82 be
       -0.36780378 0.03960531 0.18295862 -0.25571594
000090 62 22 1f 3d ed f0 17 be df a4 1c be 42 d9 da 3c
       0.03885115 -0.14838 -0.15297268 0.026714925
0000a0 b3 33 73 be c3 38 19 be ab a5 40 be 51 39 c4 3c
       -0.2375019 -0.14963059 -0.18813197 0.023953112
0000b0 5a b6 85 bd 2d 51 a8 bd 5b ed 7b bd 26 61 78 3c
       -0.065289214 -0.08218608 -0.061505657 0.015159881
0000c0 d8 8e 0a 3e 64 5f a3 3d ac 60 00 3d ec 06 0b be
       0.13531053 0.07977179 0.031342193 -0.13576859
0000d0 6c d6 e8 bd 82 da 8d 3e 6e 6d 8c bd 0a 06 ec bd
       -0.11369023 0.2770577 -0.068568096 -0.11524589
0000e0 35 ac d9 3c 4e 84 cf bd 39 29 92 3c dd 76 33 3e
       0.026571373 -0.10132657 0.017841922 0.17525811
0000f0 19 c8 4a bc 3d bc b9 3d 95 63 7c bd 07 63 f8 bb
       -0.012376809 0.09069107 -0.061618406 -0.0075801644
000100 5b 98 0f be 4c 23 61 be be 4b ab 3d de b1 10 bc
       -0.14022963 -0.21986121 0.08364056 -0.008831469
000110 81 b4 95 bc 82 cd f3 bc bb 44 69 3c fc a6 4c 3d
       -0.018274548 -0.02976108 0.014237578 0.049963936
000120 66 31 8a 3e c9 db 95 bc 95 26 a5 3c ac 94 e4 bd
       0.26990813 -0.018293278 0.020159999 -0.111611694
000130 df 0b 4a 3d 86 ec 3a 3b ed ea c5 bd 92 6e 19 3d
       0.049327727 0.0028522327 -0.09663949 0.037458964
000140 3b 9c 9e ba 02 48 33 3e 46 5c 10 3d 80 eb 6d bd
       -0.0012101004 0.17507938 0.03524425 -0.05808592
000150 6c 15 ce 3d dd 8c 01 3e 1c c4 de bc 85 56 c9 bd
       0.1006268 0.12651391 -0.027193122 -0.098309554
000160 c7 54 97 3d 65 93 18 be 75 3d d3 3c 54 8c af 3e
       0.07389217 -0.14899977 0.025786141 0.3428675
000170 15 3d 20 3d ba 86 35 3e 7d 7b 60 be 71 68 a1 bd
       0.039120752 0.17727175 -0.21922107 -0.07881249
000180 23 32 d0 bb 60 43 04 be f0 25 e4 3d e7 cd 3a 3e
       -0.006353633 -0.12916327 0.111400485 0.18242608
000190 b1 aa 29 3d 8b 00 b9 be 12 2a 07 3c ec 33 0e bd
       0.04142255 -0.36133227 0.008249776 -0.034717485
0001a0 01 d8 f3 3d a0 03 67 bc e6 fb e9 bd 45 90 55 bd
       0.11906434 -0.014099985 -0.11424999 -0.05213954
0001b0 96 6e 1c 3d 6d 16 fa 3d e3 f9 1b 3e d2 b9 e0 3b
       0.0381914 0.12211309 0.15232043 0.006858089
0001c0 20 65 d2 3c 18 ee ee 3d 6f fd 40 3d fb d2 82 3d
       0.025682986 0.116665065 0.047116693 0.063878976
0001d0 72 96 8d 3d 7d 19 36 bd b0 00 7a 3d e9 2a 31 3d
       0.06913461 -0.0444579 0.061035812 0.043253813
0001e0 b9 60 57 bc ef 52 9b 3e 12 f8 70 3e 8d 47 ff bd
       -0.013145619 0.3033671 0.23532131 -0.12464819
0001f0 22 be 94 be 46 c4 ab bd ab 7f 3d be 37 3b ab bd
       -0.2905131 -0.083870456 -0.18505733 -0.08360904
000200 17 86 4e bd af 44 7e 3e 8f 84 42 3d 88 f1 d0 bd
       -0.050420847 0.24830888 0.0474897 -0.102023184
000210 e6 33 a3 bd 75 e4 d5 3d 69 34 4f 3e fe 72 9e 3d
       -0.07968883 0.10443965 0.20234837 0.07736777
000220 8c a7 0d 3e 45 6d d5 3c 82 c3 ed bc d5 d4 88 3d
       0.13833445 0.02605308 -0.02902389 0.066812195
000230 a7 f1 59 3d 4d 97 1a be 4c 3f a1 bd e8 e8 80 bb
       0.053208973 -0.15096779 -0.07873401 -0.0039340146
000240 87 57 c4 3e b5 fc 83 bd 76 5e 24 3d 38 a7 60 3e
       0.38348028 -0.064446844 0.040129147 0.21938789
000250 4e 74 e9 3d 97 46 34 3e 7f cc 61 3d 1b c3 03 3d
       0.113991365 0.17605053 0.055126663 0.03216849
000260 cb 7d 53 3d aa 9d e8 bd 24 9d a5 3d 38 03 ae bd
       0.051633637 -0.11358197 0.08086613 -0.08496708
000270 05 4a f8 3d 70 c7 16 3c 57 80 5d 3d a9 7a cc 3c
       0.12123493 0.009202823 0.054077473 0.024960833
000280 43 0f bb 3c e4 b8 86 bd 7d b5 3a 3e 1a 7f 4a be
       0.022834426 -0.06578234 0.18233295 -0.19775048
000290 57 be bd 3e f6 3f e9 bd 20 43 ac bd 39 bb d9 bd
       0.3705928 -0.11389153 -0.084112406 -0.10631413
0002a0 6b f5 a9 3d e8 b9 f1 3d 80 36 45 be 93 75 0d 3e
       0.08298763 0.11803037 -0.19259071 0.13814382
0002b0 ee 82 99 3d e3 fa 20 bd 36 86 b2 bd 68 c4 6c 3e
       0.07495676 -0.039301764 -0.08717005 0.23121798
0002c0 d4 a6 ee bd a3 a0 17 be 2e 73 ef bb fb 52 0e 3e
       -0.11652914 -0.14807372 -0.0073074317 0.13898842
0002d0 95 12 bf bd e3 c8 68 3e e8 ac a6 3d 2a b3 2e be
       -0.09329716 0.22732882 0.08138448 -0.17060533
0002e0 dd 1b a6 3c 33 63 1e 3d 2c 10 d6 bc 5a 6a 30 3e
       0.020276958 0.038668822 -0.026130758 0.1722807
0002f0 66 ae ee bd 2e 65 36 3d bb b3 dd bd 86 c7 85 bd
       -0.116543576 0.044530086 -0.108252965 -0.06532197
000300 dd 1b 75 be ad eb 67 3e a5 4e 36 3e 6b 1d cb 3d
       -0.2393641 0.22648497 0.17803438 0.099177204
000310 75 9d 53 3d 97 df f7 bc 51 3d 0f 3e d5 f0 44 3d
       0.051663835 -0.030257983 0.13988234 0.048081238
000320 59 4d f5 bd c3 7d ce ba ad c1 91 bb fa fc d8 bc
       -0.119776435 -0.0015754033 -0.004448137 -0.026487816
000330 d1 26 4a 3d bd 29 83 bd da c8 55 be 09 87 ac bd
       0.049353424 -0.06404445 -0.208774 -0.084241934
000340 d9 e7 5c bd 82 6e 67 be e8 5d d8 bc 79 89 e6 3d
       -0.053932045 -0.22600749 -0.026411965 0.112566896
000350 a5 5a 11 3e ff 3f bd 3d 35 d7 23 3e e9 d3 15 bc
       0.14194734 0.09240722 0.16000064 -0.009144762
000360 48 eb 02 3d 01 c5 90 be b7 44 8e 3d 78 75 c9 ba
       0.031962663 -0.28275302 0.069467 -0.0015370091
000370 2e a9 8c 3e f1 5e d7 bb 98 55 b7 3c ae e0 1e 3e
       0.27472824 -0.006572597 0.022379681 0.15515396
000380 1c 2f b9 bd 19 df 5b 3e c1 92 14 39 7c d1 d9 bc
       -0.090421885 0.21471824 0.0001416905 -0.026589148
000390 8b ed c6 bc 3f 77 04 be 12 a0 08 3e 40 b4 18 bd
       -0.024283191 -0.12936114 0.13342312 -0.037281275
0003a0 7e 60 40 3e bd fe 63 3c 12 86 b7 3c a0 13 6f 3c
       0.18786809 0.013915715 0.022402797 0.014592081
0003b0 ec 04 48 3c ac e7 40 bd 06 60 c7 bd 5c 2b 1f bd
       0.012208205 -0.04709594 -0.09735112 -0.03885971
0003c0 f3 b4 a0 bd 7e dd 1e bd b9 bb f1 bc 6d da 78 3e
       -0.07847013 -0.03878545 -0.029508458 0.24302073
0003d0 df 57 1c 3e 06 04 86 bd a0 db cc bc 86 02 ef bc
       0.15267895 -0.06543736 -0.02500707 -0.029176008
0003e0 b7 cf 60 bd f1 f4 46 3d bf 18 97 3d 75 50 dd 3d
       -0.054885592 0.048573438 0.07377767 0.108063616
0003f0 26 61 52 bd 83 b8 05 3e 79 53 2f be d9 ef 01 bc
       -0.05136218 0.13058667 -0.17121686 -0.007930719

bn1.running_var f4 [504]
000000 f0 a5 06 40 cb a9 dd 3f be 2e c9 3f 12 f2 2b 40
       2.103878 1.7317442 1.571739 2.6866498
000010 ae 03 ba 3f a3 c2 f5 3f 7c 59 b7 3f b1 44 ce 3f
       1.4532373 1.9200023 1.4324183 1.6114713
000020 d2 63 03 40 3a e8 03 40 d9 39 1e 40 de 83 8e 3f
       2.0529675 2.061049 2.4722807 1.1133993
000030 f0 b2 b2 3f 7f 41 c4 3f da 9b b2 3f 83 dd c5 3f
       1.3960857 1.5332488 1.3953812 1.5458225
000040 57 89 12 40 95 0a f1 3f c4 d9 9b 3f 86 9e 02 40
       2.2896326 1.8831354 1.2175832 2.0409255
000050 8d 52 c7 3f a2 19 e4 3f 3f 53 32 40 19 5b 03 40
       1.5572067 1.7820323 2.786331 2.0524352
000060 30 3e 9a 3f 0d f2 03 40 38 6f 98 3f fc 34 0c 40
       1.2050228 2.0616486 1.1908941 2.190734
000070 e5 d5 da 3f 76 30 e1 3f 12 87 cb 3f db ad 0b 40
       1.7096525 1.7592914 1.5900595 2.1824863
000080 b7 24 f5 3f 1c 0b 0b 40 fe 1d d0 3f aa 1c e2 3f
       1.915183 2.172553 1.6259153 1.7664998
000090 32 e5 cf 3f 4d 97 df 3f 87 49 c5 3f aa c2 05 40
       1.624182 1.7468048 1.5413064 2.0900064
0000a0 4d 9d 87 3f 39 cc 8d 3f 0a 67 1c 40 f4 54 1a 40
       1.0594879 1.1077949 2.443789 2.4114351
0000b0 51 86 f6 3f 7b c8 db 3f 4c c5 e5 3f c9 3b 1e 40
       1.925974 1.7170557 1.7950835 2.472399
0000c0 a3 1c 33 40 48 0b e2 3f b1 2f ec 3f 08 ac 2d 40
       2.7986228 1.7659693 1.8452054 2.713625
0000d0 af 25 07 40 a6 0e 03 40 32 41 18 40 69 4b 8f 3f
       2.111675 2.047769 2.3789792 1.1194888
0000e0 a3 21 dc 3f 67 3d 11 40 0f ec ea 3f d1 a7 d1 3f
       1.7197765 2.2693727 1.8353289 1.6379339
0000f0 c0 36 c6 3f 7b 06 16 40 54 a1 bc 3f 42 0b df 3f
       1.5485458 2.3441455 1.4736733 1.7425311
000100 b6 9b 9d 3f 49 a1 00 40 2a ec 15 40 41 c1 fb 3f
       1.2313144 2.009844 2.3425393 1.9668351
000110 53 ee 90 3f 5a ef a3 3f 78 80 05 40 84 38 d1 3f
       1.1322731 1.2807419 2.085966 1.6345372
000120 39 30 cd 3f 26 86 f3 3f 51 e1 02 40 54 3a f1 3f
       1.6030341 1.9025314 2.0450022 1.8845925
000130 22 a8 e0 3f 8d e1 c5 3f 6d 56 13 40 d5 97 18 40
       1.755131 1.5459458 2.30215 2.384267
000140 f5 57 ac 3f a9 f8 a7 3f 9c 4f b1 3f 18 e0 0c 40
       1.3464342 1.312276 1.385242 2.2011776
000150 ca d0 f8 3f 9c 44 07 40 a8 5f 37 40 63 22 9a 3f
       1.9438717 2.1135626 2.8652134 1.2041744
000160 a4 e4 d9 3f 1a 2f b5 3f 84 93 13 40 d1 b5 45 40
       1.70229 1.4154999 2.3058786 3.0892222
000170 ec a2 22 40 fa 79 de 3f df bb 03 40 e2 25 c0 3f
       2.541194 1.7380974 2.0583417 1.5011561
000180 14 c0 d6 3f c1 94 0c 40 e8 b0 f5 3f 99 cd f6 3f
       1.6777368 2.1965792 1.9194613 1.9281493
000190 ea 2e f9 3f 07 71 c6 3f 0a 14 8d 3f 71 21 17 40
       1.9467442 1.5503243 1.102174 2.361416
0001a0 7e 4c 12 40 e7 8a ba 3f e4 73 9c 3f c1 32 09 40
       2.2859187 1.457364 1.2222867 2.1437228
0001b0 e1 35 cc 3f 99 c0 fc 3f ea bb 49 40 17 21 af 3f
       1.5953943 1.9746276 3.1520944 1.3681973
0001c0 2a 60 d1 3f ae 9f 0c 40 69 e4 23 40 d7 bd ee 3f
       1.6357472 2.197246 2.560816 1.8651685
0001d0 f8 5f 87 3f 0c b5 08 40 2a 64 0a 40 c1 00 0f 40
       1.0576162 2.1360502 2.1623635 2.234421
0001e0 11 5b d0 3f ed 5a 0e 40 1e 81 c1 3f be dc e3 3f
       1.6277791 2.2242997 1.5117528 1.780174
0001f0 64 a4 fa 3f 72 3e cf 3f b9 d3 a9 3f f2 f1 28 40
       1.9581418 1.6190932 1.3267738 2.6397672
000200 b0 3a 06 40 c0 67 d2 3f bc 49 f7 3f b9 b1 e1 3f
       2.097332 1.6437912 1.9319377 1.7632362
000210 fb e0 d7 3f 3f 52 11 40 17 3c c1 3f a2 54 f7 3f
       1.6865534 2.270645 1.5096463 1.9322703
000220 87 22 ca 3f e2 8a b9 3f 55 00 44 40 86 26 2c 40
       1.5791787 1.4495509 3.0625203 2.6898513
000230 eb 67 c8 3f 23 3a d4 3f 00 6b cd 3f 26 cf e2 3f
       1.5656713 1.6580242 1.6048279 1.7719467
000240 eb 46 ec 3f 62 86 ec 3f 9b 1e b8 3f 4f 8e a9 3f
       1.8459142 1.847851 1.438434 1.3246554
000250 3d 34 90 3f 5d 89 15 40 81 83 f7 3f ad e2 d5 3f
       1.1265942 2.336509 1.9337007 1.6709801
000260 1a cd d5 3f e0 7d 02 40 8b f2 af 3f e7 d1 c2 3f
       1.6703217 2.0389328 1.3745893 1.5220307
000270 66 11 8d 3f 52 08 bb 3f c8 20 d1 3f cc 10 ac 3f
       1.1020935 1.4611914 1.6338129 1.3442626
000280 6e e8 1a 40 ee e2 fc 3f 17 57 65 3f db 25 0e 40
       2.4204364 1.9756753 0.89586014 2.2210605
000290 9f 25 0f 40 58 67 b7 3f 0f a7 e6 3f e5 53 1f 40
       2.2366712 1.4328413 1.8019732 2.4894955
0002a0 4e d4 9f 3f e9 d1 16 40 7d 64 d2 3f 86 db fb 3f
       1.2486665 2.356562 1.6436917 1.9676368
0002b0 a5 d9 e1 3f b8 4e 17 40 be c5 2c 40 19 a7 1d 40
       1.7644545 2.3641796 2.6995692 2.4633238
0002c0 e6 22 07 40 5e 77 91 3f f5 ce ce 3f 3d 2f 2a 40
       2.111505 1.1364553 1.6156908 2.6591332
0002d0 c9 19 01 40 7c ce ca 3f 6a 3e 8e 3f 03 14 ce 3f
       2.0171988 1.5844264 1.1112797 1.6099857
0002e0 a3 de 8b 3f e7 e1 c0 3f 3d 43 d0 3f 03 11 c9 3f
       1.0927318 1.506894 1.627052 1.5708317
0002f0 55 42 fa 3f 2e e8 cd 3f 65 5d 0e 40 e6 3b dd 3f
       1.9551493 1.6086481 2.2244503 1.7283905
000300 a7 7a e7 3f 50 81 da 3f c6 ce e8 3f 42 25 fe 3f
       1.8084306 1.7070713 1.8188102 1.985512
000310 3e 4a 01 40 81 93 17 40 17 3d e6 3f 2c c1 a1 3f
       2.0201564 2.368378 1.7987393 1.2637076
000320 bf 10 a3 3f 06 3b db 3f fb 2c b7 3f 62 9a 02 40
       1.2739486 1.7127388 1.4310602 2.0406728
000330 e6 78 f5 3f 9c 99 01 40 7e 2b f8 3f 41 99 ba 3f
       1.917752 2.0250006 1.9388273 1.4578019
000340 97 f0 7d 3f 88 50 1f 40 35 fb 8d 3f 60 66 ca 3f
       0.99195236 2.4892902 1.1092287 1.5812492
000350 f4 ea ea 3f fc 89 4a 40 93 8d 13 40 2f 92 7d 3f
       1.8352952 3.164672 2.305516 0.99051183
000360 b5 78 13 40 82 0a c9 3f f3 12 9d 3f 1d 08 de 3f
       2.3042424 1.5706332 1.2271408 1.7346226
000370 b5 90 f3 3f 2f 65 14 40 df e6 f0 3f 5e b7 1f 40
       1.9028536 2.3186758 1.8820456 2.4955668
000380 91 a6 e1 3f 46 d4 cf 3f a0 0d 1a 40 91 3b 0b 40
       1.7628957 1.6236656 2.4070816 2.1755106
000390 2e b3 c4 3f 58 55 d6 3f 4a 22 cd 3f fc 70 c8 3f
       1.5367181 1.6744795 1.6026089 1.565948
0003a0 cf de bf 3f ba 52 04 40 41 f4 2f 40 05 c5 ad 3f
       1.4989871 2.0675492 2.749283 1.357575
0003b0 0f 21 d6 3f 2e 22 c5 3f e5 13 05 40 86 b1 0c 40
       1.6728839 1.5401056 2.0793393 2.1983352
0003c0 5d 48 f8 3f b4 70 09 40 64 73 ab 3f 39 d9 09 40
       1.9397084 2.1475039 1.339459 2.1538832
0003d0 60 86 a9 3f bf e7 f1 3f 08 27 8c 3f b4 2e ce 3f
       1.3244133 1.8898848 1.0949411 1.6108003
0003e0 a9 6d d4 3f 32 ff c0 3f 26 ce f4 3f 82 06 bd 3f
       1.6595966 1.507788 1.9125412 1.4767611
0003f0 91 1e 0d 40 cb fc 7c 3f 1a 8a c5 3f 26 28 08 40
       2.2049906 0.9882323 1.543277 2.1274505

bn2.weight f4 [248]
000000 b2 95 85 3f 9a 48 5e 3f 99 2b d3 3f 29 bf 7d 3f
       1.0436308 0.8682953 1.649768 0.9911981
000010 61 ee 01 3f 32 68 19 3f a8 53 a7 3f 3b 4d 4c 3f
       0.5075436 0.59924614 1.3072405 0.79805344
000020 b5 40 22 3f 95 5f 10 3f fa 27 05 3f e8 46 77 3f
       0.63379985 0.56395847 0.52014124 0.9659257
000030 5b 03 87 3f a3 1e 84 3f 97 b9 81 3f 4f 87 fa 3d
       1.0547899 1.032185 1.0134763 0.12232839
000040 ba 04 66 3f 1d 2e 63 3e 6e ca 7f 3f d1 72 ca 3e
       0.8985096 0.2218556 0.9991826 0.39540723
000050 05 db 9d 3f 50 05 0c 3f dc 41 86 3f fa 88 17 3f
       1.2332464 0.54695606 1.0488849 0.59193385
000060 b0 a8 84 3f 02 c7 6c 3f a9 26 7c 3f 1e c4 37 3f
       1.0363979 0.9249116 0.9849649 0.71783626
000070 ca 83 94 3f 8c 0b 0f 3f 7a b6 27 3f 75 d7 4f 3f
       1.1602719 0.55876994 0.6551281 0.81188136
000080 44 f7 51 3f c1 0d 81 3f 9d b5 87 3f a3 91 fd 3e
       0.8201792 1.0082322 1.0602299 0.49525174
000090 e1 85 b6 3f 5d fa 17 3f 2e 17 4f 3f 28 58 2a 3f
       1.4259607 0.593664 0.80894744 0.66540766
0000a0 d0 9b 5b 3f 10 12 5b 3f 57 73 57 3f 58 64 4d 3f
       0.85784626 0.85574436 0.8416037 0.8023124
0000b0 5a 56 49 3f 64 85 63 3f bc 98 82 3f bb 6d 8f 3f
       0.7864739 0.8887541 1.0202861 1.1205362
0000c0 0c a8 2c 3f 63 df 60 3f 8a bc ad 3f 85 8a f6 3e
       0.6744392 0.8784086 1.3573163 0.48152557
0000d0 5f b5 e7 3e 57 04 7e 3f c2 00 18 3f 39 77 21 3f
       0.45255563 0.9922537 0.59376156 0.63072544
0000e0 61 15 94 3f ad 45 4c 3f 53 51 4d 3f 23 fd 53 3f
       1.1569024 0.79793817 0.80202216 0.8280813
0000f0 8a 0b 43 3f 1f d9 38 3f 7d be 5f 3f 70 ea a3 3f
       0.7618948 0.722063 0.8740004 1.280592
000100 53 bc 28 3f 4c c9 f8 3e 65 b5 a1 3f b9 c0 d5 3f
       0.6591236 0.48591077 1.2633482 1.6699439
000110 33 50 2f 3f 73 36 8f 3f 97 a1 ac 3f 0d 82 2e 3f
       0.6848175 1.1188492 1.3486813 0.6816719
000120 24 a8 2e 3f 96 7b e8 3f 09 c5 3b 3f f8 f4 53 3f
       0.6822531 1.8162715 0.73347527 0.8279567
000130 b7 9f 3c 3f af 7b 13 40 58 87 33 3f 95 47 9b 3f
       0.73681206 2.304424 0.70128393 1.213122
000140 64 8e 7c 3f 16 cf 98 3f 2f 02 f5 3e 13 ba 8b 3f
       0.9865477 1.1938198 0.47853228 1.091616
000150 bd fa a2 3f 97 b9 86 3f b8 db 0d 3f 49 88 99 3f
       1.2732769 1.0525388 0.5541339 1.1994716
000160 7e 6c 85 3f 56 fd 0e 3f 86 8e 7c 3f cb d2 66 3f
       1.0423734 0.5585531 0.98654974 0.90165395
000170 17 64 40 3f 1f 58 46 3f 69 57 a9 3e 2d f8 46 3f
       0.75152725 0.7747821 0.330745 0.77722436
000180 f6 18 76 3f 48 47 7f 3e 77 15 67 3f 5f 52 95 3f
       0.9613184 0.24929535 0.9026713 1.1665763
000190 a5 a3 25 3e df 8c bc 3e 69 3e 94 3e bf fa 34 3f
       0.16175707 0.36826226 0.28953865 0.7069511
0001a0 89 f3 42 3f 07 0d 36 3f 1c 44 48 3f 9e fe e3 3e
       0.76152855 0.7111363 0.78228927 0.44530195
0001b0 f5 0a 43 3f 9e 22 76 3f f1 3e 12 3f 07 6c 81 3f
       0.76188594 0.9614657 0.5712729 1.0111092
0001c0 9e fb 6b 3f 29 c5 2c 3f 7f 95 60 3f 67 64 91 3f
       0.9218081 0.6748834 0.8772811 1.1358765
0001d0 77 d6 8b 3f fc e7 26 3f 12 e6 77 3f 52 3e 60 3f
       1.0924824 0.6519773 0.96835434 0.87595093
0001e0 9f 5f 67 3f a4 41 4e 3f df 2a 4f 3f 80 2f 41 3f
       0.9038028 0.8056891 0.8092479 0.75463104
0001f0 8e 96 64 3f aa bb 27 3f 7c 9f 5d 3f de 94 6a 3f
       0.8929223 0.6552073 0.8657148 0.91633403
000200 8b 33 a8 3e c8 d6 94 3e 38 fb 98 3f e7 6a 42 3f
       0.32851824 0.29070115 1.1951666 0.7594437
000210 01 78 6b 3f c7 15 f9 3f d2 d9 86 3f da 65 f4 3e
       0.91979986 1.9459771 1.0535223 0.47733957
000220 b5 85 8c 3f 2c a7 52 3f 2e 45 83 3f e0 25 aa 3e
       1.0978304 0.82286334 1.0255487 0.3323202
000230 b7 f7 9f 3f bd bd 82 3f 7b 10 a9 3f fb 50 0f 3f
       1.2497472 1.0214154 1.3208154 0.5598294
000240 a1 9f 16 3f 70 ba 9e 3f a8 7d 00 3e cf 37 7c 3f
       0.58837324 1.2400646 0.12547934 0.9852266
000250 37 83 d0 3e 22 70 57 3f a0 0c 81 3f c9 01 94 3f
       0.4072511 0.84155476 1.0081978 1.1563045
000260 b5 32 2f 3f 99 ec 8d 3f 40 37 45 3f 96 71 da 3e
       0.6843675 1.1087829 0.7703743 0.42664784
000270 cc 35 97 3f b8 9f 2c 3f e9 73 fa 3e 3a 69 ee 3e
       1.1813293 0.6743121 0.48916557 0.46564656
000280 d9 b6 30 3f 60 64 77 3f 8a 04 3f 3f d1 a4 3d 3f
       0.69029003 0.96637535 0.746163 0.74079615
000290 5e e5 62 3f 8d b6 b0 3e b9 50 90 3f e3 c4 33 3f
       0.88631237 0.34514275 1.1274635 0.702223
0002a0 d1 10 ba 3f 05 99 2b 3f fa a1 ae 3f e9 05 6b 3f
       1.4536382 0.67030364 1.3643181 0.91805893
0002b0 d8 4f 5c 3f 3d 0e 12 3f 43 70 45 3f d5 f7 c9 3e
       0.8605933 0.57052976 0.7712442 0.39446893
0002c0 0c 4a 9e 3f 63 84 06 40 1f cc c4 3d 4a ad 12 3f
       1.2366347 2.1018302 0.096092455 0.5729567
0002d0 97 26 a2 3f d6 0d 0f 3f 31 14 00 3f 99 26 bd 3e
       1.2668027 0.55880487 0.5003081 0.3694351
0002e0 ef b0 2b 3f 5a a3 d5 3f 1a 00 b3 3e 58 f6 82 3f
       0.67066854 1.6690476 0.34961015 1.0231428
0002f0 09 fd 70 3f 91 f9 03 3f 7a 14 3a 3f 6b a6 23 3f
       0.941361 0.51552683 0.72687495 0.6392581
000300 45 18 23 3f 62 a2 90 3f fc 9f 71 3f 21 a0 46 3f
       0.6370891 1.1299555 0.9438474 0.7758809
000310 5e 0d e4 3e 2f f1 70 3f 70 85 02 3f 47 d9 79 3e
       0.44541448 0.94118017 0.5098486 0.24399291
000320 37 23 b2 3f 24 3d 23 3f 43 50 9e 3f 21 98 35 3f
       1.3916997 0.6376517 1.2368244 0.70935255
000330 72 67 9f 3f 95 51 89 3e 67 22 26 3f ce ed 3c 3f
       1.2453444 0.26820055 0.64896244 0.7380036
000340 09 0b e9 3e a5 04 3f 3f 8d 6a 1b 3f 8a 4a 88 3f
       0.45516232 0.7461646 0.6070946 1.0647748
000350 c0 c5 d1 3f 2e ee d9 3f 5f d1 53 3f c3 03 2d 3f
       1.6388474 1.7025812 0.8274135 0.67583865
000360 72 cf 2d 3f 48 34 50 3f ed 06 93 3f 21 8c 4a 3f
       0.6789466 0.81329775 1.1486489 0.7912007
000370 b7 46 ae 3f d4 8d c4 3f 50 9c 6f 3f 53 12 64 3f
       1.361533 1.5355783 0.9359789 0.8909046
000380 be 68 ed 3e a3 ec 7d 3f ee 3c 57 3f e7 2e 89 3f
       0.46368974 0.99189204 0.84077346 1.0717438
000390 ec 67 ff 3e bc 4c 25 3f 8d 4e 94 3f f9 ea 2f 3f
       0.49883974 0.6457021 1.1586472 0.68717915
0003a0 d4 bf cc 3e 45 ff a1 3f aa c7 42 3f 8e 3d f3 3e
       0.39990103 1.2656027 0.76085913 0.475079
0003b0 74 cf 80 3f f2 93 5e 3f 74 95 9d 3f 10 6b 3b 3f
       1.006331 0.86944497 1.2311234 0.7321024
0003c0 25 92 80 3f f6 7d 42 3f c9 fd 65 3f 73 2e 22 3f
       1.00446 0.7597345 0.8984037 0.63352126
0003d0 98 d3 a3 3f 4b 65 8b 3e 26 47 6a 3f 3d a2 9e 3f
       1.2798948 0.27225718 0.91514814 1.2393261
