src/facexpr/cGen+cDis/Version 1.0/weight/generador_final_cgan_human.pth (torch, 66530 bytes, 16 tensors)

etq.weight f4 [7, 93]
000000 81 e6 1f 40 0c fa 02 c0 eb 92 2a c0 fe 37 e9 bf
       2.4984438 -2.0465117 -2.6652172 -1.8220212
000010 cc 8b 34 40 37 6f 08 40 74 a2 66 c0 3b 84 0b 40
       2.8210325 2.131788 -3.6036654 2.1799457
000020 cb 70 34 40 26 96 14 c0 17 b9 32 c0 2a 9a 64 40
       2.8193843 -2.3216643 -2.792547 3.5719094
000030 93 b8 31 c0 ed e4 65 c0 04 c1 39 40 d6 12 89 c0
       -2.7768905 -3.5920975 2.9024057 -4.2835493
000040 e5 83 39 c0 8d df 09 c0 79 b4 3a c0 db 86 4e 40
       -2.8986752 -2.1542695 -2.9172652 3.226981
000050 7d 87 61 40 b7 f8 0f 40 bc 1f 07 40 bb 11 58 c0
       3.5238945 2.2495553 2.111312 -3.3760822
000060 a5 db 2c 40 94 fd 3e 40 65 49 4b c0 c2 2f 32 c0
       2.700906 2.9842272 -3.1763546 -2.784165
000070 d6 e8 30 c0 f3 d1 4f c0 1c 0e 4a c0 9b fa 33 c0
       -2.7642112 -3.2471893 -3.1571112 -2.8121707
000080 78 2a 20 40 6d eb 9c 40 73 a1 77 40 c5 67 48 40
       2.502592 4.9037385 3.869229 3.1313336
000090 2d 95 31 40 33 65 91 40 b5 60 1f c0 4d 9e 45 40
       2.77473 4.5436034 -2.4902775 3.087787
0000a0 ea 22 01 40 e1 82 1a c0 8e 56 14 c0 a3 4d 15 c0
       2.017756 -2.4142382 -2.3177829 -2.3328636
0000b0 61 e2 3c c0 73 56 39 c0 31 a2 33 40 21 e6 4a c0
       -2.951317 -2.8959014 2.8067744 -3.170296
0000c0 f8 7c 62 c0 81 f7 1e c0 e9 31 7d c0 0c 86 4f c0
       -3.5388775 -2.4838564 -3.9561713 -3.2425566
0000d0 9f 21 2b 40 81 cc 12 40 a2 2b 3c 40 e0 2b 21 40
       2.673927 2.293732 2.9401631 2.518303
0000e0 50 b1 18 c0 9c 89 31 40 96 08 12 c0 6c e4 02 40
       -2.3858223 2.774024 -2.281774 2.0451918
0000f0 5a 6b 70 c0 7b 98 23 40 96 be 1b c0 64 b2 80 40
       -3.7565522 2.5561817 -2.4335074 4.021776
000100 26 81 1f c0 98 69 55 c0 05 0e 1a c0 64 7e 1a c0
       -2.4922576 -3.33457 -2.4071057 -2.4139643
000110 b7 a9 16 c0 b2 68 33 c0 bf e1 05 40 10 c3 0f 40
       -2.3541086 -2.803265 2.0919034 2.2462807
000120 3c 89 88 40 a9 8e 41 40 7a d8 50 40 e8 63 77 40
       4.2667522 3.0243323 3.2632127 3.8654728
000130 f8 5e 0c 40 6f 8e 78 40 52 e2 17 c0 2c 6b 54 c0
       2.1932964 3.8836935 -2.3731885 -3.3190413
000140 7b f9 15 40 ac 4b 30 c0 a4 64 8a 40 e0 33 09 c0
       2.343352 -2.7546186 4.324785 -2.1437912
000150 a5 7d 23 40 f0 2d 72 c0 f3 20 23 c0 07 54 80 40
       2.5545437 -3.7840538 -2.548886 4.0102572
000160 dd e4 67 40 76 4e 25 c0 28 3f 06 40 c0 fc 1e 40
       3.6233437 -2.5829139 2.0976048 2.4841766
000170 b0 79 62 40 29 ee 97 3e 89 88 68 3f 0c b6 13 bf
       3.5386772 0.2967389 0.90833336 -0.57699656
000180 42 79 c5 bf ad 20 c9 3d cc 09 b1 bf 8f d6 cc 3e
       -1.542763 0.098206855 -1.3831115 0.40007445
000190 d3 fb 84 bf 41 c9 92 be 67 6d 5e 3f 9b cf 12 3f
       -1.0389351 -0.2866917 0.86885685 0.5734803
0001a0 24 d2 d1 be f2 cd 4a 3f 5e c8 68 3c 07 0b 74 bf
       -0.40980637 0.792205 0.0142079275 -0.95329326
0001b0 63 fa 09 c0 c0 69 0e 3f ed 05 84 bf 7c 5b 8c bf
       -2.1559074 0.5563011 -1.0314308 -1.0965419
0001c0 18 1e 1c 3e a0 ff dc bf ab f4 69 3f 33 6e e9 3f
       0.15245855 -1.726551 0.9138896 1.8236755
0001d0 fe bb 38 bf da 05 63 be a0 75 f4 be 98 84 6e 3f
       -0.72161853 -0.22170201 -0.4774599 0.9317107
0001e0 cd ba 87 bf 97 3d 56 be 76 29 96 bf 75 e4 1f 40
       -1.0603882 -0.20921932 -1.1731403 2.498319
0001f0 2e 0c a6 be a0 e9 a2 bf 86 fc d9 be fe c3 28 3c
       -0.32431167 -1.2727547 -0.42575473 0.010300634
000200 1d 89 12 c0 fb 57 a5 3f 1c 1d 9b be 49 97 fa 3f
       -2.2896187 1.2917475 -0.30295646 1.9577419
000210 4a 97 b3 be d7 06 93 3e 3b fb d2 3f 90 37 85 bf
       -0.35076362 0.28716156 1.648292 -1.0407581
000220 59 64 44 bf 1b f9 bc 3e 17 cc d8 bf 91 a4 27 c0
       -0.7671562 0.36908802 -1.6937283 -2.6194193
000230 a7 e8 3a bf b7 84 2e 3f 08 7d 03 40 ad 15 82 bf
       -0.7301125 0.68171257 2.0545063 -1.0162865
000240 e1 cd 16 bf d6 e5 8b 3f 04 99 a0 3f a6 c1 be 3e
       -0.58907896 1.0929515 1.2546697 0.37257117
000250 12 29 55 bf df 47 57 bf fc a5 2f bf bd a8 13 bf
       -0.83265793 -0.8409404 -0.6861265 -0.5767935
000260 d6 a1 e6 bf 82 28 2c 3f a7 c1 a0 3f 2a 22 f2 3e
       -1.8018138 0.6724931 1.2559098 0.4729169
000270 36 19 99 3f db e6 d2 bf d1 55 be bf ec 4e 80 3f
       1.1960819 -1.6476701 -1.4869939 1.0024085
000280 93 28 db bf 6a 92 c4 3d e4 f1 25 bf 9a 7c 96 be
       -1.7121757 0.09598239 -0.6482222 -0.29391938
000290 4a f3 10 c0 64 98 b2 3f f9 72 1c bf 95 fb e3 3e
       -2.2648492 1.3952756 -0.61112934 0.4452788
0002a0 2b ff 70 be 1c 0b bb bf dc 9f 03 3f cc d7 17 bf
       -0.23534839 -1.4612765 0.514158 -0.59313655
0002b0 e4 11 bf be 2e 35 37 3f 7a 6d 67 3f dd 81 c4 bf
       -0.37318337 0.7156552 0.9040142 -1.5352131
0002c0 6c e4 18 40 77 d6 ea be 85 7d a2 bf bb a0 56 3d
       2.3889418 -0.4586675 -1.2694556 0.05239938
0002d0 89 ed 77 3e 4a b9 8f bf e5 cd 13 c0 d4 a5 91 3f
       0.24211706 -1.1228421 -2.3094418 1.1378732
0002e0 05 01 aa 3e 37 5f 86 bf 7d bd c1 bf 10 25 08 3f
       0.33203903 -1.0497807 -1.5135952 0.5318155
0002f0 d1 ba dc bf 43 fa 0d 3d e7 62 d6 3f fd 32 5b 3e
       -1.7244512 0.034662496 1.6748933 0.21406169
000300 fd b2 80 3e 37 8b 21 c0 56 85 85 3e 4c cd af bf
       0.25136557 -2.524122 0.2607829 -1.3734527
000310 d8 b9 69 bf 9a 54 47 bf 92 6b 6f 3f 16 6b 73 bf
       -0.912992 -0.77863467 0.93523514 -0.95085275
000320 80 87 ab bb 96 b8 2f 3d 46 96 d8 3f 60 ee 42 3f
       -0.0052346587 0.042900644 1.692086 0.7614498
000330 cb 4b 1a c0 8a c3 c2 bf 4b 12 29 be e7 41 ad 3e
       -2.410876 -1.5215924 -0.16510884 0.33839342
000340 8b 56 25 3f bf 92 a8 be e5 2e 3e bf 87 df 14 40
       0.6458518 -0.32924458 -0.74290305 2.326143
000350 03 9a 6d 3f 04 b2 aa bf f1 b8 93 3f 40 df 2d bd
       0.9281313 -1.3335576 1.1540815 -0.042449236
000360 cf b7 44 3d 96 14 92 bf b0 7a 12 3f 81 d0 b6 be
       0.048026856 -1.1412532 0.57218456 -0.3570595
000370 97 fe 64 be f6 84 d6 3f ed 0f 2e 3d 7a db 18 3e
       -0.22362743 1.6759326 0.042495657 0.14927474
000380 32 fc 4d 3f 38 f8 ac be 63 86 2f bf f6 41 ca bf
       0.80462945 -0.33783126 -0.6856443 -1.580138
000390 d4 68 9f 3e c1 5f be bf b3 81 11 bd 5e 87 f3 be
       0.31134665 -1.4872972 -0.03552408 -0.47564214
0003a0 90 5d c9 3f 20 74 13 bf a1 b7 f5 be 8e 3b 8e 3d
       1.5731678 -0.5759907 -0.4799166 0.06944953
0003b0 d5 64 3b 3f e6 dd 97 3f 8a dd e3 bd e4 63 c4 be
       0.7320073 1.1864593 -0.111262396 -0.3835746
0003c0 ec ed 5a 3f 77 67 21 bf 2b fd 62 3f 77 ee 8f bf
       0.8551929 -0.630485 0.88667554 -1.1244649
0003d0 d5 59 df bf 53 ad 28 bf e2 b5 10 3f 27 8b 0d 3f
       -1.744929 -0.6588947 0.5652753 0.55290455
0003e0 9e cb 34 be 34 d8 6e 3f 49 04 85 be a7 12 06 be
       -0.17655799 0.9329865 -0.25979832 -0.13093053
0003f0 3f c0 50 bf 5f e6 6d be 65 f2 bb 3e e4 ca a3 be
       -0.81543344 -0.23232411 0.3670837 -0.3199073

etq_extra.weight f4 [93, 93]
000000 d7 ab 8f bd 82 6b 09 3b 93 21 45 3d 78 26 c5 3d
       -0.07015198 0.002096862 0.048127722 0.09626478
000010 e8 f1 a0 3d 43 89 b1 3d 93 69 0f bd 3f 7e 92 bd
       0.0785864 0.08668759 -0.035012793 -0.07152986
000020 df 01 a3 bd 36 79 87 bc 03 d4 8d 3c 94 d9 0f bd
       -0.07959341 -0.01653729 0.01731301 -0.035119608
000030 cf d4 9a bb 3b 29 ee bc 11 32 89 3d 1c b3 a2 bc
       -0.004725076 -0.029072395 0.066990025 -0.019860797
000040 7a 99 8d 3d d1 03 84 3d e3 4d e1 3d b0 99 ab 3d
       0.06914039 0.064460404 0.11001184 0.08378923
000050 cf 71 bd 3d d4 30 b6 3c 99 fd 23 3c 6c 9a c3 3d
       0.09250223 0.02224008 0.010009193 0.09550938
000060 3a 49 bd 3d 01 91 90 3d a6 8c b9 bd f4 23 26 3d
       0.092424825 0.07058907 -0.0906003 0.04056163
000070 b9 09 90 bd 0b 33 8b bd 32 02 b3 bd 35 48 91 3d
       -0.070331044 -0.06796845 -0.08740653 0.070938505
000080 01 9a e1 3a bb 8f f0 3c c9 68 2e 3d e8 78 9f 3d
       0.0017212034 0.029365411 0.0425804 0.07786733
000090 79 12 d9 bd 2e ff c7 bc d7 39 d0 3d 0a 32 99 bd
       -0.105992265 -0.024413671 0.10167282 -0.07480247
0000a0 25 3f 7a 3b 4a 83 4c 3d 6b 12 53 3c ac f6 98 bc
       0.003818461 0.049929895 0.012882809 -0.01867231
0000b0 8f b9 49 3d ef 62 36 3d fe 7e 9d bd f5 42 8f 3d
       0.049249228 0.044527944 -0.076902375 0.06995193
0000c0 65 00 93 bd 4a af d2 3d c6 c7 a6 3d 0b 94 6f bd
       -0.071778096 0.1028734 0.081435725 -0.058490794
0000d0 68 29 56 bb b5 04 cf bd cb 2c 15 3d 2d 4a 73 3d
       -0.0032678489 -0.1010832 0.03641967 0.05939691
0000e0 5e be b6 3d fa bd 8a 3c b9 79 6f 3d b4 6d 4e bd
       0.089230284 0.016936291 0.058465693 -0.05039759
0000f0 11 d5 45 3d 6e 3f 64 bd 2c 87 1c bc 7d 59 6f 3b
       0.0482989 -0.055724554 -0.009553712 0.0036521845
000100 ee 75 cb 3d f3 98 1e 3d 10 cd b1 bd d9 95 25 3d
       0.09934603 0.038720082 -0.08681691 0.04042611
000110 c9 12 94 3a ae b6 73 bd 86 a2 aa bd 82 af 96 bd
       0.0011297102 -0.05950039 -0.0833178 -0.07357694
000120 6d 27 58 3c c2 ce 9f 3d 2d 66 62 bd e1 a4 e3 bd
       0.013192994 0.07803108 -0.055273224 -0.111154325
000130 75 bb c9 bc 80 ae a2 3d 3d df 3b bd 00 ac 8c bb
       -0.02462552 0.079434395 -0.045867193 -0.004292965
000140 47 ce 2a 3d 90 a1 9b 3d 94 39 7d bd 65 67 2a bc
       0.041700628 0.07599175 -0.06182249 -0.010400628
000150 09 99 51 3c 09 e8 95 3b 33 57 4a bd 4a 72 e6 3c
       0.012792834 0.00457478 -0.049399566 0.02813067
000160 7f 02 66 3c f0 c2 0c 3d 68 5e bc 3d 38 81 2e 3d
       0.014038681 0.034365594 0.09197694 0.0426037
000170 ac 06 b4 3d c2 27 57 3d 97 c0 cd 3d b1 42 6c bd
       0.08790335 0.05252815 0.10046499 -0.05768079
000180 5a c1 8f bd ac c3 31 bd f9 5c a3 3d 09 05 c1 3d
       -0.07019301 -0.043399498 0.079767175 0.094247885
000190 69 81 e5 3c f8 38 d6 bb 84 70 1f bc d4 0f ec bc
       0.02801581 -0.006537553 -0.009731416 -0.028816141
0001a0 d1 53 6c bd 37 d3 87 bc 7a f6 e4 3c 11 7f 0d 3d
       -0.05769712 -0.016580207 0.02794956 0.034545008
0001b0 9f 6e 76 bd ef 6e fb bc 4b fe 93 3c 4d f7 65 3d
       -0.06016409 -0.030692546 0.018065592 0.056144048
0001c0 ab b0 a7 3b 67 22 67 bc f2 1f 17 3d d9 14 ba 3d
       0.005117496 -0.014107323 0.0368957 0.090860076
0001d0 60 be be 3d 02 be 54 bd 86 e8 76 3b 30 05 d4 bc
       0.09313655 -0.051939018 0.0037675216 -0.02588138
0001e0 83 68 a4 3d ab 31 33 3d a6 1b 60 bd 4c cc bd bc
       0.080277465 0.04374854 -0.054713868 -0.023168705
0001f0 89 b1 0f bd 4c 33 a5 3d d0 85 43 3c 4c 08 c1 3c
       -0.03508142 0.08066425 0.011933759 0.023563527
000200 51 f5 be 3d 50 f9 18 bd 96 42 26 bd 4b 6c 5c 3d
       0.09324134 -0.037347138 -0.040590845 0.053814214
000210 bf 6b 2c bd a2 6b ce bd d2 28 8b bd c7 88 25 bc
       -0.042094942 -0.10079123 -0.06794895 -0.010103411
000220 d2 3a 4d 3d 67 c1 d2 bd d8 2a f8 3c ef 04 bd bd
       0.050104924 -0.10290795 0.030293867 -0.09229457
000230 aa 91 da bb 24 01 5e bd 60 8b 78 bd b9 9d b6 3c
       -0.0066701965 -0.054200307 -0.060679793 0.022292005
000240 bc 3e d4 3d e0 6d 58 3c 16 f3 a1 bd 4d 2c 40 3c
       0.10363528 0.01320979 -0.07907693 0.011729312
000250 d8 ac b9 3d 6c ef bb ba bc 5b c3 3d 80 e9 bb bd
       0.090661705 -0.0014338321 0.09538981 -0.09175396
000260 95 61 89 bc 5f aa a9 3d f7 8f 1f bd 8e 03 b5 3d
       -0.016770164 0.08284449 -0.038955655 0.08838569
000270 af 2c b0 3d 94 27 aa bd 17 1a 8c bd a6 74 84 3b
       0.08602273 -0.0830833 -0.06840914 0.004042226
000280 60 16 bf 3d 1b 8e 45 bd 14 82 76 3d 7b 96 7f 3d
       0.093304396 -0.048231225 0.060182646 0.06239937
000290 3b 75 a0 3c 91 52 08 3d b1 6b b4 3d f2 b2 db bd
       0.01958715 0.033281866 0.08809603 -0.107274905
0002a0 66 d6 18 3b 8a ae a1 bd e5 b4 72 bd ef 70 b2 3d
       0.002332115 -0.07894619 -0.059254546 0.087129466
0002b0 a8 ee b5 3a b8 ee 7c 3d a2 d6 8d 3d 69 1e d8 3b
       0.0013880329 0.061751097 0.069257036 0.006595422
0002c0 89 98 1a bd da 69 c3 bc 34 af f7 bc a1 14 cc 3d
       -0.037743125 -0.023854185 -0.03023491 0.09964872
0002d0 24 21 1d bd 84 22 58 bc 0f 93 a6 bc 4f 0c e7 bc
       -0.038361683 -0.013191823 -0.020333795 -0.028204111
0002e0 7c d5 5f 3d 32 15 d2 3c 12 3f 51 bd 52 cf ab 3d
       0.054646954 0.025644872 -0.05108554 0.083891526
0002f0 08 b6 18 bd 65 9d cc bc 7a 0e 60 bd 0f 08 a1 ba
       -0.037282974 -0.024977395 -0.054701306 -0.0012285727
000300 6c 02 61 3d f8 e3 a1 3d 73 9d 5f bc 18 54 c8 bd
       0.05493395 0.0790481 -0.013648379 -0.097816646
000310 95 04 aa 3d 60 dd cd 3c c4 e8 c2 bd 58 5f b6 3d
       0.08301655 0.025129974 -0.09517053 0.08904904
000320 9a da 6d 3c e0 cd 92 bd 21 22 d8 bd 37 18 49 bd
       0.014517451 -0.07168174 -0.105533846 -0.04909536
000330 8f 49 8f bc f5 b9 50 3d c7 53 d2 3d e2 17 6a 3d
       -0.01749113 0.050958592 0.102698855 0.057151683
000340 34 e5 f1 bc c0 62 ae 3d 8d 9a 86 3c 81 01 1b 3b
       -0.029528238 0.08514929 0.016431117 0.002365202
000350 1a 09 07 3d ed 13 90 bd c9 ec c1 3d da 2b 6b 3d
       0.032967664 -0.070350505 0.09468991 0.057414867
000360 4d 6f c5 3d 81 4a 7d 3d d2 80 16 bd e9 64 f9 3c
       0.096403696 0.06183863 -0.036743946 0.030443626
000370 46 b3 b8 3d 56 c8 b0 bd dc 76 e9 bc e3 96 5e bd
       0.09018569 -0.08631961 -0.02849906 -0.054343116
000380 a9 35 bc bd 68 30 ac 3d 93 23 ae bc bc 22 de 3c
       -0.09189922 0.0840767 -0.021257197 0.027116172
000390 87 cf c5 bd 39 fa ca 3d f2 79 63 3d d3 23 4a bd
       -0.09658723 0.099110074 0.055536218 -0.04935057
0003a0 37 9c 7c 3d 3e c7 0f 3d b1 62 14 3d fe d8 99 bd
       0.061672416 0.03510212 0.036226932 -0.07512091
0003b0 0b aa 37 3d 91 9e 54 3d b6 8e 6f bd 0b 3e 73 39
       0.0448399 0.051909033 -0.05848571 0.00023197399
0003c0 c1 6e f5 bc 33 95 c5 3c e4 18 dd 3c c4 f9 46 bd
       -0.029960038 0.024118995 0.026989408 -0.04857804
0003d0 1d d8 d3 3d e1 d2 c7 bc bc b3 1f 3d 71 ff c6 3d
       0.10343955 -0.024392547 0.038989767 0.0971669
0003e0 99 75 f7 3c 65 81 9d bd f9 72 ef 3c 19 d0 9a 3d
       0.030207442 -0.07690696 0.029229628 0.07559223
0003f0 30 e5 ac 3d f5 9a 35 3c 63 71 c7 3b df 8c 5d 3d
       0.084421515 0.011084308 0.006086515 0.054089423

etq_extra.bias f4 [93]
000000 d2 18 a8 bd c7 6e 5c bd cb c0 41 3d 1f b1 77 3f
       -0.08207859 -0.053816583 0.047303002 0.9675464
000010 bb b7 eb 3e a6 07 20 3d be 94 64 bd 2b 05 d2 bd
       0.46038613 0.039069794 -0.055805914 -0.10254892
000020 8a be 4c 3d e6 5f 43 3d a2 48 0a 3d f1 38 b2 bc
       0.0499864 0.047698878 0.033760674 -0.021755667
000030 eb 62 9b 3d 59 be 50 3c a4 19 97 3c 13 67 97 bd
       0.075872265 0.012740695 0.018444844 -0.07392707
000040 68 e4 30 bd 2b 18 19 bd 42 56 b0 bd ac fd 70 3d
       -0.043186575 -0.037376564 -0.08610202 0.05883567
000050 cc e5 be bc b2 60 b6 3d 6c 86 2a 3b c4 fa a8 bd
       -0.023302935 0.08905162 0.0026020063 -0.08250955
000060 3d 5c 3f 3d b3 bb d1 bc f0 6e 85 3d e5 4c c5 bb
       0.046718825 -0.025602197 0.065153 -0.0060211294
000070 01 ee 16 3d 7a 68 b0 3c f9 c6 fa 3e ed 8d e9 bb
       0.036848072 0.021534193 0.4897993 -0.0071275146
000080 84 c0 dd bd 57 ee b5 bd 07 61 01 3f 39 69 ae 3b
       -0.10827735 -0.0888335 0.50538677 0.005322602
000090 85 9c ca bd 06 73 ff 3c 03 1c 73 3c 0c c9 31 3f
       -0.09893135 0.031182777 0.0148382215 0.694474
0000a0 61 62 bb 3e 9b bb 81 3c 81 06 de bd 87 10 88 bc
       0.36598495 0.015836528 -0.10841084 -0.016609443
0000b0 96 d6 3c 3c 66 a1 00 bd 0d ca bc bc 6d c4 8a bc
       0.011525771 -0.03140392 -0.023045564 -0.016939366
0000c0 12 01 c9 3b 44 4d 04 bd 18 4f 84 3d e0 27 ea 3c
       0.006134161 -0.03230025 0.064603984 0.028583467
0000d0 26 c6 e0 bd ce a8 56 bd f1 01 f3 bc 06 4a e5 bc
       -0.10975294 -0.05240708 -0.029664012 -0.027989399
0000e0 41 55 33 3d f1 37 52 3e 87 4d 87 3d 0a b5 c6 bd
       0.043782476 0.20529152 0.06606584 -0.09702499
0000f0 b6 0b 34 bd 3a 30 d0 3e 37 7c 95 3c 92 c2 09 3d
       -0.04395648 0.40661794 0.018247707 0.033632822
000100 7b 15 a0 3c 58 0a 55 3d 96 ed 38 3d 69 de 17 3f
       0.019541493 0.052011818 0.045148455 0.59323746
000110 12 2a 33 bd 55 1c aa 3d 5d 10 a5 3e f8 51 19 bc
       -0.043741293 0.08306185 0.32239047 -0.009357922
000120 31 29 a0 3d d0 60 87 3d 1f 4f d1 bd 59 23 b8 bb
       0.07820357 0.066102624 -0.10220169 -0.005619448
000130 c4 10 6d bd 12 52 be 3c 3a 2c ca bd ff 0e 8d 3d
       -0.057877317 0.023232494 -0.09871717 0.06887626
000140 06 c6 91 bd 68 36 0c 3d 7d af bc bb 99 0b b3 3d
       -0.07117848 0.034231573 -0.0057582245 0.087424465
000150 b2 1f 92 3c 70 f4 f5 bd a9 d7 02 3f ba d9 83 3c
       0.01783738 -0.120095134 0.5111032 0.016095031
000160 9f 84 b3 3d 84 bf 90 3d 27 3a 4c 3c 73 e6 81 bd
       0.0876553 0.07067779 0.0124650365 -0.06342783
000170 e7 0a 5f 3d
       0.054453757

bn1.weight f4 [504]
000000 0d 7b 6f 3e 14 25 d2 3f 13 d4 02 3f 0b 1b ae 3f
       0.23386784 1.6417565 0.5110485 1.3602003
000010 69 75 77 3f 09 20 b6 3f 7e 36 1b 3f 74 e3 7c 3f
       0.9666353 1.4228526 0.60630023 0.98784566
000020 fe e6 47 3f 24 63 4f 3f b4 3f 9c 3f 4b 2d 85 3f
       0.7808684 0.8101065 1.2206941 1.0404447
000030 32 15 bc 3e 55 37 39 3e b4 c5 b7 3e 81 7a 66 3f
       0.3673492 0.18087514 0.35893023 0.90030676
000040 60 7c e1 3e 2e bd f9 3e dd 78 91 3f b6 80 42 3f
       0.44040203 0.48777145 1.136501 0.7597765
000050 c2 81 a3 3f 77 ba 62 3f c5 55 e5 3f eb 91 37 3d
       1.2773974 0.8856577 1.79168 0.044816893
000060 56 5b 48 3f c2 8e 25 3f 70 89 80 3f f4 2a 67 3f
       0.7826437 0.64670956 1.0041943 0.90299916
000070 94 d0 d3 3e 50 23 03 3f 04 ac 3e 3f c4 f9 2d 3f
       0.4137007 0.5122576 0.74481225 0.6795924
000080 62 63 61 3f fd 77 1b 3f 6d 0c a3 3e 25 c4 53 3f
       0.8804227 0.6072996 0.31845418 0.8272117
000090 ef 1f 98 3f c2 02 9a 3f 5b 63 60 3f fd 25 15 3f
       1.1884745 1.2032092 0.87651604 0.5826109
0000a0 21 da 55 3f 27 f7 9b 3f 6a cc df 3e d0 69 99 3f
       0.83535963 1.21848 0.43710643 1.1985416
0000b0 3c 35 4b 3e b5 76 5e 3f 91 4c 57 3f 73 c2 b4 3f
       0.19844526 0.8689988 0.84101206 1.4121841
0000c0 ae c9 3b 3d 2e 0d c0 3f f1 8c 81 3f 3f e1 a6 3e
       0.045846634 1.5004022 1.0121137 0.32593724
0000d0 00 e2 0f 3d 83 70 49 3f 09 14 a9 3f bd 92 1b 3f
       0.03512764 0.78687304 1.3209239 0.6077078
0000e0 d1 35 ba 3f 0c 12 02 3f 1e 43 2c 3f 47 59 a2 3f
       1.4547673 0.5080879 0.6728991 1.2683495
0000f0 c0 94 9e 3f d5 e0 d9 3c 46 01 87 3f 76 82 05 3d
       1.2389145 0.026596466 1.0547264 0.03259512
000100 e2 d4 7d 3f da 7d 96 3f 1a 3f c8 3b ed 5c 55 3f
       0.9915296 1.1757157 0.006111038 0.8334492
000110 d8 68 aa 3f a4 ab 47 3f 45 92 8e 3f ac 9d 92 3f
       1.3313246 0.7799628 1.1138388 1.1454368
000120 8b 93 39 3f fd 08 4f 3f fd c5 a8 3e f2 22 61 3f
       0.7249076 0.8087309 0.32963553 0.8794395
000130 31 f8 8d 3f cc 21 92 3f 36 05 52 3e 9d 98 46 3f
       1.1091367 1.1416564 0.205098 0.7757662
000140 10 c0 70 3f 98 c2 94 3f 52 4b f6 be d3 13 ff 3f
       0.94043064 1.1621885 -0.4810434 1.9927925
000150 ed 5b 7d 3f 23 56 42 3d 02 5f 38 3f 3a e0 92 3f
       0.9896839 0.047445428 0.7201997 1.1474679
000160 50 64 b7 3f 78 c0 f2 3e f6 82 06 3f f3 75 12 3f
       1.4327488 0.47412467 0.5254358 0.57211226
000170 da 7b 93 3f 68 15 57 3e 65 e5 62 3f 4c 47 57 3f
       1.1522171 0.2100426 0.8863128 0.84093165
000180 20 0a 96 3f 88 dc 6a 3e 53 f5 78 3f 61 25 df 3e
       1.172184 0.22935688 0.97249335 0.43583205
000190 f9 2d 69 3f 0f 77 65 3f 85 90 aa 3b ce 29 48 3f
       0.91085774 0.89634794 0.0052052164 0.7818879
0001a0 b5 09 a1 3e 4e 5d 84 3f 0e 2b 0f 3f d2 85 66 3f
       0.31452718 1.0340974 0.5592507 0.90047944
0001b0 eb 2e 92 3f 7a 22 af 3e be 84 f4 3e 41 2f a6 3f
       1.1420568 0.3420599 0.47757524 1.2983171
0001c0 f5 47 b2 3f 71 6a 4f 3f 6f 3d 06 3f 1a 57 7f 3f
       1.392821 0.8102179 0.5243749 0.9974228
0001d0 16 c9 2b 3f 00 53 7e 3f 2f 0d d4 3e b2 a5 8a 3f
       0.6710371 0.993454 0.41416308 1.0831816
0001e0 25 43 9b 3f bd 79 47 3e 4f e7 ce 3d 2f 95 ed 3c
       1.2129866 0.19480033 0.10102712 0.0290018
0001f0 8e b1 8f 3e f8 c3 3a 3d 83 e3 07 3f cb 37 70 3f
       0.2806515 0.045597047 0.5308153 0.93835133
000200 db 98 26 3f 26 68 05 3f f0 04 91 3f 2a 56 32 3d
       0.6507699 0.5211204 1.1329632 0.043539204
000210 a2 12 52 3f 30 4a 81 3f 4c 97 8c 3f cc aa f5 3f
       0.8205968 1.0100765 1.0983672 1.9192748
000220 0e c0 3c 3f cb 25 49 3f 2a 34 53 3f 70 db 8b 3f
       0.7373055 0.7857329 0.8250147 1.0926342
000230 52 39 6e 3f 30 19 d0 3e bb 42 0d 3f 40 06 08 3f
       0.93056214 0.40644217 0.5517995 0.53134537
000240 33 a0 08 3f de ee 86 3f 32 52 c7 3e 0c f3 a0 3e
       0.53369445 1.0541646 0.38929898 0.3143543
000250 29 8d 8b 3e 00 ec 74 3f a0 1c 6d 3e ff df ed 3e
       0.27256134 0.9567261 0.23155451 0.46459958
000260 93 b9 22 3f 31 1c a4 3f c6 e8 f5 3e 21 6e b1 3e
       0.63564414 1.2821103 0.48029155 0.34654334
000270 94 d8 9b 3f 51 0e 0d 3f 57 5c 05 3f 3c b6 32 3f
       1.2175469 0.5509997 0.52094024 0.6980932
000280 43 d3 2c 3f ba 34 90 3f 0c 4b 57 3f b1 32 95 3f
       0.6750986 1.1266091 0.8409889 1.1656095
000290 51 55 b0 3f 4f de 00 3f 08 ff 81 3f cd 9d 68 3f
       1.3776037 0.50339216 1.0155954 0.90865785
0002a0 eb ae 29 3f dc 78 7b 3f f1 30 36 3f 65 34 01 3f
       0.6628253 0.9823129 0.7116843 0.5047057
0002b0 e2 74 be 3f af 10 78 3f 24 00 a8 3f 79 9d 2e 3f
       1.487942 0.9690046 1.3125043 0.68209034
0002c0 ec fa 85 3f 48 9d 5c 3f ff d0 c1 3f 02 d0 fc 3d
       1.04672 0.8617749 1.5141906 0.12344362
0002d0 c4 f0 fe 3d a2 2f 69 3f 0c d1 8c 3f 9f 04 0a 3f
       0.12448266 0.91088307 1.1001296 0.539133
0002e0 35 d4 d0 bc 0b 9b 4c 3d 68 8e 92 3f 6b 22 33 3e
       -0.025491813 0.049952548 1.1449709 0.17493598
0002f0 88 3c 38 3f a6 13 80 3d 90 78 5d 3f 58 a0 39 3f
       0.71967363 0.06253748 0.8651209 0.7251029
000300 ee ea 15 3f 39 c1 e0 3e 35 46 d4 3f 47 00 28 3f
       0.585616 0.43897417 1.6583925 0.65625423
000310 38 83 56 3f a0 c9 f9 3e bd 7c 6b 3f b6 8b 60 3f
       0.83793974 0.4878664 0.9198721 0.8771318
000320 e0 87 82 3f 33 fa 91 3e 74 3d 87 3f 18 ee 91 3f
       1.0197716 0.285112 1.0565629 1.1400785
000330 bb 18 93 ba c5 65 74 3d 7e 46 42 3f de 0c 73 3e
       -0.001122258 0.059667367 0.7588881 0.23735377
000340 6f 43 a2 3f 9e 4c 3d 3f 37 3b 1a 3f 51 5c 55 3c
       1.2676829 0.73945034 0.60246605 0.013022498
000350 18 3f 7d 3f 7d 30 c7 3e cc 8a 18 3e 3a 0e 3c 3f
       0.989244 0.3890418 0.14896697 0.7345921
000360 50 08 92 3f a7 47 0c 3f b6 3f 33 3f dc 89 9b 3f
       1.1408787 0.5479683 0.7001909 1.2151446
000370 cc c6 00 3f ee 9c fc 3e 84 ed 8a 3f 2b 41 0b 3f
       0.5030334 0.49338478 1.0853734 0.54396313
000380 32 a1 60 3f d6 a0 a9 3f cc 32 aa 3f 13 0a 2f 3f
       0.87745965 1.3252208 1.3296752 0.6837475
000390 49 ed 2b 3f de b8 da 3f 49 50 cd 3d 8a 25 22 3f
       0.67158943 1.7087667 0.10025079 0.6333853
0003a0 5b 12 a3 3f 7e 40 33 3f 9a 87 d7 3e 3b 1f 32 3f
       1.2739977 0.7002028 0.42095643 0.69578904
0003b0 b9 b3 01 3e b9 a4 cd 3c 0b d8 d2 3f 22 42 5f 3f
       0.12666215 0.02510296 1.6472181 0.87210286
0003c0 c8 cc a2 3e 54 d8 8c 3f 67 b1 2a 3f 5d 1e 47 3f
       0.3179686 1.1003518 0.66676944 0.77780706
0003d0 1b 75 1c 3f f9 d1 5c 3f 2b dc 90 3f 95 c9 78 3f
       0.6111619 0.8625789 1.131719 0.9718259
0003e0 23 1f 88 3d ca 95 8e 3f 07 64 f1 3c ea 1c 64 3e
       0.06646564 1.1139462 0.029466642 0.22276655
0003f0 35 a6 93 3f 20 36 11 3f 09 5e 35 3e 04 50 35 3f
       1.1535097 0.56723213 0.17711653 0.7082522

bn1.bias f4 [504]
000000 f0 bd 98 3a b2 97 26 3d 96 88 f9 be 15 fd 9c bc
       0.0011653285 0.04067201 -0.4873702 -0.019163648
000010 95 36 fa bd fe 05 ab be 9b f4 be bd 58 9a 58 3e
       -0.12217442 -0.3340301 -0.093239985 0.21152627
000020 8e a2 d7 bc 93 f6 18 be 3b ba 50 bd 65 ce 4e be
       -0.02632263 -0.1493781 -0.050958853 -0.20195921
000030 3e 7e 92 be 6b 21 d2 3c 92 00 30 bf f8 8f 93 be
       -0.2861194 0.0256507 -0.6875087 -0.28820777
000040 84 fa b7 be e7 f2 b4 3e 48 37 5f 3e a7 cc d8 be
       -0.35933316 0.3534157 0.21798432 -0.42343637
000050 10 07 74 3e f0 5a 10 bf 85 a7 22 be ad 32 6a bf
       0.23830819 -0.5638876 -0.15884216 -0.91483575
000060 99 59 06 bf dd a1 d9 be dc 8e fa be be 09 84 be
       -0.52480465 -0.42506304 -0.48937118 -0.25788683
000070 79 05 f3 be 52 c4 ac be 7a 5d c7 be c3 f9 e5 3d
       -0.47465113 -0.3374353 -0.38938504 0.11229279
000080 5c a0 8b be bd c8 7f be 44 16 15 be a0 6d 87 be
       -0.27270782 -0.2497892 -0.14559275 -0.26450825
000090 30 a1 76 3d d6 2b 5b be 5c fe 1d be 24 85 4d be
       0.060212314 -0.21403441 -0.15429062 -0.2007032
0000a0 9e 5f c8 bd af d3 8e be bf 63 53 3d a5 e4 d9 be
       -0.097838625 -0.27895877 0.051608797 -0.42557254
0000b0 4e b4 0c bf e2 cf c9 bd 0a de 8f be 10 e7 80 be
       -0.54962623 -0.098541036 -0.2809909 -0.25176287
0000c0 b6 89 59 bf 0a ce 0e be d9 cf 0b bf d4 ca 60 3e
       -0.84975755 -0.13945785 -0.54614025 0.21952373
0000d0 b5 8c 3e bf 97 5c 1a be b6 4a ce be 4d a8 30 bf
       -0.7443345 -0.15074383 -0.40291375 -0.69006807
0000e0 5e cf 08 bd 16 c0 ec be a0 2a cc 3d 55 de 2e bb
       -0.033400886 -0.462403 0.099690676 -0.0026682813
0000f0 29 7c 82 bd 1a 23 04 bf 26 d1 91 be c7 05 10 bf
       -0.06371338 -0.5161606 -0.2847988 -0.56258816
000100 66 4f 9c 3e aa ff 49 be 08 45 06 be 54 36 69 3c
       0.30529326 -0.19726434 -0.13112271 0.014234144
000110 c0 c4 c4 bc 3c ee 8d bd 4c e6 ad bd cf a2 66 bd
       -0.024019599 -0.06930205 -0.08491191 -0.05630761
000120 df dc 65 3d b8 46 43 3e 7c e5 e0 3c af cf 8b be
       0.056118842 0.19069946 0.027453177 -0.27306888
000130 cc 7f 08 bf 81 1a 03 bf b4 02 05 bf bd b2 dd bd
       -0.5332 -0.51212317 -0.5195725 -0.10825107
000140 ea 95 14 be be cb e0 be 9e 75 5f bd 00 58 56 be
       -0.14510313 -0.43905443 -0.054555528 -0.20932007
000150 8d a7 26 3d 30 49 5c bf 70 a8 e2 bd 19 c2 89 be
       0.040687133 -0.86049175 -0.11067283 -0.26905897
000160 93 f2 b2 be d3 48 f0 bd cd 41 51 be 8f 9b ff bc
       -0.34950694 -0.1173264 -0.20435257 -0.031202106
000170 3e c4 bc be c0 e0 16 bf b4 4d 80 be 25 f8 a2 be
       -0.3686847 -0.5893669 -0.25059283 -0.31829944
000180 f4 75 ca be d4 9b 93 be d6 04 dd be 14 49 bc be
       -0.39543116 -0.28829825 -0.43167752 -0.36774504
000190 be 6b fa be 3c cf bf 3c da 37 14 be b4 0f e0 3e
       -0.48910326 0.023414247 -0.1447443 0.4376198
0001a0 af ad 01 bf 1c 71 0e bf 00 1d 1e bf f3 ea aa be
       -0.50655645 -0.5564134 -0.61763 -0.33382377
0001b0 c5 7e 06 bf f1 81 21 bf 93 1f 62 3e e7 eb 16 3c
       -0.52537185 -0.630889 0.22082357 0.009211517
0001c0 c7 ea d0 3d ab 7d 22 bf 81 0e c2 3e 12 c7 29 bf
       0.1020103 -0.63473004 0.3790169 -0.6631938
0001d0 b4 05 b1 3d 4e 5d ed 3d 3f b6 cd be 13 8a fb be
       0.08643666 0.11590062 -0.40178105 -0.4912878
0001e0 dc 1a 85 3d a2 29 92 be bc 85 57 bf 59 22 34 bf
       0.06499264 -0.28547388 -0.8418844 -0.7036491
0001f0 80 d0 47 3f 2a d7 10 bf 53 84 f0 3e cb 57 61 be
       0.7805252 -0.56578314 0.46975955 -0.22006147
000200 4f b7 19 bf 8f 0b 55 bf d5 36 5c 3e d6 71 c3 3e
       -0.6004533 -0.8322076 0.21505292 0.38172787
000210 b8 05 8d bd a9 4c 65 3e 74 d9 2d be a7 46 e7 bc
       -0.068858564 0.22392525 -0.16977483 -0.028231932
000220 2b 36 a9 be 62 d9 13 3d b9 da 1b be d9 d1 26 be
       -0.3304914 0.036095984 -0.15220155 -0.16290988
000230 47 ca 93 be 5f 32 02 3f 8f 20 1e 3e c0 e8 1a bf
       -0.28865263 0.5085811 0.15442108 -0.605114
000240 df 71 a1 be 69 a2 5b be ee 36 a5 be 7b db 34 bf
       -0.3153219 -0.21448673 -0.3226847 -0.706474
000250 68 8a 8d bd a3 af bb be 97 8f ec be 57 ff 0e bf
       -0.069111645 -0.36657438 -0.462033 -0.5585837
000260 40 60 a8 be 18 fc c6 be 08 33 75 be 83 b7 6e bf
       -0.32885933 -0.38864207 -0.23945248 -0.93248767
000270 98 00 5f be 79 11 1b 3e f1 bd f9 be fd 24 86 bd
       -0.2177757 0.15143384 -0.48777726 -0.06550024
000280 cf 1f 01 bf f7 58 18 bf f0 e1 a7 be 31 47 02 bf
       -0.5043916 -0.5951075 -0.32789564 -0.5088988
000290 a9 5f 7b bd d7 9d 8c be 66 bb 00 3f 18 ab ff be
       -0.061370526 -0.27464172 0.5028595 -0.49935222
0002a0 b7 ed d9 be 37 1a a0 bd d0 d5 aa 3c 4f 33 e2 be
       -0.42564175 -0.078175 0.020853907 -0.4417977
0002b0 59 43 c2 bd c3 dc f3 be 9c e2 bb be 5a 56 a9 be
       -0.09485502 -0.47629365 -0.36696327 -0.33073694
0002c0 c3 33 5e be 8e 22 78 bf 51 82 07 bf cc 25 3b bf
       -0.21699433 -0.96927726 -0.5293322 -0.7310455
0002d0 e6 f6 51 bf 72 fa e3 be a1 fa c3 3d 96 83 76 bf
       -0.8201736 -0.44527012 0.09569288 -0.96294534
0002e0 ac e4 be 3e 82 9b 9e bf 41 2a a6 be f1 f4 7b bf
       0.37283838 -1.2391207 -0.32454112 -0.98420626
0002f0 7e a7 18 3d e6 60 84 bd a4 fb c8 3e d6 c8 cb 3b
       0.037269108 -0.064637944 0.39254487 0.00621901
000300 21 ae cb be a8 7f 21 bf 96 7e 9c be 63 d7 8d bd
       -0.39781287 -0.6308541 -0.30565327 -0.069258474
000310 5f b3 3b bf 1f 6d d3 3d a0 c1 96 bc b6 ed 90 3e
       -0.73320574 0.103235476 -0.018402874 0.2830636
000320 57 a5 95 bd b9 3a 29 be 86 cc 10 bf a5 0d b9 be
       -0.07306927 -0.16526307 -0.5656208 -0.36143222
000330 ff 12 39 bd 18 71 5e bf 86 ab bc be eb 41 a5 be
       -0.04518413 -0.8689132 -0.36849612 -0.32276854
000340 8d 9d 3b 3c ef 8e 76 bd 89 41 35 bf cf a0 e4 be
       0.011451137 -0.060194906 -0.70803124 -0.44653937
000350 7d 4e ef be a5 dd dc be fd 4f c9 3d 3e 82 1a be
       -0.4673957 -0.4313785 0.0982971 -0.15088746
000360 c4 c3 ef be 18 5c d0 be 75 ed 01 bf f6 92 b4 be
       -0.46829045 -0.40695262 -0.50752956 -0.35268372
000370 90 9d db 3d 7a 48 34 be 43 f5 80 be 15 88 d3 be
       0.10723412 -0.17605773 -0.2518712 -0.4131476
000380 89 81 a3 bc 14 ca 27 bf 96 1f c5 be 2d 26 8c bc
       -0.019959228 -0.6554272 -0.3850066 -0.017108047
000390 d7 ec bd be 79 e8 97 3d 6c eb 68 bf f6 7c 74 be
       -0.37094757 0.074173875 -0.90984225 -0.23875794
0003a0 15 f9 ce be 05 1f ff be 1f eb 7d be 36 89 21 bf
       -0.4042441 -0.49828354 -0.24796723 -0.6309999
0003b0 40 28 ec be 5c 49 0f bf 1a 52 0e bf ea c8 8b be
       -0.46124458 -0.5597131 -0.5559403 -0.27301723
0003c0 6f c4 07 bf 62 96 74 be 6d dd cd be c2 61 e5 be
       -0.5303411 -0.23885491 -0.40207997 -0.44801146
0003d0 40 30 b2 bd 19 23 3f bf da 96 22 bf 88 72 d9 be
       -0.08700609 -0.7466293 -0.6351143 -0.42470193
0003e0 4b 75 32 bf 53 cc e8 bd b4 8b d1 be f4 c8 b6 be
       -0.69710225 -0.11367097 -0.40926898 -0.3570019
0003f0 b0 5a 37 be d6 8a 83 bd 50 25 95 be 65 4c c9 bd
       -0.17905688 -0.06422965 -0.2913003 -0.09829024

bn1.running_mean f4 [504]
000000 a9 2d ce 3c 23 e4 20 3d a7 92 cb b9 77 83 b8 bc
       0.025168257 0.039280068 -0.00038828442 -0.022523625
000010 79 eb 53 3d 85 1c 90 3d bf 9e 1c ba 06 b3 f9 3c
       0.051738236 0.0703669 -0.0005974583 0.030480873
000020 9b 1c 0d bd 21 e4 33 3d 56 95 59 3c d5 e1 29 bd
       -0.03445111 0.043918733 0.013280233 -0.041475136
000030 be 07 0c 3d c4 2e 10 3d 11 d4 ab bd d7 bb 8d bd
       0.03418707 0.03520085 -0.08390058 -0.06920593
000040 7c c7 46 bc 5c 8f 7a 3c 3a 8c a0 3c bc 8a ba bd
       -0.012132522 0.015292969 0.019598115 -0.09108493
000050 13 c7 bc 3c b9 2f 54 bd 04 27 a8 3d 3a 3f 20 3c
       0.023044145 -0.051803324 0.08210567 0.009780699
000060 54 2a 4a 3d 20 77 f3 bd 54 77 a2 3d e7 b5 e6 bd
       0.049356773 -0.11887956 0.07932916 -0.11265164
000070 54 d2 bc bb ea 0d ca bb 1d 30 3f 3d 84 02 81 bc
       -0.0057623778 -0.0061662095 0.046676744 -0.01574827
000080 5a de 9a bd c6 7a c9 bc cf c4 d3 bc de b6 d8 3d
       -0.075619414 -0.024594676 -0.025850682 0.10581754
000090 2a 7c af bc 2c 11 8a bc 74 24 18 3e 5d ca 81 3c
       -0.02142151 -0.016853891 0.14857656 0.015843565
0000a0 88 45 aa 3c a7 ca f2 bd 3c f1 ea 39 f3 13 98 3d
       0.020785108 -0.11855059 0.00044811692 0.0742568
0000b0 92 20 c0 bd c9 32 84 3d 4b 71 6f bd cd ba 0d 3d
       -0.09381212 0.06454999 -0.058457654 0.034601975
0000c0 e7 28 be bc 2d 97 8d 3d 15 a6 bd 3a 5a 79 04 bd
       -0.023212863 0.069136 0.0014469052 -0.032342292
0000d0 c2 9c be 3c 2d 8d 9d 3a fc 96 ef bb 0a e2 65 3d
       0.023268107 0.0012020223 -0.0073117 0.05612377
0000e0 8e d2 20 bc af da c4 3c 58 ed 88 bc b5 80 45 3a
       -0.009815825 0.024030058 -0.016714737 0.00075341325
0000f0 fd a8 94 bd 21 04 bd bd d0 6c d4 bd e3 f4 13 3c
       -0.072587945 -0.09229303 -0.10372317 0.0090305535
000100 cc 67 de 3d 5f 80 9c bd 1f f1 df 3c 74 56 44 bd
       0.108596414 -0.07641672 0.027336655 -0.04793401
000110 c8 4a af 3a 1c 3e db bc e7 4f 81 bc b8 ca e8 bd
       0.0013373727 -0.026763014 -0.01578517 -0.113667905
000120 9c 03 48 3d 99 0c 78 bc 71 17 cb bc bd 2c 49 3d
       0.048831567 -0.015139722 -0.024791451 0.04911493
000130 59 1e fb 3d ff 26 f8 3d dd b0 49 3d 7a ed 0f 3c
       0.12261648 0.12116813 0.049240936 0.008784646
000140 28 dd 51 3a 81 08 f5 3d cd 18 d3 3d 6a 35 20 bd
       0.0008005672 0.119645126 0.10307465 -0.03911344
000150 4f 76 a9 3d 6c 81 2a bd 9d 3e 51 bd 70 55 02 bd
       0.08274519 -0.041627333 -0.051085103 -0.03181976
000160 92 9c 47 bd 59 47 fe 3d 24 9b 3b bd 53 cd 09 3c
       -0.0487333 0.12415952 -0.04580225 0.0084107695
000170 3a 06 5d bd a2 64 80 3c 3c 2f 17 bd f3 b5 33 3d
       -0.053961016 0.015672985 -0.03691028 0.043874692
000180 2f 51 9b 3c 21 45 d3 bd e3 dc ba bd d3 12 df bc
       0.01895961 -0.1031592 -0.09124162 -0.027230656
000190 38 19 b7 bc 6b bf 02 bb b5 e5 7c bd d6 74 bc 3d
       -0.022350892 -0.001995052 -0.061742503 0.09201972
0001a0 f7 ba 5e 3d 8e 4b 9d 3d ed b9 4e 3c 01 3c b1 bd
       0.054377522 0.076804265 0.01261757 -0.08654023
0001b0 88 37 20 3e 1c 76 a0 3d 75 73 5f 3b 45 6d 01 be
       0.15646183 0.078350276 0.0034095917 -0.1263934
0001c0 03 51 1c bd 88 7a 59 3d ac 5e 44 3d e2 8c 55 3d
       -0.038163196 0.05309537 0.04794185 0.05213631
0001d0 cf eb 73 bd 8f db c4 3d 2c 1b d0 3d c7 b5 84 3b
       -0.059551056 0.0961219 0.101614326 0.00404999
0001e0 36 2e c2 bd b0 c4 b0 bc 40 53 f8 bc dd 76 ce 3c
       -0.0948147 -0.021578163 -0.030313134 0.025203163
0001f0 f8 3d ed 3d 88 f3 7c bd 79 ba 86 bd 1f 47 c9 3d
       0.11584085 -0.061755687 -0.065785356 0.098280184
000200 50 1d d2 bc 91 e5 70 bd c4 71 b3 bd 5c 6e 08 3e
       -0.025648743 -0.05881268 -0.087619334 0.13323349
000210 c2 9d 88 3c f0 62 85 bd 07 17 e3 bc 70 0a 2c 3e
       0.016676787 -0.065130115 -0.027720941 0.16800857
000220 3a 95 5e bd 57 4b f3 b6 9a 67 bb bd 6e e4 4d 3d
       -0.054341532 -7.250735e-06 -0.0915062 0.050266676
000230 a7 6a 0f bc 55 51 7b bd 7d 19 a0 bd af 1d 25 3a
       -0.008753455 -0.06135686 -0.078173615 0.00062986737
000240 e7 6c 0e bd 7a bf 30 3d 8d e1 47 3d 03 32 81 3d
       -0.034771826 0.043151356 0.048799086 0.06308367
000250 ac ef 72 3d ac 84 88 bb 6a 3a 75 3d 21 3b 08 bc
       0.0593106 -0.0041662063 0.05987016 -0.008314879
000260 9e a5 05 bc 9b 0b af bb 65 48 e1 3d 1a 1b 29 bd
       -0.008157162 -0.0053419597 0.11000136 -0.04128561
000270 c9 28 28 3d f9 04 75 bc 3e af 85 bd a7 a6 84 bd
       0.04105452 -0.014954799 -0.065275654 -0.06477099
000280 8e f3 7d bd 2c d4 68 3d 97 b3 0e bd dd 10 d0 bb
       -0.06199985 0.056842968 -0.03483924 -0.0063496665
000290 11 1f c7 3c 0d ee 97 3d 43 f1 2e bd 42 d1 73 bd
       0.024306806 0.074184515 -0.042710554 -0.059525736
0002a0 5d c0 88 bc 8f 51 93 bc ba 5c 0b 3d c6 ff b4 3d
       -0.016693288 -0.017983226 0.034023978 0.088378474
0002b0 d2 12 9c bd 7d 9e f6 bc c7 4e 8d bd f4 46 25 3d
       -0.07620777 -0.03010487 -0.06899791 0.04035087
0002c0 bf 2c 67 3d bb b7 fd 3c e7 e6 05 bd a5 5b 5c 3b
       0.056439158 0.030971399 -0.03269091 0.003362396
0002d0 90 6a b2 bd 4d c1 43 bd 7a 3a a2 3d 0f 7b d6 bc
       -0.087117314 -0.047791768 0.0792131 -0.026181726
0002e0 1a be c1 3a b9 3c 08 bd 63 b0 9d 3c a7 7a 85 bc
       0.0014781386 -0.033261035 0.019249147 -0.016293837
0002f0 88 4e 7c bd 0c a4 59 3d b8 c7 4c 3d 88 dd e8 3c
       -0.06159833 0.053134963 0.049995154 0.028425947
000300 d6 eb 29 bd 5d 4c 42 bd 05 0c 5c bd e0 82 b2 bd
       -0.041484676 -0.047436107 -0.0537224 -0.08716369
000310 27 17 16 bd e1 b8 05 be 72 50 ac bc c4 bf 87 3d
       -0.036643174 -0.13058807 -0.021034453 0.06628373
000320 53 5e 69 3c bd 9d 1b bd c4 64 b8 3c 47 a3 de bb
       0.01424368 -0.037992228 0.022508986 -0.0067943665
000330 d3 17 0c bd 6a ae 7b bd d0 57 73 bd b2 14 ba 3d
       -0.034202408 -0.06144563 -0.059409916 0.090859786
000340 d0 ac a7 3c db 64 6a 3d ff 0b 33 bd db 11 5a bd
       0.020468146 0.05722509 -0.043712612 -0.053239685
000350 57 39 55 3d cd e2 ed bd f3 80 0f bd a1 a1 13 bd
       0.052056637 -0.116155244 -0.035035085 -0.036042813
000360 fe 47 c1 3d 95 52 9b bc b5 5e a2 3d 43 d6 4a 3e
       0.094375595 -0.018960277 0.0792822 0.19808297
000370 03 9c 9d 3d 7c 83 c4 bc 47 f1 ba bc 35 67 5c 3d
       0.076957725 -0.023988478 -0.022820128 0.053809363
000380 0c 12 a7 3d 6d 1d e8 3d 20 cf 37 3d 83 0c 6d bc
       0.08157739 0.113337375 0.044875264 -0.014468315
000390 b8 16 4b 3d 8b e0 20 bc aa eb 1b bc a0 75 ff bd
       0.049582213 -0.00981916 -0.009516636 -0.12473607
0003a0 61 d5 9d bb 83 fe f3 bc 29 2f 03 bc 93 a9 04 bd
       -0.0048166965 -0.029784447 -0.008006849 -0.03238828
0003b0 58 f5 09 3d 3f ab a1 3b e6 d5 b7 bb 6d 4a ec bd
       0.033681244 0.004933744 -0.0056102155 -0.11537633
0003c0 04 f1 40 3c bd a6 ce 3c 3a 73 8f bd 3e 7a 0e 3d
       0.011776213 0.025225991 -0.070043996 0.034784548
0003d0 e3 06 d5 ba 03 0c 8d 3d aa 1d 5d bc cb 67 76 3d
       -0.0016252663 0.06887057 -0.013495842 0.06015758
0003e0 3f cb 83 3c e1 ae 6b 3d 4c b3 fb bc 62 8d 2c 3d
       0.016088126 0.057539824 -0.030725144 0.04212702
0003f0 42 59 0c be e2 e0 22 3d c3 e9 83 bc 55 c9 93 bc
       -0.13705924 0.039765246 -0.016102677 -0.018040339

bn1.running_var f4 [504]
000000 af 50 22 3f 28 08 86 3f 92 92 0e 3f 73 6d 34 3f
       0.63404363 1.0471239 0.556924 0.70479506
000010 1c 2b 5b 3f 0a 47 79 3f 23 78 a2 3f cf 8c 4a 3f
       0.85612655 0.9737402 1.2692913 0.79121107
000020 d5 f9 41 3f af d0 75 3f d3 21 89 3f 91 1b 27 3f
       0.7577184 0.9602155 1.0713447 0.6527644
000030 c1 96 3f 3f 54 c1 37 3f 7e ed 43 3f 74 51 d5 3e
       0.7483941 0.7177937 0.7653426 0.41663706
000040 32 38 81 3f 41 f3 1d 3f a3 b2 2a 3f 28 72 1f 3f
       1.0095274 0.616993 0.6667883 0.62283564
000050 7c 0c 5e 3f e3 14 53 3f 23 9a 48 3f 78 45 59 3f
       0.867378 0.82453746 0.78360194 0.84871626
000060 27 af 98 3f d1 a1 72 3f a9 6f 83 3f 8d 17 aa 3f
       1.1928452 0.9477816 1.0268451 1.3288437
000070 6c eb 03 3f 9f 3e 1e 3f 27 69 3c 3f 59 a1 41 3f
       0.515311 0.618143 0.7359795 0.7563682
000080 4a 6e b8 3e 5a da 01 3f f2 5c d2 3e b0 ce 18 3f
       0.36021644 0.50723803 0.41086537 0.5969038
000090 4a 05 55 3f be 38 28 3f ed e3 54 3f 77 66 82 3f
       0.83211195 0.6571158 0.8316029 1.018752
0000a0 1d 85 18 3f 37 35 b3 3f af f8 1e 3f f6 06 40 3f
       0.59578115 1.4000615 0.6209821 0.7501062
0000b0 b9 0f 65 3f 48 2a 39 3f 24 0c 18 3f a3 99 2c 3f
       0.89477116 0.7233014 0.59393525 0.6742193
0000c0 51 bf d1 3e 85 da 79 3f 68 fb 10 3f 6b 85 2e 3f
       0.40966275 0.9759906 0.56633615 0.6817233
0000d0 22 56 08 3f 7b 25 3b 3f 4f 3d 48 3f 25 cf 7d 3f
       0.5325643 0.73104066 0.7821855 0.991442
0000e0 55 2e 48 3f f0 3e 8b 3f 82 85 e6 3e 03 8e 55 3f
       0.781957 1.0878582 0.45023733 0.8341982
0000f0 74 58 12 3f 23 fd 58 3f fc 77 f2 3e 53 ac 82 3f
       0.5716622 0.84761256 0.47357166 1.0208839
000100 0e 69 80 3f 1c 19 5f 3f 19 eb 38 3f ad 5e 39 3f
       1.003206 0.8714769 0.7223373 0.7241009
000110 27 8b c1 3e 45 d7 3e 3f e0 bc 90 3f e7 b0 74 3f
       0.37801477 0.74547225 1.130764 0.9558243
000120 1c 5f b5 3e c7 b7 55 3f 68 3e aa 3f d5 7e 34 3f
       0.35424125 0.83483547 1.3300295 0.7050603
000130 04 e1 80 3f f1 3c 61 3f ff de 13 3f 91 e0 df 3e
       1.0068669 0.87983614 0.5776214 0.43726018
000140 4a af 48 3f 4d 7b 16 3f 3a da 43 3f 44 9b 11 3f
       0.7839247 0.5878189 0.7650486 0.5687754
000150 28 55 83 3f cb 50 43 3f 2a a8 cb 3e 48 d7 11 3f
       1.0260363 0.76295155 0.39776736 0.5696912
000160 db 80 68 3f f9 af 88 3f 47 2b 1d 3f 13 cb 24 3f
       0.9082162 1.0678703 0.6139416 0.64372367
000170 60 10 22 3f 27 36 4f 3f 5e e0 44 3f 6e 96 00 3f
       0.63306236 0.80942005 0.7690486 0.5022954
000180 db 90 5f 3f ba 9c 9b 3f cc b8 40 3f 89 6d 7f 3f
       0.87330407 1.2157204 0.7528198 0.9977651
000190 b1 f6 35 3f e8 32 a0 3f c9 36 47 3f be e6 40 3f
       0.71079546 1.2515535 0.7781797 0.75352085
0001a0 16 24 7e 3f 70 27 0f 3f f5 a7 40 3f e4 4a e1 3e
       0.9927381 0.5591955 0.7525628 0.4400245
0001b0 ce ff 76 3f c6 0e 16 3f 2b ec 57 3f 03 65 37 3f
       0.96484077 0.5861629 0.8434474 0.71638507
0001c0 f9 8d 82 3f b9 89 48 3f 09 07 52 3f 7e 68 93 3f
       1.0199577 0.7833515 0.82041985 1.1516263
0001d0 1c 41 03 3f d8 33 18 3f f7 7a 4e 3f f1 ea c1 3e
       0.51271224 0.5945411 0.8065638 0.3787456
0001e0 d4 12 81 3f ef 1e 3a 3f f8 2b 31 3f 8c 18 69 3f
       1.0083871 0.7270345 0.69207716 0.9105308
0001f0 0d 70 8e 3f 61 29 82 3f 5c 8b 32 3f df 21 34 3f
       1.1127945 1.0168878 0.69743896 0.70364183
000200 6b 50 35 3f 6e dd f8 3e 07 27 0e 3f f3 de 04 3f
       0.70825833 0.48606437 0.555283 0.51902694
000210 4a b2 3f 3f 11 91 87 3f 5e 5a 2f 3f 38 8c 85 3f
       0.7488142 1.0591146 0.68497264 1.0433416
000220 e5 49 16 3f b4 b9 75 3f 40 05 d4 3e 01 82 90 3f
       0.58706504 0.95986485 0.41410255 1.1289674
000230 3a a6 d4 3e e6 0d 29 3f 32 56 95 3f 23 8b 6d 3f
       0.4153307 0.6603683 1.166693 0.9279043
000240 31 0c 74 3f d1 c1 43 3e ea 4b 7a 3f 8d 90 01 3f
       0.953311 0.19116904 0.97772086 0.5061119
000250 1e b2 51 3f 7c ef 0a 3f 51 3e b7 3e 30 c1 10 3f
       0.8191241 0.54271674 0.3578973 0.5654478
000260 c4 9a 5f 3f ed 2c 88 3f 49 ac 7f 3f ca b2 5d 3f
       0.8734553 1.063871 0.9987226 0.86600935
000270 59 50 19 3f 11 46 a3 3f 0d af df 3e e9 a8 2f 3f
       0.59888226 1.2755758 0.4368824 0.6861711
000280 12 42 da 3e c7 d7 55 3f 6f 94 e4 3e c9 39 56 3f
       0.42628533 0.83532375 0.44644496 0.83681923
000290 0c 28 d2 3e 32 47 24 3f 65 36 eb 3e 3f e4 fe 3e
       0.41046178 0.64171135 0.45939937 0.49783513
0002a0 82 61 50 3f 3c 4a 78 3f c5 fd 22 3f 6d 6f b4 3e
       0.81398785 0.9698827 0.6366847 0.3524126
0002b0 f7 e4 1d 3f 37 2d 1f 3f 45 d6 a9 3f 60 9a 35 3f
       0.616775 0.6217837 1.3268515 0.7093868
0002c0 de a5 bb 3f 4c 32 a0 3e 7c 3f a2 3f aa c9 1e 3f
       1.4659994 0.31288373 1.2675624 0.62026465
0002d0 fe 19 78 3f dd be 07 3f 80 82 31 3f 39 0f e5 3e
       0.9691466 0.5302561 0.6933975 0.44738176
0002e0 9a ba 87 3f 1f 26 4d 3f e5 30 95 3f 99 7a ae 3e
       1.0603821 0.80136293 1.1655546 0.3407791
0002f0 d3 04 74 3f b9 05 1d 3f 5d 64 85 3f f5 16 17 3f
       0.9531986 0.6133686 1.0421253 0.59019405
000300 c4 18 28 3f 5f 29 22 3f c6 e0 7e 3f a5 20 6e 3f
       0.6566279 0.6334438 0.9956173 0.9301856
000310 a9 d9 49 3f 99 23 0f 3f 93 17 47 3f 37 a5 8b 3f
       0.7884775 0.5591369 0.77770346 1.0909795
000320 d9 87 6a 3f e0 48 37 3f 15 6b 33 3f f4 dd 34 3f
       0.9161354 0.71595573 0.7008527 0.70651174
000330 86 7e 25 3f 31 b2 0a 3f ad a8 14 3f 85 b3 4a 3f
       0.64646184 0.5417815 0.5806988 0.79180175
000340 9e a0 37 3f c5 29 42 3f 3a ea 23 3f 09 81 25 3f
       0.7172946 0.75844985 0.64029276 0.6465002
000350 e2 e1 45 3f 20 ee 11 3f 62 84 9e 3f 71 b6 3f 3f
       0.77297795 0.57003975 1.238415 0.7488776
000360 2e 47 5a 3f 29 65 47 3f 69 47 8c 3e 01 d8 b6 3f
       0.8526486 0.77888733 0.27398232 1.4284669
000370 c0 6f ea 3e cd 2c 1b 3f b7 74 d4 3e 00 54 18 3f
       0.45788383 0.60615236 0.41495296 0.59503174
000380 c3 27 5c 3f a8 ba 7a 3f bc 63 9e 3f 6a 77 24 3f
       0.8599817 0.97941065 1.2374187 0.6424471
000390 36 a9 36 3f 4f 53 70 3f 23 c2 38 3f 4e 6e 84 3f
       0.71351945 0.9387712 0.7217123 1.0346162
0003a0 bb dd 78 3f 0f b3 27 3f 76 a2 f6 3e 85 aa 5a 3f
       0.97213334 0.65507597 0.48170823 0.8541644
0003b0 9d d3 86 3f de 3e 5f 3f c4 bd 65 3f 0d 63 86 3f
       1.0533329 0.872053 0.89742684 1.0498978
0003c0 65 9c 03 3f f4 89 43 3f f6 4d ac 3e e4 e3 82 3f
       0.51410514 0.76382375 0.3365323 1.0225797
0003d0 bd b9 e2 3e 98 ea 58 3f a3 a7 7a 3f 4c fe 41 3f
       0.44282332 0.8473296 0.97912043 0.7577865
0003e0 e3 8c ad 3f 9c 3d cb 3f de e9 27 3f df df be 3f
       1.355862 1.5878177 0.6559123 1.491207
0003f0 c7 57 a3 3f 10 ec 67 3f bc ff 83 3f d8 9c 0d 3f
       1.2761163 0.9059458 1.0312419 0.5531745
